checkpoints/dong_fno_forward.pth (torch, 114314 bytes, 18 tensors)

lift.weight f4 [16, 3, 1]
000000 7b bc 01 bf 28 40 97 3e 21 fa 3e 3d eb ad 27 3e
       -0.50678223 0.29541135 0.04662526 0.16374938
000010 09 8c 09 bf 61 cc e0 bd 01 e0 38 3e 9a a6 d4 3e
       -0.537293 -0.10976482 0.180542 0.41533357
000020 12 9d c1 3e c5 3b df be db d5 d9 be 60 e0 ec be
       0.37815148 -0.43600288 -0.4254597 -0.46264935
000030 8b 33 9f be f7 2e 4b 3d 16 a0 0d 3f 4c 04 91 3e
       -0.31094012 0.049605336 0.55322397 0.2832359
000040 18 f7 50 be 20 1c 9f 3e 65 5c b4 be 45 f5 02 3f
       -0.20406759 0.31076145 -0.3522674 0.511555
000050 70 57 e2 3e 2b dd 0d 3f a9 24 89 be e1 d1 fb be
       0.44207335 0.554156 -0.26785782 -0.49183562
000060 e4 97 32 be 97 31 56 3e f7 ac b8 be 56 73 e2 bd
       -0.17440754 0.20917355 -0.36069462 -0.11057155
000070 e2 75 c5 3e fe da 66 3e a8 22 c7 3e d9 ff d8 3e
       0.385665 0.22544476 0.38893628 0.42382696
000080 c5 50 f7 3e 92 0a 2b 3e 1e 30 12 3e 4d 93 09 3f
       0.4830381 0.16703251 0.14276168 0.5374039
000090 60 e0 78 be f0 3a 96 3e 42 f6 ae 3e ad 0a 13 be
       -0.24304342 0.2934184 0.34172255 -0.14359541
0000a0 3b 29 87 3e 91 98 1f 3e 9b 7e c1 be ff 97 f5 3e
       0.26398644 0.15585543 -0.37791905 0.47967526
0000b0 d9 0b ea be 89 40 cc 3b a4 79 8f bd c9 6d 8b bd
       -0.45712164 0.006233279 -0.07005623 -0.06808049

lift.bias f4 [16]
000000 d9 1b fd 3e 41 3d c9 be e4 fb 21 be 1b 1d f5 be
       0.4943531 -0.39304546 -0.15818745 -0.47873768
000010 02 c1 04 bf 98 ea 90 3e 13 40 01 3f d9 2c c1 be
       -0.51857007 0.2830398 0.50488394 -0.3772953
000020 ef e4 10 bf 20 a4 0a bf d4 b0 a9 3e b3 51 aa be
       -0.56599325 -0.54156685 0.33142722 -0.33265457
000030 89 5e 05 3f e4 1a c2 be 0d 3c d0 3e 29 c2 f5 be
       0.52097374 -0.3791114 0.40670815 -0.47999695

blocks.0.1.weight f4 [16, 16, 1]
000000 a1 c6 03 3c 02 67 7a 3e 1a 10 fa 3d 37 44 f3 bd
       0.008042962 0.24453357 0.122101024 -0.11878245
000010 c0 ee 7e be fd 89 11 be bb 4f 71 3e 74 a5 6c 3e
       -0.24895763 -0.14212795 0.23565571 0.2310999
000020 95 77 ed 3c 42 44 7f be c9 d7 71 be 4c ef 3c be
       0.028987685 -0.24928382 -0.23617472 -0.1845066
000030 3c b7 7a be 24 ac fd bd a9 d0 62 be 58 b2 6a bd
       -0.24483961 -0.12386349 -0.2214991 -0.057298988
000040 20 da 22 be c6 c2 91 be fc 62 24 3e e0 85 d0 bd
       -0.1590352 -0.28468913 0.16053385 -0.10181785
000050 a1 8f 2d bd 9a fc fe bd 46 72 be bb fc f9 68 be
       -0.042373303 -0.12450524 -0.0058119623 -0.22751611
000060 31 ae d4 3d 6e a6 3a be 8e a1 1b bd 27 69 ba 3d
       0.10384787 -0.1822755 -0.037995867 0.091020875
000070 1d 3a e3 3d 22 d6 3b be 73 9f 40 3d 1a 82 87 3d
       0.110950686 -0.18343404 0.047027063 0.06616612
000080 57 b0 a4 3b 18 96 85 bd 46 05 8f be 0b 85 2a bd
       0.005025904 -0.06522769 -0.2793371 -0.041630786
000090 51 45 84 be 2b 68 9b bd 47 6c 39 bd a9 53 9e 3e
       -0.25834134 -0.07588228 -0.045269277 0.30923203
0000a0 4f bb 18 bd b8 c0 18 3e 84 b7 12 3e f0 83 8c 3e
       -0.037288006 0.14917266 0.14327818 0.2744441
0000b0 06 ee 54 bc 6a 0f aa bd 92 c3 5c 3c 34 de 29 3e
       -0.012996202 -0.08303721 0.013474362 0.1658867
0000c0 e2 01 11 3d e6 9b 7d 3c 09 89 84 3c 7c 5d 4f bd
       0.035402186 0.015479064 0.016178625 -0.050626263
0000d0 92 65 79 bd 0f 13 39 bd dd c5 f0 3c ec 41 78 be
       -0.06088788 -0.04518419 0.029391224 -0.24243897
0000e0 6f 6c e6 3c 50 31 e9 3b 25 56 01 be 52 2c 2d be
       0.028127877 0.007116474 -0.12630518 -0.16911438
0000f0 86 12 75 3e 97 60 91 bb d7 76 11 3e f6 4f d0 bd
       0.23932847 -0.0044365632 0.1420549 -0.10171501
000100 11 22 40 3e f9 57 21 be 70 80 17 be 04 2a 4c bb
       0.18762995 -0.15756215 -0.14795089 -0.0031152973
000110 90 04 9c bc 0b a1 6d 3e cb e6 08 be 46 70 86 3c
       -0.019045144 0.23205964 -0.1336929 0.016410958
000120 06 d1 8e bc 33 cb 41 be be c5 10 bd dc f8 cc bd
       -0.017433655 -0.1892517 -0.03534483 -0.10008404
000130 72 49 4c 3e 5c be 94 3e 64 e7 34 be ba 71 98 3e
       0.19949892 0.29051483 -0.17666394 0.29774266
000140 a1 c8 1d 3d 85 0e de bd 53 e1 13 be d3 81 85 3c
       0.038521413 -0.10842613 -0.14441423 0.016297257
000150 4c 9d 80 bd 2b e7 e4 3c 95 6d 7e bd ab b6 6d 3e
       -0.06280002 0.02794226 -0.062116224 0.23214214
000160 e0 4d cb bd 1c 96 51 3e d3 c2 5a be 75 d1 31 3e
       -0.09926963 0.20467418 -0.21363382 0.17365058
000170 08 c6 cb 3d 42 0f 2b bd e0 e1 9a bd 70 b2 78 3e
       0.09949881 -0.041762598 -0.075626135 0.24286819
000180 57 51 2e 3e 55 7e 86 3e 62 e1 3a be f9 39 39 3e
       0.17023216 0.2626826 -0.18250039 0.18088521
000190 7b 85 b2 bd 1f 3d 7e bb 37 ba 28 3d 8e f9 35 3e
       -0.08716866 -0.0038793755 0.041193213 0.17770979
0001a0 cf 95 9d bd ae 37 29 be 17 6d 00 bd 15 33 84 3e
       -0.07694589 -0.16525146 -0.031354036 0.25820222
0001b0 94 58 83 be 34 3a 3f 3e c0 f8 63 be 2b 68 60 3e
       -0.25653517 0.18674546 -0.2226286 0.21914737
0001c0 f3 e3 99 bd 72 77 28 3e d7 a7 94 bd 7f fe 30 be
       -0.07514181 0.16451815 -0.072585754 -0.17284583
0001d0 09 62 6d be d2 64 58 3e 9e 95 a4 3b 88 6c 32 3c
       -0.23181929 0.2113221 0.0050227186 0.010890134
0001e0 f9 ca 09 be 58 9a 95 3d 47 bc 8b 3e a9 d0 a7 3e
       -0.13456334 0.07304829 0.27292082 0.32776383
0001f0 cd df 85 ba cb e4 8e 3e 74 09 31 be 24 83 44 bd
       -0.0010213793 0.2790893 -0.17288762 -0.047976628
000200 e3 0d 86 be 20 eb 98 be 42 c4 a0 bd af 6f a9 3d
       -0.2618247 -0.29866886 -0.07849933 0.08273255
000210 3f 4c f9 3d 13 73 57 3d 0c 48 9a be 8a 7c 5e be
       0.12172746 0.052599978 -0.30133092 -0.21727195
000220 28 ca 86 3e 80 89 54 bc 0b af 2b 3d ec 25 c7 3b
       0.26326108 -0.012972236 0.04191498 0.0060775187
000230 06 ab 94 3d d2 82 70 bd a7 ed a0 bd 98 2b 3d 3e
       0.07259183 -0.05871851 -0.078578286 0.18473661
000240 e9 86 27 be 5e 36 d0 3d 88 15 18 bd 01 c4 cc bd
       -0.16360058 0.1016662 -0.03712991 -0.09998322
000250 cd 09 0f be bd 40 13 3e f5 55 b1 bd 8c c2 aa bd
       -0.13968582 0.14380164 -0.08658973 -0.08337888
000260 9b 2a 82 3d 09 0b 41 3e 03 ae 24 3e 77 f4 1e 3e
       0.063557826 0.18851866 0.16082005 0.15522943
000270 90 bf ba 3c 3d 60 9c be 80 5d a4 3e 82 ee a2 bd
       0.022796422 -0.30542174 0.32102585 -0.07955648
000280 63 23 05 3e 66 46 6c 3e 01 ae ce 3c f1 eb 65 be
       0.1300178 0.2307373 0.025229456 -0.22453286
000290 a0 c4 dd bd f0 0d 68 be 34 18 6f 3e 3c 0f 29 be
       -0.10828519 -0.22661567 0.23349077 -0.16509718
0002a0 bb c3 53 be c3 d9 40 3e f8 7c 32 bd 3a 95 c9 bc
       -0.20680134 0.1883307 -0.04357621 -0.02460729
0002b0 67 f2 48 be 04 ed cd bd bb 66 20 bd 6c 6a 36 3e
       -0.19623719 -0.10054973 -0.03916047 0.17814034
0002c0 3c bb 82 3e ca fe 10 3c 87 48 36 be 80 ee 3e 3e
       0.25533473 0.008849809 -0.17801104 0.18645668
0002d0 b5 5a 8f be c7 91 50 3d 4f 7e a3 bd a7 c3 60 3d
       -0.2799889 0.050920274 -0.07983076 0.05487409
0002e0 e8 16 30 3d 2f c2 fb bd 01 46 94 3e 5c 27 03 be
       0.042990595 -0.12292897 0.2895966 -0.12807983
0002f0 a7 7f b1 3d af 54 17 be 70 53 6f be 43 b9 8a 3d
       0.08666926 -0.14778398 -0.23371673 0.06773617
000300 b0 11 d1 3c 2e f1 87 3d 1c 28 02 3e 3d e7 3c be
       0.02552113 0.06637798 0.12710613 -0.18447585
000310 94 a5 0f 3d df 2e 71 3e 49 b4 3d be b3 ff 2e 3e
       0.035070017 0.23553036 -0.18525805 0.17089729
000320 95 6b 9e be ee 9d c3 bc 06 c1 4b 3e fe 76 6a 3e
       -0.30941454 -0.023879018 0.19897851 0.22896954
000330 eb 2a 4d be 16 3c a4 3d 8a da d3 3d e1 7a 53 3e
       -0.20035903 0.08019273 0.103444174 0.20652343
000340 2a f1 15 3e 19 45 8d 3e 3b 0a 0d 3e 25 43 79 be
       0.14642778 0.2759178 0.13773434 -0.2434202
000350 ca 4c 8b 3d e8 d3 93 3e d6 cc 35 bd e3 75 ff bd
       0.06801756 0.2887261 -0.0443848 -0.12473657
000360 6b 1c ac 3d 8e 20 12 3e 60 9f 7b 3b b9 e9 21 3d
       0.08403858 0.14270231 0.0038394555 0.039529536
000370 7a c8 c7 3d e0 aa 99 bd b2 06 b0 3d 66 96 2c bd
       0.09755035 -0.07503295 0.08595027 -0.04213562
000380 66 96 68 3e dc 8d 65 3e 92 87 5b be 14 53 81 be
       0.22713622 0.22417396 -0.21438435 -0.25258696
000390 ec aa b4 bd 27 1a 25 ba 1d aa f5 3d 93 e7 3f be
       -0.08821663 -0.00062981475 0.11995337 -0.18740682
0003a0 5a 68 85 be 52 72 8f be 53 28 52 3e 95 f1 52 3e
       -0.26056176 -0.28016907 0.20523195 0.20599969
0003b0 d0 b0 e8 bc 90 51 94 bd 21 d7 de ba fd a1 e4 3d
       -0.028404623 -0.07242119 -0.0017001369 0.11163709
0003c0 eb aa 08 3e 7f 47 34 3e 78 c6 ba 3d 78 70 8d be
       0.1334645 0.17605399 0.09119886 -0.2762487
0003d0 07 ba 33 3e e2 70 82 bc e9 9d e6 3c d1 81 b1 bd
       0.17551433 -0.015922967 0.02815147 -0.08667339
0003e0 48 0e 69 3e 1c 0e 0b 3d 53 0e 72 be a3 a0 64 be
       0.22759354 0.033949003 -0.23638277 -0.22326903
0003f0 1b 0e 39 be 25 01 9d be 60 b7 5a be dd 52 b0 bd
       -0.18071787 -0.30664936 -0.21359015 -0.08609555

blocks.0.1.bias f4 [16]
000000 f6 df 46 be 25 ef ca 3d c6 63 cf bc 99 65 06 3e
       -0.19421372 0.099088944 -0.02531613 0.13124694
000010 f4 45 18 be 7a 92 67 3e 5d fb 1f bd e4 8c 11 be
       -0.14870435 0.2261447 -0.039058078 -0.14213902
000020 4e 45 89 bd cf bf c6 3d 06 32 b9 3d 20 96 be 3c
       -0.06702672 0.09704553 0.09042744 0.023264945
000030 49 c1 27 be 81 43 52 be d0 11 e4 3d b3 74 a8 bc
       -0.16382326 -0.20533563 0.1113621 -0.020563459

blocks.1.1.weight f4 [16, 16, 1]
000000 e0 a8 b2 3c 59 22 03 3e 54 c1 26 3e 89 ad 19 be
       0.021809042 0.12806071 0.16284686 -0.15007605
000010 dd b9 b1 3d fa b1 d0 bd 4a 22 43 be e7 05 95 be
       0.08678029 -0.10190196 -0.19056049 -0.29106066
000020 fb 7a 26 3e 36 13 0d 3e b2 e8 59 3d ef aa 0f 3e
       0.16257851 0.1377686 0.05320043 0.1403005
000030 3c 9c 99 3d 0e 70 5d 3e b9 0b b2 ba ee c3 70 3e
       0.075005025 0.21624777 -0.0013583816 0.23512241
000040 d8 b5 80 3e 66 9d 1c bd 3e bd fd 3d 01 d6 87 bd
       0.25138736 -0.038236044 0.12389611 -0.06632615
000050 98 89 fd 3c 51 5b 8c 3d b6 4a 44 be b2 ba 79 3d
       0.030949399 0.06853355 -0.19169125 0.060969062
000060 d4 25 81 be 67 f4 72 3d 52 8e a8 bb b9 02 54 3e
       -0.25224173 0.05931511 -0.005143919 0.20704164
000070 dc b9 22 be 4f 93 8a be 8b 9d 1c be 85 08 4d bd
       -0.15891212 -0.27065513 -0.15294473 -0.050056953
000080 91 85 9b be 4b 5c 00 bd 74 d5 f0 bc 0d 70 eb 3d
       -0.3037534 -0.031338017 -0.029398657 0.11495981
000090 05 86 05 3d d4 ce b0 3d a9 b1 2e 3e ae d6 22 3e
       0.032598514 0.08633199 0.1705996 0.15902206
0000a0 08 df c4 3c 48 c0 2a 3e 61 60 11 3e 3e 86 e4 3d
       0.02403213 0.16674912 0.14196922 0.11158417
0000b0 30 ed 4b be f5 f7 08 3e 24 cd 44 be 5c f4 61 bd
       -0.19914699 0.13375838 -0.1921888 -0.05516468
0000c0 9d f1 1d 3e d5 72 33 be 8b 6e 37 3e 3a 0c 3e 3e
       0.154242 -0.17524274 0.17913263 0.18559352
0000d0 22 04 ab bc a1 44 88 3d fe 71 c8 bd 50 a7 94 3d
       -0.020875994 0.06653715 -0.09787367 0.07258475
0000e0 f1 42 6c bd a5 e5 71 3e 60 4d 64 3e 60 a0 60 3e
       -0.057681028 0.23622759 0.22295141 0.21936178
0000f0 81 c3 34 be 22 e4 35 be 00 02 17 bd bd 30 13 3e
       -0.17652704 -0.17762807 -0.03686714 0.14374061
000100 60 1c c5 bc 93 84 0e be 14 e0 53 be a8 6e 52 3e
       -0.024061382 -0.1391776 -0.20690948 0.20550025
000110 8d df 8d bd f0 90 0a 3e 2c d7 93 3d 6b 52 33 be
       -0.069274046 0.13531852 0.07218775 -0.17511909
000120 38 1d 31 bd b0 28 26 3e 50 55 8d bd 86 98 40 3d
       -0.043240756 0.16226459 -0.06901038 0.047020458
000130 97 4e 60 3e 9e fe 31 be 31 58 35 3e e5 5e 7b 3e
       0.2190498 -0.17382285 0.17709424 0.24547918
000140 b1 76 d9 bd 3b 48 64 be 1b 45 a8 bd 4f 9c 09 3c
       -0.10618342 -0.22293179 -0.08216306 0.008399083
000150 c2 67 c2 bb e4 3b 19 be 75 91 1c 3e 17 d1 1e 3d
       -0.005932779 -0.14964253 0.15289862 0.038773622
000160 9d ff 5e 3d c2 29 10 3e f6 95 3c 3e 6b 5d 35 3d
       0.05444299 0.1407843 0.1841658 0.044278543
000170 f3 41 ec bd 2a fe 25 be 8b 49 eb bc af f5 05 3e
       -0.11536016 -0.16210237 -0.028721591 0.13082002
000180 11 77 ea bd 18 fb 3f be 35 8c 38 3d 49 56 47 3e
       -0.11448491 -0.18748128 0.045055587 0.19466509
000190 e3 a4 23 be 6b 1b 4d 3e 15 a5 38 3e 27 40 e7 3d
       -0.15980868 0.2002999 0.18031724 0.11291533
0001a0 19 ee 6a 3e 72 08 86 be 03 b0 f2 bd c5 29 92 bd
       0.2294239 -0.26178318 -0.11849978 -0.07136873
0001b0 4a 69 26 bd 2c 83 84 3e 68 a0 22 be b9 6c 71 3e
       -0.040627755 0.25881326 -0.15881503 0.2357663
0001c0 e5 e7 87 bd 48 9e 63 bd ce 49 17 be 0b 69 51 3e
       -0.06636027 -0.05557087 -0.14774248 0.20450227
0001d0 c3 fc 88 bd 05 1c 46 bd 2a bb 37 bb dc 4d 7f be
       -0.066888355 -0.048366565 -0.0028035142 -0.24932045
0001e0 ad f9 83 bd 27 ab 63 3e 67 db 12 bd 20 d0 ec bd
       -0.06444106 0.22233258 -0.03585377 -0.11563134
0001f0 1b 82 94 bd b4 55 78 bd b6 fd 01 be 0e ae 23 3e
       -0.07251378 -0.060628608 -0.1269444 0.15984365
000200 0d 19 9c 3e 6f 4f b4 3d d0 28 fd bd 52 88 9e 3d
       0.30487862 0.08804213 -0.123613 0.07740845
000210 42 e4 91 3e 48 1e f2 bd e6 b6 59 be 69 b7 6f 3e
       0.2849446 -0.11822182 -0.21261176 0.23409809
000220 5f 00 06 3d c0 68 2f bd e1 b8 44 be 74 23 e0 3d
       0.032715198 -0.042824507 -0.1921115 0.10944262
000230 cc 36 99 bd 3f 0a 09 3d f7 f1 6e 3d 2f c2 a4 be
       -0.07481155 0.033457037 0.058336224 -0.321794
000240 5e 59 1a be ab 3b 8c 3e 8f f9 23 be 49 d8 01 be
       -0.15073153 0.27389273 -0.16013168 -0.12680162
000250 b5 21 10 be f0 04 86 bd 3c 68 1d be 7a 7c b7 3d
       -0.14075358 -0.065439105 -0.15371794 0.08959289
000260 bd ed 62 be cd 98 1c be ca bd 09 3d 3b 78 b1 3d
       -0.22161002 -0.15292664 0.033628263 0.0866551
000270 30 35 a7 bd d0 fd 2d be 69 1f 47 be 37 c6 8a 3d
       -0.081644416 -0.16991353 -0.19445576 0.06776088
000280 59 09 56 3e e2 0a 15 be 0e b5 02 be ae cc 47 3d
       0.20902003 -0.14554933 -0.1276438 0.048779182
000290 cc 0b 0a 3e 74 57 2c 3e 0a 92 e9 bc b3 6d 2e bd
       0.13481063 0.16830236 -0.02851202 -0.042585086
0002a0 4d 99 32 be 5e b5 ab bd 9f bd 83 be ea 54 9b bd
       -0.17441292 -0.083842024 -0.25730607 -0.075845554
0002b0 b8 6f 3d be ab 0c d3 3c 1d 0b 50 3e 1e 03 50 be
       -0.18499649 0.025762876 0.2031674 -0.20313689
0002c0 fa 3e 50 be da 99 30 3e 4d 6d 53 be e5 6c 08 be
       -0.20336524 0.1724619 -0.20647164 -0.1332279
0002d0 b9 0b 66 be 07 32 8b 3e ab f8 d6 3d dd d8 3e 3e
       -0.2246541 0.27186605 0.104966484 0.18637414
0002e0 96 9c 1f be e5 c6 f2 bd d7 17 01 3e a1 66 8a be
       -0.15587077 -0.11854342 0.1260675 -0.27031425
0002f0 4d 6f af 3c c8 2c d0 3d e9 7d 00 3e 49 1d 5f 3e
       0.021415377 0.10164791 0.12548031 0.21788515
000300 c3 1c 18 3e 1c 5a 5f be 88 7b 0d be ab 47 5a 3e
       0.14854722 -0.21811718 -0.13816655 0.21316402
000310 e7 86 cb 3c 6a 00 1e 3e 16 2a 7d bb 38 71 51 be
       0.0248446 0.15429845 -0.0038629822 -0.20453346
000320 96 11 05 bc 2a 2e ac 3d e4 84 c8 bd f8 90 d8 3d
       -0.008121869 0.084072426 -0.09790972 0.105745256
000330 02 8d 80 be ef 66 69 3e 67 05 47 3e f6 e4 60 3e
       -0.2510758 0.22793172 0.19435655 0.21962342
000340 17 c7 69 3d 3d 70 e1 bd 1c c9 27 3e 0f 4f 7a 3d
       0.057074632 -0.11007736 0.16385311 0.061110552
000350 67 31 c8 3d bb 9f 6d be 3e 9f 64 be 4a 02 1e 3d
       0.09775048 -0.23205464 -0.22326371 0.0385764
000360 6b 1f fe 3d cb 40 0b be d1 3d 62 be 71 97 66 3e
       0.12408336 -0.13598935 -0.22093894 0.22518708
000370 33 03 e2 bd f1 2d 64 be 59 0d 00 3c 3d 67 b2 bd
       -0.110357665 -0.2228315 0.007815682 -0.087110974
000380 a5 3d 24 3d 4f 0e 81 be 1d a9 3a be c6 b0 4a be
       0.04009785 -0.2520623 -0.18228574 -0.19793996
000390 82 1c 70 be e7 21 04 3e 90 d0 16 be 05 7a 50 be
       -0.23448375 0.12903558 -0.14727998 -0.20359047
0003a0 0e 54 68 3e 27 e5 6b be ac e9 9a bc a9 ba 45 be
       0.22688314 -0.23036633 -0.018910252 -0.19309486
0003b0 3a 8c 29 be a2 83 50 3e bb d1 50 3e b7 83 69 3e
       -0.16557398 0.20362714 0.20392506 0.22804151
0003c0 d2 72 2e 3e b3 df 0b bd 68 99 51 3e e9 6a eb bd
       0.17035988 -0.034148883 0.20468676 -0.11495001
0003d0 5f 1d e8 bd fa 07 4d 3e 71 3c 99 be 79 ae 0b 3e
       -0.11333727 0.20022574 -0.29928926 0.13640775
0003e0 b9 79 02 3e bd 95 4c be 8f 8f b4 be 2b 9a 54 be
       0.12741746 -0.19978996 -0.35265777 -0.20761935
0003f0 26 a8 8d be fb e6 33 3e 9d 9b 97 3d 71 53 00 3e
       -0.2766735 0.17568581 0.07402728 0.1253183

blocks.1.1.bias f4 [16]
000000 91 45 4e be 68 c2 3e be ab 2b 98 bd be 31 3f 3e
       -0.20143725 -0.18628848 -0.07430204 0.18671319
000010 95 4a 16 3d a2 82 87 3d 2e 79 2a be 37 12 3c 3e
       0.03669222 0.06616713 -0.16647789 0.18366323
000020 85 02 02 bd dd 0f ba bd e5 ef 2f 3d 1c ff 5c bd
       -0.031740684 -0.09085057 0.04295339 -0.05395423
000030 52 ee fe 3d 50 37 67 3e da 96 81 3e 6b bd 4e 3e
       0.124478 0.22579694 0.25310403 0.20189445

blocks.2.1.weight f4 [16, 16, 1]
000000 ac c1 81 bd 1a 71 f7 bd a2 00 31 3d 19 6f 7e 3b
       -0.06335768 -0.12082119 0.043213494 0.0038823544
000010 94 c7 84 bd 8b 45 34 be 95 35 37 be 21 78 27 bd
       -0.06483379 -0.17604654 -0.17891534 -0.04088605
000020 09 7f 44 3e dc 22 27 be f7 fd e7 3d 4d 70 ee b9
       0.19189085 -0.16321892 0.11327737 -0.00045478568
000030 b7 5c 55 bd 75 25 83 be 7e d5 5e be 67 12 87 bd
       -0.052090373 -0.25614515 -0.21761128 -0.06595307
000040 29 35 4b 3b c9 fb 3b be 81 24 ea 3d 23 01 09 be
       0.0031007028 -0.18357767 0.11432744 -0.1337934
000050 4e 62 06 be 86 ba 2f be d3 c9 15 bd 16 01 db 3d
       -0.13123438 -0.17160997 -0.036569428 0.106935665
000060 6b ed 10 3e 71 3a 31 3e f3 e2 82 3d 6f b0 2e 3d
       0.14153068 0.1730745 0.063909434 0.04264873
000070 df 96 d9 bd 6f 73 79 3e 5e 87 ab 3e 4b 5d 7a be
       -0.106244795 0.2436044 0.33501714 -0.24449651
000080 aa 0b 95 bd 55 66 1e 3e b2 fd 55 be 95 e4 32 3c
       -0.07277615 0.15468724 -0.20897558 0.010918756
000090 1c d7 01 be 29 e0 74 be 48 ef 32 be 8e 6c 6c be
       -0.12679714 -0.23913635 -0.17474091 -0.23088285
0000a0 a9 98 82 3e 0e 4b 1e be 3f 48 20 bd 47 39 82 3c
       0.25507095 -0.15458319 -0.0391314 0.015896453
0000b0 a6 e0 84 3e f9 76 2a 3e f3 36 00 be 03 a3 3c be
       0.25952643 0.16646947 -0.12520961 -0.18421559
0000c0 78 f2 e6 3d 7f 9d dc bd fd 74 67 be 0a 28 27 be
       0.11276716 -0.107722275 -0.22603221 -0.16323867
0000d0 36 9c ca bd 37 8d ff bd 78 8d ef 3d 97 d8 b2 bd
       -0.09893076 -0.124781065 0.11696905 -0.087327175
0000e0 ea df 24 3d 56 91 a8 bd 9e ad 30 3e 08 de 34 be
       0.040252604 -0.08230846 0.1725373 -0.17662823
0000f0 84 3b 86 bd d4 fd 7b 3e 36 10 6d 3e 64 00 7f 3d
       -0.065543205 0.24608546 0.23150715 0.062256232
000100 52 0b d5 3d 43 fb ea 3d 23 66 2b 3e cf b7 91 3d
       0.1040255 0.114737056 0.16738181 0.07115137
000110 e2 f0 8b bd 78 43 23 3e 4f 54 a9 bd c3 72 20 be
       -0.06833054 0.15943706 -0.08268034 -0.15668778
000120 57 9d 26 bc 29 02 d0 bd ad 62 53 bd 4b b3 c7 3d
       -0.010169349 -0.10156662 -0.051607776 0.09750994
000130 ea 08 57 3e ad 94 59 bd bf 12 00 be f7 6e e3 3d
       0.20999494 -0.053120304 -0.12507151 0.11105149
000140 fa 95 f1 bd a6 20 50 3e ca 11 ee bc bf 36 8e 3d
       -0.11796184 0.20324954 -0.029061217 0.06944036
000150 2b 97 5d 3d 0b 26 17 bd ed af 56 be 32 80 1a 3e
       0.054099243 -0.036901515 -0.20965548 0.15087965
000160 eb 84 87 bc 41 85 c0 bd a8 22 f2 3d e9 e9 8b be
       -0.016542872 -0.09400416 0.118230164 -0.27326897
000170 88 86 2b 3d cf 66 fc bc a4 3d 4c 3e 3b c1 13 3e
       0.041876346 -0.030810742 0.19945389 0.1442918
000180 f1 ba 36 3e f3 27 09 3d 52 18 ca bd 7b 9f f1 3c
       0.1784475 0.033485364 -0.0986792 0.029494992
000190 e3 8b 82 3e 3c a7 32 3d fa ee 71 be 57 23 4c be
       0.2549735 0.04361652 -0.23626319 -0.19935356
0001a0 f3 dc b9 bd 3f 77 85 3e 1f 0b 06 be 89 28 8e be
       -0.09075346 0.2606754 -0.1309018 -0.277653
0001b0 9c 7c 3e 3e 98 b2 39 bd 75 35 82 be 65 38 8a be
       0.18602222 -0.045336336 -0.2543141 -0.2699615
0001c0 fc 53 0f 3e 85 42 db 3d b2 e3 87 3e dc 65 79 3e
       0.13996881 0.10706047 0.26540905 0.24355263
0001d0 d7 46 8f 3e ba f8 07 be bb b4 f5 bb ba 71 85 3d
       0.27983734 -0.13278475 -0.0074983514 0.06515832
0001e0 83 46 4b be 6b e5 43 be a2 9e 71 3e eb 59 52 3c
       -0.19851117 -0.19130485 0.2359567 0.012838821
0001f0 38 8a 71 3d 21 8e 72 3e 90 b1 29 3e 6e a0 26 be
       0.058969706 0.2368703 0.16571641 -0.16272137
000200 32 c5 a9 bd 24 54 e3 bd 85 bb 55 be cb e3 28 bd
       -0.08289565 -0.11100033 -0.20872314 -0.041232865
000210 ff e9 2c 3e 7d 72 df 3d 0c c3 31 3e 08 39 75 3e
       0.16886137 0.10910509 0.1735956 0.23947537
000220 73 0e 1d be 2c 2f fd bd a1 c0 ea bd 24 5b 30 3e
       -0.15337543 -0.12362513 -0.11462522 0.17222267
000230 33 ee 6c be 16 72 2b 3e 16 27 f4 3c d4 e9 69 3c
       -0.23137741 0.16742739 0.029803794 0.01427694
000240 27 e7 3d be 05 60 5e 3d ec 26 79 3e b8 48 d2 bc
       -0.18545209 0.05429079 0.24331254 -0.02566944
000250 81 55 54 be a3 d6 08 be cf d3 2c 3e b2 8a 20 be
       -0.20735742 -0.13363127 0.16877674 -0.15677908
000260 46 a9 52 3d 5a 59 fb bd a1 f8 49 be 38 a3 67 3e
       0.051430963 -0.12272902 -0.1972375 0.22620857
000270 76 11 32 be 2f 01 ee 3c 62 9a 10 be c4 ac 99 3d
       -0.17389473 0.029053299 -0.14121392 0.075036556
000280 00 20 80 be a6 e9 99 bd 18 2d 7f be 32 90 c7 bd
       -0.25024414 -0.07515268 -0.24919546 -0.097443
000290 45 bd ae 3d c1 18 72 3e a3 71 82 be eb 29 6e bd
       0.08532194 0.23642255 -0.25477323 -0.058145445
0002a0 da a3 e6 bd 72 0c 48 3d 31 14 83 3d 98 43 49 be
       -0.11261721 0.048839994 0.064003356 -0.19654691
0002b0 68 89 16 3e 43 8c 82 3d ce 09 0f 3e 60 32 0b 3d
       0.14700854 0.06374409 0.13968584 0.03398359
0002c0 8c 7a 60 3b b1 d4 40 3e 6d f0 ba 3d c5 7d 05 3e
       0.003425273 0.18831135 0.09127889 0.13036259
0002d0 4b bf df bd 5b 93 8d 3c 94 3e e0 3c 18 11 9f 3d
       -0.10925158 0.017282179 0.02737359 0.07766932
0002e0 3b 93 54 3e cd 1f 72 3d 11 62 21 3e a2 60 1f 3d
       0.20759289 0.05911236 0.15760066 0.038910516
0002f0 80 f9 08 bd 74 b2 72 3d 44 bd 99 3c b6 42 89 be
       -0.033441067 0.059252217 0.018767007 -0.2680871
000300 e0 7a c5 3c 3d 37 96 bc 7b bc ec 3d 93 07 ff bd
       0.024106443 -0.018336887 0.11559387 -0.124526165
000310 37 59 74 bd 23 be 70 bd e9 01 84 be 52 e2 06 be
       -0.059655394 -0.05877508 -0.25782707 -0.13172272
000320 22 67 23 bd 71 ef e9 3d e7 ed 86 be 75 16 26 3e
       -0.039893277 0.11422623 -0.2635338 0.16219504
000330 2d f7 8f 3e af a1 a8 bc 39 89 43 be d9 6e 24 3e
       0.28118268 -0.02058491 -0.19095315 0.1605791
000340 6e 7a 40 be d9 49 84 be 3b 53 85 3d a2 fa 7b 3e
       -0.18796703 -0.2583759 0.065100156 0.24607328
000350 c1 4c 74 3e 7f 18 e8 bd ee 02 44 3d 8d 47 b7 bd
       0.23857404 -0.11332797 0.047854356 -0.08949194
000360 ed 27 64 be ed 03 c1 3c 20 1e 94 bd 23 88 e3 bd
       -0.22280855 0.023561442 -0.072323084 -0.111099504
000370 c5 29 64 3e 5e e5 42 3e b6 92 f5 3d c5 88 10 bc
       0.22281559 0.19032809 0.119908735 -0.008821671
000380 0a 9f 79 3e 07 88 4d 3e db b9 4d be 6f 0e 83 3d
       0.24377075 0.20071422 -0.2009043 0.06399237
000390 60 32 2b 3e 17 42 56 bd a8 52 57 be da 08 5c be
       0.16718435 -0.052309122 -0.21027625 -0.21487752
0003a0 c5 f4 0f 3e 30 92 98 3e 73 24 90 be 6b 0e cc bd
       0.14058216 0.29799032 -0.2815281 -0.099636875
0003b0 22 a0 35 be a6 f5 89 3d 86 8c 08 be ab 9d 21 3e
       -0.17736867 0.06736307 -0.13334855 0.15782802
0003c0 5d 0a 44 3d 6c 06 b8 bd fe 06 fe 3b d1 6a 33 3e
       0.047861446 -0.089856 0.0077522984 0.17521216
0003d0 ec 2f 43 3e a3 30 04 3e ed b0 2c 3d 0b ee f4 3d
       0.1906125 0.12909178 0.042160917 0.119594656
0003e0 ba 85 27 3d 47 f4 41 be ff c6 6f be ce 05 ea 3b
       0.040899016 -0.1894084 -0.23415755 0.0071418053
0003f0 83 78 67 be 11 48 eb bd d3 b8 ab 3d a0 ea 96 be
       -0.22604565 -0.11488355 0.08384862 -0.2947588

blocks.2.1.bias f4 [16]
000000 5f 55 b7 3d 45 ae 20 3e e5 ac 0f bd d4 41 c4 3d
       0.0895183 0.15691479 -0.035076994 0.09582868
000010 b6 7f b4 bc ce 2a 2e 3e a1 85 54 be 7a ee 92 3c
       -0.022033554 0.17008516 -0.207541 0.01793598
000020 3e 8c c7 3d 85 57 8f bd 02 f2 8e 3d b5 18 85 3e
       0.09743546 -0.06999115 0.06979753 0.25995412
000030 64 29 f6 bc 35 5e 03 3e ca 96 41 be 82 6c 2d be
       -0.030049033 0.12828906 -0.18905178 -0.16935924

blocks.3.1.weight f4 [16, 16, 1]
000000 fe 0b 2e 3e de b9 0b 3e 14 10 54 be d3 cb 0b 3e
       0.16996762 0.13645121 -0.20709258 0.13651972
000010 de cd 05 be a7 16 db 3b a7 14 63 bd e8 1d 2c bd
       -0.13066813 0.00668605 -0.055439617 -0.04202071
000020 c7 bf c3 3d e6 50 8f 3c f9 c9 12 be 7d fd 0f bc
       0.09558063 0.01749463 -0.14334859 -0.008788464
000030 e4 a3 d4 3d 50 16 62 be f7 aa 91 3e bf 60 46 be
       0.10382822 -0.22078824 0.28450748 -0.19372843
000040 71 a9 81 be fb 66 7a 3d 72 b0 9b bc 7f 4c 7c 3e
       -0.25324586 0.061133366 -0.019005034 0.24638556
000050 0b 67 39 3e 87 6c 20 3e c8 47 b2 3d a5 95 54 3d
       0.18105714 0.156664 0.087050974 0.051900525
000060 48 6e 86 3e 73 9b 06 be 57 9f c7 bd 23 42 a9 bd
       0.26256013 -0.13145237 -0.097471885 -0.08264568
000070 d2 31 6b 3e bd ab 0b be e9 e9 5f 3d c1 d9 00 be
       0.22968224 -0.13639732 0.054666433 -0.12583067
000080 b5 5e 88 3e 31 48 3c 3e ab e7 f4 3d 22 cb 36 3d
       0.26634756 0.18386914 0.1195825 0.044627316
000090 55 66 54 be 84 19 83 3d 9f 76 81 be 4b 68 09 3e
       -0.20742162 0.06401351 -0.25285813 0.13418691
0000a0 6f 77 a0 bd a9 cd 33 bc 39 3d d9 bc 6f 5a 7c bd
       -0.0783528 -0.010974326 -0.026518451 -0.06160968
0000b0 bd f0 5b 3d 06 b7 35 3e bb df a7 3d 7a b1 47 be
       0.053696383 0.17745599 0.0819697 -0.19501296
0000c0 9c dd 84 3d 88 ab 6d be 10 d5 be bd 90 a7 8c bd
       0.06487581 -0.23209965 -0.09317982 -0.068678975
0000d0 f9 34 7d be f2 2c 7e bd 57 39 17 be a8 70 23 bd
       -0.24727239 -0.062054582 -0.14767967 -0.03990236
0000e0 02 93 33 be d7 f5 0f 3e ba 7d 7a 3e b6 43 e8 3d
       -0.17536548 0.14058624 0.24462023 0.1134104
0000f0 cc f2 6a 3e 31 71 c9 3d 19 ba a3 3d ff 98 b1 3c
       0.22944182 0.09836043 0.0799448 0.0216794
000100 ff a6 8c 3e f1 53 77 be 96 1c c6 bd fc 85 d5 3d
       0.27471158 -0.24153115 -0.09673421 0.10425946
000110 8f 20 36 bd cb 7e 86 3e 35 d8 88 be a4 9b dc bd
       -0.044464644 0.2626861 -0.26727453 -0.107718736
000120 fe ce 77 be 22 f0 0c be ca 92 3e 3d 4e 9f a4 bd
       -0.24200055 -0.13763478 0.046526708 -0.080381975
000130 ca cb 0b 3e a5 18 55 be b9 36 9c bc 01 88 d7 3d
       0.13651958 -0.20810182 -0.019069063 0.105239876
000140 2f 61 0e be af ab 3d 3e 91 d7 bd bd 13 8b cc bd
       -0.1390426 0.18522523 -0.09269632 -0.09987464
000150 13 ee 40 3e f4 a3 64 be 39 78 92 bd eb 32 cf 3d
       0.18840818 -0.22328168 -0.07151837 0.10117134
000160 3c 20 21 3e f5 5d 45 bd 63 7f 2e be fe 7c df 3d
       0.15734953 -0.048185308 -0.17040782 0.10912512
000170 b6 92 43 3e 84 00 75 be d9 b6 da bd 09 82 96 bd
       0.19098935 -0.23925978 -0.10679407 -0.07349021
000180 27 40 54 3e 09 9c a3 bd a0 b2 7f 3e 60 7e 75 be
       0.20727597 -0.07988746 0.24970484 -0.2397399
000190 d9 38 f6 bd 52 6a 1d 3e 2a e7 9f 3b ec 22 31 be
       -0.120225616 0.15372589 0.004879852 -0.17298478
0001a0 23 ff 5e 3d d7 51 3a bd fb 23 89 be 51 48 90 3d
       0.054442536 -0.045488205 -0.26785263 0.07045043
0001b0 68 52 d6 bd dd 3b 42 3e 2f ee 93 3e 45 12 49 3d
       -0.104649365 0.18968149 0.28892657 0.04908969
0001c0 f4 62 1e be f5 51 b9 bd a4 8d 1f 3e 42 fa 0f be
       -0.15467435 -0.09048835 0.15581375 -0.1406031
0001d0 0b bc c4 bd 05 c0 82 be a3 c7 ba bc 68 41 c3 3d
       -0.09606179 -0.25537124 -0.022800272 0.095339596
0001e0 5d 5b 92 be c0 fc 2f 3e 2a f4 41 3e 96 ed d0 3d
       -0.2858533 0.1718626 0.18940797 0.10201566
0001f0 2f 79 50 be d6 27 01 3e 1b a3 0d be 26 d6 4a bd
       -0.20358728 0.12612852 -0.13831751 -0.049520634
000200 a5 1e 9a be 29 ef 16 3e 06 89 d7 bd a7 79 0f be
       -0.30101505 0.1473967 -0.10524182 -0.1401125
000210 d9 0c 06 bd cf 27 7c 3e 8a ba 8c 3e d3 0d 0a 3d
       -0.032727096 0.24624561 0.27486068 0.03370459
000220 e8 3b 2d 3e c6 c3 11 bd 52 92 0c be 57 47 20 be
       0.16917384 -0.035587095 -0.13727692 -0.15652214
000230 d1 e8 09 bd f2 88 07 bd ff 9f d7 3d e6 90 e0 3d
       -0.033669297 -0.033089586 0.10528564 0.10965137
000240 bd 85 23 3e 20 0e 74 3e 41 02 77 bc f0 0f 01 3e
       0.15968986 0.23833513 -0.015076221 0.12603736
000250 d9 eb 60 3c aa 91 37 3e bb 58 05 be ed 39 84 bc
       0.013728105 0.1792666 -0.13022129 -0.016140902
000260 c6 0a 8c 3e fa e6 8a be e0 42 35 bd c4 93 21 3d
       0.2735197 -0.27129346 -0.04425323 0.03944756
000270 54 e2 fa bd 61 9f cc 3c db d3 8d bd de 2c 71 3d
       -0.122502 0.024978342 -0.06925174 0.05888068
000280 5e 8d c4 3d 87 5f d8 3d da b3 07 be d9 2b ce bd
       0.09597276 0.105650954 -0.13252202 -0.10066957
000290 2e 09 4f be b7 b4 8d 3e b1 84 4a bd a5 11 bf 3d
       -0.20218346 0.27676937 -0.04944295 0.09329537
0002a0 cd 3b 1b 3d 3e 27 20 3e 37 c9 93 bd 87 a3 3b be
       0.037898827 0.1563997 -0.07216113 -0.183241
0002b0 2a 8c cf 3d 24 2f 85 bd fb 91 4a bd bf 5b 13 be
       0.10134156 -0.06503132 -0.049455624 -0.14390467
0002c0 d8 9e 32 3e eb c4 29 3e 11 d2 88 3d 3f 63 73 3d
       0.17443407 0.16579024 0.06680692 0.05942082
0002d0 6b 20 71 3e 06 8e dc bd 1d 4c ae bd 0b f0 89 3e
       0.23547523 -0.10769276 -0.08510611 0.2694095
0002e0 9e 20 44 be 2b 1f 81 bd c2 f4 2e 3e 7d bb 4f be
       -0.19153067 -0.06304773 0.17085555 -0.20286365
0002f0 d7 c4 55 be 00 11 8c 3d 6c a7 eb 3c 3b 8d a6 3a
       -0.2087587 0.0683918 0.028766356 0.0012706885
000300 86 0a 22 3e c4 35 3d 3e 5f d1 e2 3d 9a 94 a1 3c
       0.15824327 0.18477541 0.110750906 0.019724179
000310 50 95 94 3e ce 07 f5 3d e1 41 2d 3c e9 29 f7 3d
       0.29020166 0.11964379 0.010574789 0.120685406
000320 19 95 30 bd 92 08 8d 3e 72 c9 55 be dd 0e 60 be
       -0.04311094 0.275456 -0.20877627 -0.2188067
000330 46 19 58 3e 0a 92 2c be 87 0b 8a bd 87 3c 92 3d
       0.21103391 -0.16852584 -0.0674048 0.07140451
000340 ef 20 6e bc 66 42 53 bd 45 a1 b3 bd 8f 0b 72 3e
       -0.014534219 -0.051576994 -0.08770994 0.23637222
000350 1c 24 32 3e ce a2 c8 bc e1 6d c2 bd 95 a9 c2 bd
       0.17396587 -0.024491694 -0.09493614 -0.095050015
000360 86 b4 9d 3d 6d 00 45 3e a5 ee 30 3e b8 69 8c 3b
       0.07700448 0.19238444 0.17278536 0.0042850636
000370 3b 8b 09 3e 54 51 d2 3d 59 43 29 3e ac 77 20 be
       0.13432018 0.10269418 0.16529597 -0.15670651
000380 67 3a db 3d 07 7a 70 be a3 70 26 3e dc 6b 82 be
       0.10704499 -0.2348405 0.16253905 -0.25472915
000390 59 73 0b 3e 54 38 2a 3d 6d 5b 2c be 67 de d4 3d
       0.1361822 0.041557625 -0.16831751 0.103939824
0003a0 b9 ee 14 be 71 e2 1f 3e c3 33 fd bd 0a a3 75 be
       -0.1454419 0.15613724 -0.123633884 -0.23987976
0003b0 14 82 a5 3a 9d f1 71 be b8 70 72 3e bd 96 33 3e
       0.0012627267 -0.23627324 0.23675811 0.17537971
0003c0 5d 59 05 bd 08 14 c2 bb a5 25 72 be 95 c6 a2 bc
       -0.032555927 -0.005922798 -0.23647173 -0.019870082
0003d0 b0 fb 0e 3e 6a 5e c6 bd 45 39 74 3e b0 84 15 3d
       0.13963199 -0.09685977 0.23849972 0.036503494
0003e0 93 96 33 3d 23 1d f2 3d 54 26 45 3e 68 91 02 3e
       0.04384477 0.11821964 0.19252902 0.1275078
0003f0 60 9e 1b 3e c8 df 30 3e ea 32 80 3e 89 c9 08 be
       0.15197134 0.17272866 0.25038844 -0.1335813

blocks.3.1.bias f4 [16]
000000 64 cb 48 3e 0a a6 2a 3e 07 f6 27 3e c0 00 cb bd
       0.19608837 0.16664901 0.16402446 -0.099122524
000010 8f 9e b5 3d b5 b6 86 3e 46 b5 6b 3e 99 84 0e 3e
       0.08868133 0.2631127 0.23018369 0.1391777
000020 d0 28 38 be 6d d0 17 be f8 85 71 bd 30 92 4c 3e
       -0.17984319 -0.14825602 -0.058965653 0.19977641
000030 c5 4d be bd f9 f3 5d 3e 78 4c 5b 3e 0d ef 3d bd
       -0.09292177 0.216751 0.2141589 -0.046370555

blocks.4.1.weight f4 [16, 16, 1]
000000 d5 61 04 3d f0 f2 55 bd 54 37 d0 3d d5 a4 a5 3d
       0.032319862 -0.052233636 0.10166803 0.0808808
000010 54 2d 17 be c9 8f 5e be c8 e2 1a 3e a1 46 89 bd
       -0.14763385 -0.21734537 0.15125573 -0.067029245
000020 88 98 a4 bd 5b 8b c2 3d 8a 45 13 be dd 15 15 3b
       -0.080369055 0.09499236 -0.14381996 0.0022748627
000030 a0 52 9c bc ac 06 83 3e 8b 01 f1 bd 8a 58 6e 3e
       -0.019082367 0.25591028 -0.117678724 0.23275962
000040 a9 c2 08 be 96 b5 cc 3d 42 27 cb 3c 0e 80 91 3d
       -0.13355507 0.09995572 0.024798993 0.071045026
000050 42 bc ac 3d d6 f7 ac 3d f9 c0 91 3d 55 58 ae bd
       0.08434345 0.084457085 0.07116885 -0.08512942
000060 ce ab 13 3e 87 b6 37 be e4 f8 25 3e 58 66 05 bd
       0.14421007 -0.17940722 0.16208225 -0.032568306
000070 3a 21 af 3c 3e e2 bf bd 42 57 76 3c 6d 9a 33 be
       0.021378148 -0.09369324 0.015035452 -0.17539378
000080 89 77 73 be 6d 80 df 3d bb 7e e0 bd 9f 19 1b be
       -0.23776068 0.10913167 -0.10961672 -0.15146492
000090 fb 3a 08 bd 99 85 51 be c7 53 4d be 59 9a 29 be
       -0.033259373 -0.2046112 -0.2005149 -0.16562785
0000a0 3b 6f 76 bd df 21 55 3d d7 30 18 be 1a 76 87 bd
       -0.06016467 0.052034255 -0.14862381 -0.06614323
0000b0 54 e9 88 3e b9 38 75 bd 0b a8 0f be d6 42 a3 bd
       0.26740515 -0.059868548 -0.14028947 -0.07971732
0000c0 be 65 53 be 31 ba 68 3e 56 9f 2a bd 98 e0 42 3e
       -0.2064428 0.22727276 -0.04165586 0.19030988
0000d0 62 04 7b be b2 42 66 be e0 27 35 3d 16 5f d6 3d
       -0.2451339 -0.2248638 0.04422748 0.10467355
0000e0 f9 67 47 be df 53 86 be dd 78 19 3e 04 84 87 be
       -0.19473256 -0.26235864 0.14987512 -0.26467907
0000f0 e2 9f 2c be 5c 38 b5 bc 47 9e 57 bc f7 54 3b 3e
       -0.16857865 -0.0221216 -0.013160295 0.1829413
000100 a6 18 6b be cd c1 d9 3d ce df 60 be 1b ae 2b be
       -0.22958621 0.10632668 -0.21960375 -0.16765635
000110 19 e7 f2 3a 34 92 46 3e ae 90 32 be 21 3b 26 3d
       0.0018532007 0.1939171 -0.17438003 0.040583733
000120 b6 52 2c be d8 76 36 bd 8c 74 54 bc 38 f9 26 bc
       -0.16828427 -0.044546932 -0.01296724 -0.010191254
000130 d1 bd 36 bd d8 40 e2 3d 2b 44 ac 3d 24 db 15 3e
       -0.044614617 0.11047524 0.084114395 0.14634377
000140 12 0a b1 bd e5 dd 37 3e 50 ef 71 be c5 bc 8c be
       -0.08644499 0.1795574 -0.23626447 -0.2748777
000150 2c 4b 10 be a3 c8 89 3d 08 15 f0 3d 12 b7 fa bd
       -0.14091176 0.067277215 0.117227614 -0.12241949
000160 7a ca 09 3d 04 0d 13 3e 5a c1 52 3e 19 db a7 bd
       0.033640362 0.14360434 0.2058157 -0.081960864
000170 77 c9 cd bd 7e 97 12 be f8 83 23 be 1f 12 6a be
       -0.10048192 -0.14315602 -0.15968311 -0.22858475
000180 bc 84 8f bd 75 be 3e 3e d8 2a 46 3c 87 13 48 be
       -0.07007739 0.18627341 0.012095176 -0.19538699
000190 ff b0 2e 3e 93 5b 91 bd 79 51 89 bd 90 8e 61 be
       0.17059706 -0.070975445 -0.06704993 -0.2202704
0001a0 28 6d c9 3d 64 c5 2e 3e d3 df 2b 3d 1b 67 d7 bc
       0.09835273 0.17067486 0.041961502 -0.026294282
0001b0 b0 d7 87 3e 2a 6d b1 bd e8 f2 79 be 2a 2f c8 3d
       0.26531744 -0.086633995 -0.24409068 0.09774621
0001c0 9b ff 33 be e0 f1 13 3e d5 11 12 be dc 96 0f 3e
       -0.17577974 0.14447737 -0.14264615 0.14022392
0001d0 1f 08 59 bd ca 98 e1 bd 5e d5 5c 3e 5e 64 81 be
       -0.05298626 -0.1101547 0.21565768 -0.25271887
0001e0 7e 68 a1 3c c8 5a 6b 3e 77 8f 24 bd 7b d4 4c be
       0.019703146 0.22983849 -0.04017588 -0.2000293
0001f0 d4 26 14 3e f9 6a 59 bc 87 08 42 3e 0c bd 99 bc
       0.14467937 -0.013270133 0.18948565 -0.018766902
000200 da 2d 6c bd 9e 1d 9b be c1 fa 62 3e e6 60 cf bd
       -0.057660915 -0.30296034 0.22165968 -0.10125904
000210 66 6e 53 bc cb 30 b1 bd f6 80 9b 3e 30 1d 27 3e
       -0.012904739 -0.08651885 0.30371827 0.16319728
000220 44 fc 66 bd fb 08 ff 3d f0 f1 4b 3e f2 58 7e be
       -0.056392923 0.12452885 0.1991651 -0.24838617
000230 86 48 c3 bd 7e 37 9f bb a9 b8 1d be 54 ad 74 3e
       -0.09535317 -0.00485891 -0.15402474 0.23894244
000240 7c 7d 17 be d4 49 36 3e 68 d8 44 be 51 fe 6a 3c
       -0.14793962 0.178016 -0.19223177 0.01434286
000250 11 96 a7 bd 44 dd 21 bd 91 ce 3e 3e b5 c0 da 3b
       -0.0818292 -0.039517656 0.18633486 0.0066758045
000260 1a 63 7c 3e 2a 8e 1c be d7 38 e9 bd aa 2f 71 be
       0.24647179 -0.15288606 -0.113877945 -0.23553339
000270 d3 c8 4c bc 33 b9 8a be 11 03 10 be a1 16 80 3e
       -0.012499052 -0.2709442 -0.1406367 0.25017264
000280 51 9c 8c 3e d8 c2 31 3d f8 b9 77 be 23 02 cc 3d
       0.2746301 0.043398708 -0.24192035 0.09961345
000290 59 00 15 3e 8e f7 51 bd 1b 55 ae bd 70 97 3d be
       0.14550914 -0.051261477 -0.08512326 -0.185148
0002a0 dd c0 81 3e d0 f4 34 be 3c 40 03 3e d4 0d fd 3d
       0.25342456 -0.17671514 0.12817472 0.12356153
0002b0 db c4 4e 3e 75 a5 bd 3c 4f 92 ee 3c 99 94 00 be
       0.20192282 0.023150185 0.0291225 -0.12556686
0002c0 2b e6 d4 bd b7 ca 9a bd ba 4f 6f be 38 0e d1 bb
       -0.103954636 -0.07558196 -0.23370257 -0.006379869
0002d0 83 54 81 bd ad 01 97 3d 96 1d d1 3c b6 a7 ee 3c
       -0.063149475 0.073733665 0.025526803 0.029132705
0002e0 c9 64 75 be 1d 16 a4 3d a7 7b dd bc b2 fb cd 3d
       -0.23964228 0.0801203 -0.027036501 0.10057773
0002f0 58 18 39 3e 16 cb 9a bd 5e 71 80 be 94 22 3c be
       0.18075693 -0.07558267 -0.25086492 -0.18372566
000300 be 04 0c 3d 22 74 e5 3d 43 58 08 3e 84 18 11 be
       0.03418421 0.11203791 0.13314919 -0.14169508
000310 1d f2 1b be 35 a5 1a be c8 e7 a5 3d fb b1 36 3e
       -0.15229078 -0.15102084 0.081008494 0.17841332
000320 02 25 06 3e 3f 33 a8 bc a9 f6 81 3d 90 aa 1c 3e
       0.13100055 -0.020532249 0.06345875 0.1529944
000330 f2 21 2a be 95 d7 87 3e 59 8a aa bd b9 f8 42 3e
       -0.16614512 0.26531664 -0.08327169 0.19040193
000340 fa c2 59 3e 7d 53 93 3c 70 e9 b9 bd 8e fd 89 3d
       0.21265784 0.017984146 -0.09077728 0.06737815
000350 db ae fc 3d d0 d0 19 3e ae 71 b0 bd aa 19 f4 ba
       0.123380385 0.15021062 -0.08615433 -0.0018623371
000360 e9 fa 3a 3e b5 5a 7d 3d 21 d5 1b bd 9d 95 14 be
       0.18259777 0.061854083 -0.038045052 -0.14510198
000370 16 a8 51 3e 4e 69 27 3e 14 2a 52 3e ef 3b 0d 3d
       0.20474276 0.16348764 0.20523864 0.034480985
000380 25 e6 12 be c2 eb 4a 3e 99 e9 a7 3d f6 26 ca 3d
       -0.14345606 0.19816497 0.08198852 0.098707125
000390 83 9b 8d bc 68 29 52 3e fc 0c ad 3d f8 05 60 be
       -0.017286068 0.20523608 0.08449742 -0.21877277
0003a0 86 29 82 be 81 1f 96 3d 46 66 0e 3e e9 7a ba bd
       -0.25422305 0.07330228 0.13906202 -0.091054745
0003b0 d0 4c b4 bd 43 af 06 3e 01 2c 67 be 18 26 f2 bb
       -0.08803713 0.13152795 -0.2257538 -0.007389795
0003c0 d3 3f eb bd 92 d4 39 be 10 49 6c be 42 6b 3c be
       -0.11486783 -0.18147495 -0.23074746 -0.1840029
0003d0 8e 6c d4 bd f6 5c 4a be 6c 2f eb bd 02 c3 38 3e
       -0.10372268 -0.19762024 -0.114836544 0.1804314
0003e0 d8 45 17 be 0e 5c 15 bd d6 c8 74 be f7 c5 01 3e
       -0.14772737 -0.036464743 -0.23904738 0.12673174
0003f0 1e d8 5f 3e a0 f7 97 3d 58 0c 2c be ff ed 7d 3e
       0.21859786 0.074202776 -0.16801584 0.2479782

blocks.4.1.bias f4 [16]
000000 47 6c cd bb b2 7c aa 3d ee 80 16 bb 9e a1 26 bd
       -0.006269011 0.08324565 -0.0022965032 -0.040681474
000010 de 85 01 be 2c 78 d9 3d 02 63 77 3e 0b ac 56 3e
       -0.12648723 0.10618624 0.24158862 0.20964067
000020 ef 58 c0 bb 07 ec 59 3e b1 fe 56 3e a6 13 de 3d
       -0.0058699767 0.21281444 0.20995595 0.108435914
000030 20 11 08 3e 2c 04 9e bd 79 52 2d 3d 5f 49 74 bd
       0.13287783 -0.077156395 0.04231498 -0.059640285

blocks.5.1.weight f4 [16, 16, 1]
000000 17 64 70 be 96 e3 65 bd 24 07 bf 3d 14 5f aa 3d
       -0.23475681 -0.056125246 0.09327534 0.08318916
000010 7f 68 4e be 58 7a 1b 3d df 3f 9b 3d 41 d8 23 3e
       -0.2015705 0.037958473 0.07580542 0.16000463
000020 50 ad 4a 3e aa 55 89 be cf 88 39 be 90 64 66 be
       0.19792676 -0.2682317 -0.18118595 -0.22499299
000030 e1 cd 7b 3e f4 4d 19 3e a2 71 70 3b d8 76 69 be
       0.24590255 0.14971143 0.0036688824 -0.22799242
000040 de e9 7f be dc 13 97 bc b8 68 77 bd 2b 47 64 be
       -0.24991557 -0.018442087 -0.060402602 -0.22292773
000050 e7 13 ac 3b 3d 89 4d bd 30 b1 78 be fd 9c 50 bc
       0.005251396 -0.05017971 -0.24286342 -0.012732741
000060 da c1 fe bd df 00 8d 3d 7d 04 da bd 1e 35 b8 3d
       -0.12439318 0.06884932 -0.10645387 0.08994506
000070 58 ae 7b 3c f7 c0 67 3e e9 e0 e2 3d ac 70 2f be
       0.015361391 0.22632204 0.110780545 -0.17132825
000080 24 41 b1 3d 01 62 ed 3d 0b 69 27 3e 62 32 95 3c
       0.08655003 0.115909584 0.16348664 0.018212501
000090 56 7a b3 bc a3 16 1b bd c3 06 45 bd 2d a0 48 bd
       -0.02190892 -0.037863385 -0.04810215 -0.04898088
0000a0 2f 81 ec bd ed b3 47 bd 66 b2 45 be 60 19 a9 3d
       -0.11548077 -0.048755575 -0.19306335 0.08256793
0000b0 63 c0 4d bc 9e 1b 5b be a5 be e9 bd bb cc c0 bd
       -0.012558076 -0.21397254 -0.11413316 -0.09414049
0000c0 3e 5e 6f be e0 38 df 3d 77 6a 80 be 58 44 68 be
       -0.23375794 0.1089952 -0.25081226 -0.22682321
0000d0 80 75 13 3e bd 1f d6 bd af 2b 1c 3e b0 17 fa 3d
       0.14400291 -0.10455272 0.15251039 0.12211549
0000e0 f4 cf 08 3d 16 8f 6d be 14 e7 ca 3d cc 3b 37 be
       0.033401445 -0.23199114 0.09907356 -0.17893904
0000f0 3e 59 80 be dc 3f 49 be cf d9 21 3d 23 46 3d be
       -0.25068086 -0.19653267 0.03951436 -0.18483786
000100 16 11 c6 bd 36 65 bb 3d 22 58 5e 3e 1e a2 f8 bc
       -0.09671228 0.09150164 0.21713307 -0.030350741
000110 33 90 b1 ba f7 91 3e be c6 ff 83 3e 24 13 34 3e
       -0.0013547003 -0.18610369 0.25781077 0.17585427
000120 c4 c0 13 be cd 78 7f bd ce d4 b4 bd 00 c5 38 be
       -0.14429003 -0.062371064 -0.08829652 -0.180439
000130 46 7f 52 be e0 f4 3e 3e b0 e0 41 bd b8 c6 49 3e
       -0.20556363 0.186481 -0.04733342 0.19704711
000140 d3 a7 38 3e 1c 8e 2d 3e 81 8d f9 bd a5 8f 29 3e
       0.1803277 0.16948742 -0.12185193 0.16558702
000150 da e9 3f 3e f1 25 39 bd 2e 5b e1 bd 3b 75 04 be
       0.18741551 -0.0452022 -0.11003719 -0.12935345
000160 87 37 a7 3d 88 bc bd 3c f3 14 02 3e 3b 52 1b be
       0.08164888 0.023161188 0.12703304 -0.15168087
000170 ed 58 31 be 0d 73 33 3d 63 8e 83 be 0e f9 52 be
       -0.17319079 0.043810893 -0.2569457 -0.2060282
000180 a4 bb 88 be 4d 2a d2 bc 82 f6 44 3e dc 73 13 3c
       -0.26705658 -0.025654936 0.1923466 0.008999791
000190 d5 21 11 be c4 67 45 be 35 33 84 3e 8b b9 7a be
       -0.14173062 -0.19277865 0.25820318 -0.24484842
0001a0 00 94 20 be e9 f4 bf bd 7f 84 f0 bd 09 0c 86 3e
       -0.15681458 -0.09372885 -0.117440216 0.26181057
0001b0 39 1a 65 3e e8 99 93 3d 6e 8c 89 bd 55 d8 34 3b
       0.22373284 0.0720709 -0.06716238 0.0027594764
0001c0 7a 77 11 3d 04 5b f9 bd 5c a6 fa bd 11 d8 6c bc
       0.035514332 -0.12175563 -0.12238762 -0.014455811
0001d0 90 60 d9 3d 32 03 52 bd 10 96 5c bb f7 e6 2c bd
       0.10614121 -0.05127258 -0.003365878 -0.042212453
0001e0 26 9f 1e 3e 2d 3a b5 3d 1c 9d 42 be 69 a2 b0 bc
       0.15490398 0.08848987 -0.19005245 -0.021561818
0001f0 91 7d ae 3c 70 08 c8 bc 94 4c 30 be 13 d4 f1 bb
       0.02130011 -0.024418086 -0.17216712 -0.0073800175
000200 42 17 77 3e ec fc fa 3d 62 a2 a8 3c 4b 03 8b be
       0.24129966 0.12255272 0.020585243 -0.2715095
000210 9a fe 97 be 5f f8 1c 3d 64 1c 13 be 78 b6 23 3e
       -0.29686433 0.038322803 -0.14366299 0.15987575
000220 ac e4 4b bd 61 6b 77 be be 79 14 3e 99 ad d5 3b
       -0.049778625 -0.24162056 0.14499566 0.0065209386
000230 23 83 d5 bd 28 4e d7 3d 54 83 e7 bd 7b bc f4 3d
       -0.10425403 0.10512954 -0.11304346 0.11950012
000240 5a 74 02 be c3 a2 04 3e 94 55 6c be 49 02 95 be
       -0.12739697 0.12952714 -0.2307952 -0.29103306
000250 0f f1 3b bd 8f de 3b be 67 02 ff ba 75 2f 7f 3e
       -0.04588419 -0.18346618 -0.0019455672 0.24920447
000260 36 77 85 3d 7a 96 bc 3c b4 4f 71 b9 07 fd 47 be
       0.06516878 0.023020972 -0.00023013243 -0.19530116
000270 15 3e a4 3d 48 ef 40 3e a6 97 89 3c a8 95 15 be
       0.08019654 0.18841279 0.016795944 -0.1460787
000280 f6 01 72 3e d3 46 91 3d 8c b6 91 3d 7a 93 38 be
       0.2363356 0.07093587 0.07114896 -0.18025008
000290 d8 db 6e be 72 45 c6 bd ec e7 1b be 85 ad 55 3e
       -0.23326051 -0.096812144 -0.1522519 0.20866974
0002a0 1d 47 3d be 66 5d 92 3e 9e 60 8e bd 1f 14 32 3e
       -0.18484159 0.28586882 -0.06952022 0.17390488
0002b0 eb 35 33 be eb f4 e1 3d a3 a6 0c be 47 5f bd 3b
       -0.17501037 0.110330425 -0.13735442 0.00577918
0002c0 59 48 f0 bd 2b 8e 5a be f7 16 06 be 3b c2 65 bc
       -0.11732549 -0.21343295 -0.13094698 -0.014023359
0002d0 d2 ac 16 3e fd 2e 9b bd 65 fd 87 3e ba db d5 3d
       0.14714363 -0.07577322 0.26560512 0.104423
0002e0 c6 b4 53 be 4e ba dc 3d 28 bc a9 bd 3c 4c 9c 3b
       -0.20674428 0.10777722 -0.08287841 0.00476983
0002f0 12 bf 86 3d 2c 9b ea 3d b8 e8 13 3e 57 22 86 bd
       0.065794125 0.11455378 0.14444244 -0.065495186
000300 b2 9e 89 be 47 c9 31 3c 71 14 08 be e3 e3 55 3e
       -0.26878887 0.010851211 -0.13289048 0.20887713
000310 49 04 1b bd 3f 13 57 bc 59 5d 57 be a4 b5 2b 3e
       -0.037845884 -0.013127147 -0.21031703 0.16768509
000320 25 21 dc bd c6 b4 81 bd 8b ec 74 3c 5c 9b 00 3e
       -0.10748509 -0.06333308 0.014948974 0.12559265
000330 1f 6a 39 bd e4 98 92 bc 8c 02 01 be 44 e8 bc 3b
       -0.04526722 -0.01789517 -0.12598628 0.005764993
000340 a1 1a 70 be 8a ae 26 3e 08 38 b4 bd 86 00 30 be
       -0.23447658 0.16277519 -0.087997496 -0.171877
000350 12 03 d2 3c 09 55 ef bd 60 1e e2 bd f9 d2 48 3d
       0.02563623 -0.11686141 -0.1104095 0.049029324
000360 df 58 82 3d 2f 93 e0 bd b4 cd 4d be 72 51 f4 bd
       0.06364607 -0.10965573 -0.20098001 -0.11929597
000370 a4 d4 34 be ab e2 d7 3d 25 c6 c7 bd a6 30 0d 3b
       -0.17659241 0.1054128 -0.0975459 0.002154389
000380 6e 19 43 be 6c bd d9 bd 63 47 0d 3e 5a dd b5 bd
       -0.1905267 -0.106318325 0.13796763 -0.0888011
000390 ef 02 2d 3e e9 0b 46 be b6 c6 2d 3e ae 92 65 be
       0.1689565 -0.19340481 0.16970333 -0.22419235
0003a0 19 9f a9 3d e4 b0 58 be dd 4e 84 bd c6 69 ed bd
       0.082822986 -0.21161228 -0.064603545 -0.1159244
0003b0 80 31 54 3e 0e 2b 06 3e f0 06 6f 3d 03 3a 74 be
       0.20722008 0.13102362 0.058356225 -0.23850255
0003c0 30 b3 00 be fc d7 5a 3d d6 bb 5a be bd c2 56 3e
       -0.12568355 0.053428635 -0.21360716 0.20972724
0003d0 b1 8d 22 be 51 2e 79 be ae a1 38 3e 2b b5 4e 3e
       -0.15874363 -0.24334075 0.18030426 0.20186298
0003e0 d2 9c 9c 3d 9a e7 77 be a2 cf 37 3e 5f b3 bc bc
       0.076470986 -0.24209443 0.179503 -0.02303475
0003f0 c0 cd 87 3d b2 41 01 3e fb 94 02 bd 00 d8 7c bb
       0.066310406 0.12622717 -0.03188036 -0.0038580894

blocks.5.1.bias f4 [16]
000000 29 d4 55 3d fd 92 78 be 1a 49 72 3d 3b 18 0d 3d
       0.052204285 -0.24274822 0.059151746 0.034446936
000010 81 db d6 3d f1 aa 08 3e a7 45 fe bd 68 2c a5 3c
       0.10491086 0.13346459 -0.12415629 0.020162776
000020 9a 6e 9f bc e8 9c 10 3d 8d de 6e 3e af cc 13 be
       -0.019461919 0.035305887 0.23327084 -0.1443355
000030 f0 b6 23 3e dd a0 25 3e f8 fe 11 3e ec d5 2f be
       0.15987754 0.16174646 0.14257419 -0.17171448

project.0.weight f4 [8, 16, 1]
000000 fa 2e 7c bd 35 79 8c 3d 0c 57 a0 bd e4 b9 12 3d
       -0.061568238 0.06859056 -0.07829103 0.03582181
000010 70 1c 33 3e f9 d9 52 be 67 2b a7 3d 10 a5 1f 3e
       0.17491317 -0.20590962 0.08162575 0.1559031
000020 56 1f c0 3b 07 9e c2 3d 47 c3 c0 3d 4f 3d 11 be
       0.0058631105 0.095027976 0.09412246 -0.14183544
000030 b3 97 90 bd 0a ab 96 bb 75 3b 77 bd 88 bb fa 3c
       -0.07060184 -0.004598026 -0.060359437 0.030607
000040 6f a9 f4 bd ef 49 0a 3e b8 1a 28 3e fe f1 4a be
       -0.119463794 0.13504766 0.16416442 -0.19818875
000050 90 b7 90 3d d5 e9 3f bb 24 1e 76 bd 53 cb 4c 3e
       0.07066262 -0.0029283662 -0.060087338 0.19999437
000060 56 1b bd 3d 07 57 fa 3c dc 81 2f be 53 33 74 be
       0.092337295 0.030559076 -0.17139381 -0.23847704
000070 10 fb 57 bc a3 8f 17 3e f2 b0 d1 bd 1e 1b 5b bc
       -0.013182417 0.14800887 -0.10238828 -0.013373164
000080 3d d8 8d bd 98 fe 70 bd bd c6 94 3a 2b e4 06 bd
       -0.0692601 -0.05883655 0.0011350733 -0.03293244
000090 93 cd f9 3d 10 e6 07 3e 32 a4 d7 3d dc 0b ba 3d
       0.12197413 0.13271356 0.10529365 0.09084293
0000a0 72 32 94 3d 54 80 8a be 0f b9 da 3d 23 65 1b 3e
       0.07236184 -0.27051032 0.106798284 0.151753
0000b0 2f b8 05 3e d4 e5 ff bd 59 74 dd 3b 28 b6 94 be
       0.13058542 -0.12495008 0.0067582545 -0.29045224
0000c0 b3 0d 16 bd b3 d1 5a 3e 9b 84 16 be b4 2b 6c 3a
       -0.03663416 0.21369056 -0.14699022 0.0009009198
0000d0 16 5b 34 be 72 5d 06 3e a1 e1 02 be 8f 4f c0 bc
       -0.17612872 0.13121584 -0.12781383 -0.023475436
0000e0 9b e2 d2 3d cd 4b 40 3e bb 3f 86 be 9c 57 07 3e
       0.10297128 0.18778916 -0.26220497 0.13217014
0000f0 97 80 fc bd 47 83 da bd 57 b3 ae 3d 5b 8d ce bd
       -0.12329214 -0.106695704 0.085303 -0.10085555
000100 fe aa 1f 3d d8 6e 60 3d 9a 5d 1d 3d 84 2a 03 3e
       0.03898143 0.05479321 0.038419344 0.12809187
000110 27 20 42 3b ce c4 82 be 0f 00 f9 3d 9f 9b ef bb
       0.0029621215 -0.25540775 0.12158214 -0.0073122527
000120 83 c7 ae 3d e1 05 a5 3d d3 53 4a 3d 63 2d 2b be
       0.085341476 0.08057762 0.049396347 -0.16716532
000130 20 cd 42 3e 1a 23 a5 3d 9d f5 89 be a9 fd 84 bd
       0.19023561 0.08063336 -0.269452 -0.06493694
000140 09 7f 4f 3e 10 d3 9a bd 66 c5 8e 3e 0d 1c 98 bd
       0.20263304 -0.07559788 0.27884978 -0.07427225
000150 85 f2 79 3d 71 b6 6f 3e f1 26 68 3e a6 71 33 3e
       0.0610223 0.2340944 0.22671105 0.17523822
000160 00 38 63 be ad 40 88 be bc 21 75 bd e3 09 ff 3d
       -0.22189331 -0.26611844 -0.059846625 0.124530576
000170 d6 0a ae 3e e2 79 fb 3d c8 33 7c 3e 8b 56 5b 3c
       0.33992642 0.12279107 0.24629128 0.013387333
000180 41 8e 97 bd 4e 14 b4 3d 66 61 3a be 1a 8f 56 3e
       -0.0740018 0.08792935 -0.18201217 0.20953026
000190 4a 30 24 be ed 65 9d bd bd 32 e4 3d f0 85 c8 3d
       -0.16034046 -0.076854564 0.1114249 0.097911716
0001a0 90 33 04 3d 70 46 df 3c d8 fa 15 be 6a 6f be 3d
       0.032275736 0.027255267 -0.1464647 0.09298594
0001b0 ed 28 fc bd 30 08 55 3e 31 a4 05 be 9f 19 b4 bd
       -0.123124935 0.20803905 -0.13050915 -0.08793949
0001c0 fc 4d 57 3e 4b 4d 26 be ee 6a 06 bd d5 c4 7c 3e
       0.21025842 -0.16240422 -0.03281682 0.2468446
0001d0 48 b6 02 3e 36 c5 42 3e 3b ae 73 be 9e 27 f2 3c
       0.12764847 0.19020543 -0.23796932 0.029559907
0001e0 c3 06 b1 3d 53 b0 59 3d c9 50 d4 bd 38 df a2 3c
       0.08643868 0.05314667 -0.10366971 0.01988183
0001f0 1e 22 ef 3d 55 1f 2a 3d ff 97 65 be ed 0f 63 3d
       0.11676429 0.041533787 -0.22421263 0.05543511

project.0.bias f4 [8]
000000 06 14 44 be 2f 36 02 be e0 35 9f 3e 95 80 17 be
       -0.19148263 -0.12715982 0.3109579 -0.14795144
000010 ea aa 97 3d ec c9 97 3e 10 b8 b0 3d 40 22 15 3d
       0.07405646 0.29646242 0.08628857 0.036409616
