checkpoints/dong_fno_inverse.pth (torch, 114314 bytes, 18 tensors)

lift.weight f4 [16, 3, 1]
00000000: c864 443e 4d59 b83d 9383 a33d 9543 b6be
00000010: a941 6a3f 0ac0 13be 61c8 1cbf d2fd 783e
00000020: 4b5f 723e 0b8a d1be dda4 00bf bca3 993e
00000030: b684 c6bd 0ba8 e43d d117 c3be fc82 d73d
00000040: 519f c3be 3a72 24bf 6071 09bf ee91 20bf
00000050: afeb 093e 003a 95be dcbd 1c3e eaea 3cbe
00000060: 897e c4be 9cac 9ebe f2db 0cbf baf2 88bd
00000070: e6ca 413b c0a3 123f 49b4 bbbe 677b 003f
00000080: 8c09 923e 8f63 e33d 4fa0 23bf a492 21bf
00000090: 027d 0bbf f0f5 573f a5fd fc3e 7e05 90be
000000a0: 3600 afbd a5d2 933e 71d2 b83d 0563 7cbf
000000b0: 8bfc 35bd a773 eebe 879a 013e 63e4 8fbe
0.1917907 0.09001408 0.0798408 -0.35598436 0.9150644 -0.14428726 -0.61243254 0.24315575
0.23669164 -0.4092563 -0.5025156 0.30007732 -0.09693281 0.11164864 -0.38104108 0.1052303
-0.38207486 -0.64236796 -0.5368862 -0.6272267 0.13468812 -0.29145813 0.153068 -0.18448988
-0.3837779 -0.30991066 -0.5502311 -0.066869214 0.00295704 0.5728111 -0.36660984 0.501883
0.2852291 0.11102974 -0.63916487 -0.6311438 -0.5448762 0.84359646 0.49412265 -0.2812919
-0.08544962 0.28871647 0.090245135 -0.9858859 -0.044430297 -0.4657261 0.12656604 -0.28103933

lift.bias f4 [16]
00000000: 9ab1 ddbe fbc0 ad3e afab 1f3e 3bb3 b3be
00000010: a286 2c3e deae 8bbd f25d b2be bd83 d13e
00000020: e851 ebbe 65ca be3d a373 8e3e 522e f7be
00000030: d045 d5be 86f9 0d3f 51cb 143f 4d0a a23d
-0.43299562 0.33936295 0.15592836 -0.3509768 0.16848233 -0.06820463 -0.348373 0.4092082
-0.45960927 0.093159474 0.278226 -0.48277527 -0.41654825 0.5545887 0.58122736 0.07912121

blocks.0.1.weight f4 [16, 16, 1]
00000000: 1ff3 843e 5e15 a0be 9606 1fbe 0957 8abe
00000010: cb82 903e 2987 a3bd c06b 6e3d 3710 293e
00000020: ec39 6bbd f508 023d 2f38 21be a12a 283e
00000030: 522e 6dbe d242 b53d 68a1 d1bd 32f8 243e
00000040: 63d3 29be ee77 8dbd 9c23 a0bd e1ab 843e
00000050: 5b77 17be dd04 66be 147b 5d3d cc3e 66be
00000060: ff34 67be 2127 66be 1669 2a3d 1f3e 5e3e
00000070: 4499 06be c23e e83c 761e 773c 44d7 0d3d
00000080: 73da 90be 5fd1 6a3d 509f 013e 913e 6abe
00000090: 71ef b4bd 0690 47bd 126f d13c 9964 4e3e
000000a0: eb27 14be 1d02 59be 4c16 433e 3a25 3c3e
000000b0: 8ca6 59be e2ea 7dbe 0a15 5c3e 7654 d1ba
000000c0: 1b35 413d 37be 7bbe 8c05 32bc e431 b1be
000000d0: 8f6c 56be c151 c33c 0d02 313e 5a95 afbd
000000e0: fa9d 943e 9f0c 653e 218b 93be 48b5 00be
000000f0: 6aa0 a8bd c635 983e ff23 1dbe c996 fd3d
00000100: f04b 7cbb 0478 873d db49 423e d979 423e
00000110: 5286 58be f1f6 a5be 80c3 a7bc 46f5 c9bd
00000120: aaf6 f7bd fdcf 85be dbc7 693e 2724 a6be
00000130: c0ef 58be c7e9 213e 0c90 7cbe fa8c 05be
00000140: 797d b53e 1423 553e 093d 2dbd fe1f 0e3d
00000150: 3645 a03d 9233 9d3d cf5b a5bd f804 2fbc
00000160: 3b83 3c3e 8f65 f4bd c441 18be e1a5 95be
00000170: a5ad 8bbe c119 e13e bc89 a2be a57c b6be
00000180: e86b b53d 6d4a 2cbe f7e9 323e 758f e1bd
00000190: fefa b33d 4d72 3d3d e2dd 82be e449 b3bc
000001a0: 5266 963d e760 273d 3d21 873e 604e 52be
000001b0: 848d e83c dc49 5d3e ad1c 203e 82ff 443e
000001c0: 66eb 0abe f210 133e 9bcf 203e 2998 973d
000001d0: 9009 98be f970 cc3c 4e96 53be eb80 1e3e
000001e0: ed02 75be 487a febd 3374 403e 91a4 193e
000001f0: 1b6a 963e bb86 71be 27ba 9f3e d01a 4d3e
00000200: 15a6 7bbd d6b9 1e3e e639 10be 744f be3a
00000210: a15d 00be 9438 553e 3d65 baba 1b92 87be
00000220: 7dca 9d3d 3d0a abbd e123 a83d 1424 f23d
00000230: f5d6 b0bd 6484 0bbe adfe e53c 521c 0e3c
00000240: d245 693e fdca 6dbe 0f57 42be 1b6a 7bbd
00000250: 4033 a23e 7a7e 2bbe f1f2 d5bc ce86 803e
00000260: 3698 2e3e 2061 753d ce1e 44be e293 a4be
00000270: c5f8 c1bc 8735 723d cff6 f7bb 8295 90be
00000280: 3c22 013d 63a7 4b3e 7faf 3f3e 0e3b 4c3e
00000290: 75cd 59bd 118f 6e3d b17d 2ebe c246 91be
000002a0: 7439 103e c831 233e de5b 7f3d 9afe 0abe
000002b0: 2c3e b5bd 8749 f03d 0851 623e 0695 983d
000002c0: 1976 473e 29dd 27be 8495 3fbd 1eca 55be
000002d0: ab79 27bd ca93 a6be 34b0 bf3e b080 913e
000002e0: 3a6b 033e 210f 1cbe aba5 fbbc fcc8 a5be
000002f0: f826 1b3c 0860 813e 8f79 1d3c 4018 9cbe
00000300: b12d 67be 72b7 6abe 6293 5d3d e477 333e
00000310: 4109 dfbd abe6 ff3d dd9d 9abe 3987 8fbe
00000320: 91af 8bbe aadd 56be c214 0e3d 328e 823e
00000330: a46a 1d3e 000a 14be ced7 863e bd53 913e
00000340: 269e 62be d7d1 21bd 862c 923e ff4d 91bd
00000350: d9a2 533e 56e7 613e a716 a03d 07b3 4abe
00000360: 965b 73be 19dc 303d 55dd 893e c305 f33d
00000370: c931 613d 59ae acbd f682 723e db0b 1f3e
00000380: fabe 663e 0fe1 aa3c 2996 55be c92c 85be
00000390: c2f4 69bd fa8d 993d 70f0 b23e 6e3c 8d3e
000003a0: 6b8d 8f3e 8751 aa3e 2a84 d3bd 190e 1b3e
000003b0: e474 9cbe 43d6 9a3b f275 14bb e0cd 82be
000003c0: 7c02 ad3d 27e2 4b3e 1451 283e d9a2 2c3d
000003d0: 5990 3dbe 3e6f 303d 3ecb b3be cc93 4ebe
000003e0: 1d7b b3be b7b6 4e3e b845 843e 8bc0 b13d
000003f0: 56c5 923e c845 a4be 5fcc 313e 5bbf 0c3e
0.25966737 -0.31266302 -0.15529856 -0.27019528 0.28224787 -0.07984764 0.058208227 0.16510092
-0.057428285 0.031746823 -0.15744089 0.16422512 -0.23162201 0.088506356 -0.10235864 0.16110304
-0.16584544 -0.069076404 -0.07819292 0.25912383 -0.14791624 -0.22462793 0.054072455 -0.22484893
-0.2257881 -0.22475864 0.041604124 0.21703385 -0.13144404 0.028350238 0.015082946 0.03462912
-0.28291664 0.057328578 0.12658429 -0.2287543 -0.08834732 -0.048721336 0.025565658 0.20155562
-0.14468352 -0.21192212 0.19051474 0.18373576 -0.21254939 -0.24796632 0.21492401 -0.0015970606
0.047169786 -0.2458428 -0.01086558 -0.34608376 -0.2093985 0.023842694 0.17285939 -0.085734084
0.29026777 0.22368096 -0.28817084 -0.12569153 -0.082337216 0.29728526 -0.15345763 0.123822756
-0.003849741 0.06614688 0.18973486 0.18991794 -0.21144989 -0.32414964 -0.020478964 -0.09861235
-0.12107594 -0.26135245 0.22830145 -0.32449457 -0.21185207 0.15811835 -0.24664325 -0.1304206
0.3544729 0.20814162 -0.042294536 0.03469848 0.07825701 0.07675852 -0.08074152 -0.010682337
0.18409435 -0.11933433 -0.14868838 -0.29228118 -0.27280918 0.4396496 -0.31745708 -0.3564197
0.08858472 -0.16825266 0.17472063 -0.110136904 0.08788107 0.046251584 -0.25559908 -0.02188582
0.07343735 0.040863898 0.26392546 -0.2053771 0.028387792 0.21610206 0.15635939 0.19238093
-0.1356636 0.14361933 0.15704195 0.07402069 -0.29694796 0.024956213 -0.20662805 0.15478866
-0.23926897 -0.12425667 0.18794326 0.15004183 0.29377827 -0.23586552 0.3119671 0.2002976
-0.061437685 0.15500578 -0.14084587 0.0014519528 -0.12535717 0.20822364 -0.0014220845 -0.26478657
0.07704637 -0.08351562 0.08209968 0.118232876 -0.0863475 -0.13624722 0.02807554 0.008673744
0.2278054 -0.23221965 -0.18978523 -0.061380487 0.31679726 -0.16747466 -0.02611682 0.25102848
0.17050251 0.05990708 -0.19152376 -0.32144076 -0.023678193 0.05913308 -0.0075672637 -0.28239065
0.03152679 0.19888072 0.1871929 0.19944403 -0.053174455 0.058241908 -0.17040135 -0.28374296
0.14084417 0.15936959 0.06234347 -0.13573685 -0.08849749 0.11732774 0.22101223 0.07450299
0.19478644 -0.1639296 -0.04677345 -0.20877883 -0.040887516 -0.3253463 0.3743912 0.28418493
0.12833872 -0.15240146 -0.030718645 -0.323799 0.00946974 0.2526858 0.009611501 -0.3048725
-0.22576024 -0.22921541 0.054095633 0.17526203 -0.10890437 0.12495168 -0.30198565 -0.28032854
-0.27282384 -0.20982996 0.034687765 0.2549911 0.15372711 -0.1445694 0.2633652 0.283842
-0.22130641 -0.03950676 0.28549594 -0.07094955 0.2066759 0.22060904 0.078168206 -0.19794856
-0.23765406 0.04317865 0.26926675 0.11866333 0.05497912 -0.08431692 0.2368277 0.15531866
0.2253379 0.02085927 -0.20858063 -0.2601073 -0.057118185 0.07497783 0.34949064 0.27585167
0.2803758 0.33265325 -0.10327943 0.15142097 -0.3055793 0.004725249 -0.0022653309 -0.25547695
0.084477395 0.19910489 0.16437179 0.04214749 -0.18512096 0.04307484 -0.35116 -0.20173568
-0.35054865 0.20186888 0.2583444 0.08679303 0.2866618 -0.3208449 0.17363118 0.13744871

blocks.0.1.bias f4 [16]
00000000: 9424 443e 5029 f43c 4347 d5bd ccc2 cbbb
00000010: 8153 253e 1238 183e 9b3d 433e 3531 43be
00000020: c11d 10bc fde0 3e3e 1354 3f3d 800a cc3d
00000030: f5a5 183d 9c74 a23c 5d99 a8bd 23e2 01be
0.19154578 0.029804856 -0.10413983 -0.00621829 0.16145135 0.14865139 0.1906647 -0.1906174
-0.008796156 0.18640514 0.04671104 0.0996294 0.037267644 0.019830994 -0.08232377 -0.1268392

blocks.1.1.weight f4 [16, 16, 1]
00000000: f600 d5bd d983 0cbe bc30 a5bd f82e 30be
00000010: dd79 0bbe b052 0e3d 0259 3abe 26a5 973e
00000020: 30db aabe 0b78 7c3e f670 17be 4b96 c63d
00000030: 4670 10be 44ad d63d 910b 09be 6cc8 ab3d
00000040: 9435 3fbe 994a b5bd 6e7d 95be b3fc 07be
00000050: 4afc 16bd 9568 8cbe c1c7 dfbc 582b 2cbe
00000060: fbd1 c53e 32fc 86be a31e 08be f423 97be
00000070: d805 0e3e e224 193e c5a4 29bb 8999 f43c
00000080: 0e54 3fbe ef5b 243d 6b57 9a3e bd07 17bd
00000090: 60c2 97be f2ac 483e d39a 123e 1969 7abe
000000a0: 84b6 d63c 54b2 773c 8643 bcbd c946 b3be
000000b0: 3747 923e 2bac 07be e5d3 563e 437e e7bd
000000c0: ffff 5b3e 81e2 a4be 0bb8 f0bd 6016 8abe
000000d0: 9e4c 73be 1842 193e ad39 02bb c243 e4bd
000000e0: 6d31 413e 3979 b5bc 2e24 2a3e 2738 6fbe
000000f0: 32c2 823e 342a fdbc 4ba2 593e d764 b7bd
00000100: 7d6a 5f3e 07c4 52be 62ea 073d 566a 953d
00000110: 5c1b 07bd 188f d3bd 2161 8c3e e9e0 043e
00000120: 9a40 293e a3b7 513e 4c46 a73d 456c 343e
00000130: 6c8b 3fbd 1e4e f4be 1c7f 0dbe 0f06 26be
00000140: 6181 67bd 76b8 ddbd 7fbf 083e 89d3 93be
00000150: e4a2 56bc 638b 85be 2fc5 67bd 42a0 bb3d
00000160: b046 093e b2b3 283e f7b1 383e ebae 133d
00000170: a1b2 b33e 7bb1 55be 2cb1 63bb ae05 12be
00000180: 54c2 8bbe f344 923e 6b70 28be 00f5 9fbd
00000190: 6475 293e 5832 bd3d c1fd 5abe c6bd 27be
000001a0: 2174 3bbe a790 e9bd 0ea8 3b3e 956b 5439
000001b0: 496c 18bd 7be3 863e 71c5 04be ae0f 6e3d
000001c0: ed58 56be f0d6 d83a e346 aebd 6b60 4bbe
000001d0: eda8 103e 5d2c 1b3e d4d4 1dbe 4858 133c
000001e0: f8fc a33e 94f8 67bc ec60 4b3d 9c62 6e3d
000001f0: a1b0 22be d4d4 5fbd a561 6bbe 85c1 c43c
00000200: 9e45 57be 3a6d 95bd f046 b6be 3a5f f7bc
00000210: 2f98 49bd e7f6 32be efb5 acbe 824e 7bbe
00000220: 737c d33d 4fb0 93be 874b 7d3d 9773 133d
00000230: f7c7 2a39 8580 6a3c 4990 49be 4064 8f3e
00000240: ab57 ecbd 24b6 f5bc fc52 833e 17d3 20be
00000250: 53b5 a5be 6042 7b3e cf23 743e aae4 0bbe
00000260: 1ed1 67be 392e 893e 9a79 95bd 7b67 663e
00000270: d58b ecbd c2e4 33bd c305 e7bd a3f2 37be
00000280: e9e9 dfbc 1055 9d3e 0c88 63be e3fe 24be
00000290: 7b6a 503e f726 2f3e bfd0 56be 5333 aebd
000002a0: 3a48 0b3e 6444 47be a925 a43e 9e2e 833e
000002b0: 5fe9 433e 01a1 a5bd 6099 983d 82b6 b43d
000002c0: a86d 9fbd a356 95be caa8 713d d0eb 36bd
000002d0: e44a a53d bbc2 58be eabd a83d a571 153e
000002e0: 278e 0a3d 3c81 0abe 5446 103b b404 2a3d
000002f0: f2a5 703e bf2c 8dbe fe08 9c3d 6646 7cbe
00000300: 036f c8bd 0c62 513e f6a6 663e 6a47 383e
00000310: 518f 8d3e 5b22 45bd 3849 bdbd b8e9 81be
00000320: afc9 333e 8727 4c3e 0363 1bbc 8fa8 89be
00000330: c7c7 64be e7e3 6f3e a056 2ebe 6e54 f03d
00000340: f013 a1bc 3ecc 5e3e acbb 56be d4c9 51be
00000350: c3f4 4d3e 1e72 283e 68b7 8bbe 4526 9cbc
00000360: 0a00 c53d 7cc8 1dbe eec2 a83e 019a 8ebe
00000370: da1b 713e f1cd 243e 47f1 8ebe d10c de3d
00000380: d922 fd3d 5ac1 93be 848b 523d 0cec 4a3e
00000390: 0439 6cbe 6493 003d 53b0 ba3d 1872 913e
000003a0: 0d8b 03be adc3 1f3e 1626 b2be 95a0 7e3e
000003b0: 2fd5 c3bc 341b 4ebe 1b07 23be f8d7 d73c
000003c0: 88ab f5bc ecb0 9b3e 7e97 37be b9c2 d2bb
000003d0: 08bf 333e b5a6 59bd 578c a4be 6062 1abe
000003e0: 233d 903b d3b6 6cbe 1bca 18bd ad80 4fbd
000003f0: 0da4 97bd 5ca7 bb3d 53c6 29be 7b4d 7f3d
-0.10400574 -0.13722171 -0.08065936 -0.17205417 -0.13620706 0.034746826 -0.18198016 0.29618186
-0.33370352 0.24655168 -0.14789185 0.09696635 -0.14105329 0.104822665 -0.13383318 0.08387837
-0.18672782 -0.08852119 -0.29197258 -0.13279991 -0.036861695 -0.2742354 -0.02731693 -0.1681341
0.38636765 -0.26364285 -0.13292937 -0.29519618 0.13869417 0.14955476 -0.0025885564 0.029858368
-0.18684408 0.040126737 0.3014482 -0.036872614 -0.29640484 0.19597223 0.14316873 -0.24454154
0.026210077 0.0151182 -0.091925666 -0.35014942 0.28569958 -0.1324927 0.20979269 -0.113033794
0.21484374 -0.3220406 -0.117538534 -0.26970196 -0.23759696 0.14966619 -0.0019870803 -0.11145736
0.1886651 -0.02215253 0.16615364 -0.23361264 0.25538784 -0.030903913 0.21253316 -0.089547805
0.21817966 -0.20582591 0.03318251 0.072956726 -0.032985076 -0.10330027 0.27417853 0.12976421
0.1652855 0.20480208 0.08167705 0.17619427 -0.046763822 -0.4771585 -0.1381802 -0.16213249
-0.05651987 -0.10826199 0.133543 -0.28872326 -0.01310036 -0.26082906 -0.056584533 0.09161426
0.13405871 0.16474798 0.18036638 0.036055487 0.3509722 -0.20868485 -0.0034743054 -0.14259979
-0.27296698 0.2856823 -0.16449134 -0.07810402 0.16548687 0.09238118 -0.21385862 -0.16380987
-0.18306018 -0.11404543 0.18325827 0.00020257973 -0.037212644 0.2634543 -0.12965943 0.058120422
-0.2093236 0.0016543549 -0.08509614 -0.19861 0.1412694 0.15153642 -0.15413219 0.008993216
0.32028937 -0.014158387 0.04965298 0.05819951 -0.15887691 -0.054646328 -0.22986467 0.024018059
-0.2102265 -0.07296224 -0.35600996 -0.030196775 -0.0492174 -0.17476998 -0.33732554 -0.24541667
0.10326471 -0.2884545 0.061839607 0.035998907 0.00016286956 0.014312868 -0.19683947 0.28006172
-0.11540159 -0.029994078 0.2564925 -0.15705524 -0.32364902 0.24537039 0.23841785 -0.13661447
-0.22638366 0.26793078 -0.07298584 0.22500412 -0.11550108 -0.043919332 -0.11280396 -0.17963652
-0.027333217 0.3072896 -0.22219867 -0.16112857 0.20353119 0.17104708 -0.20978068 -0.08505883
0.13601771 -0.19459683 0.32059982 0.25621504 0.19131993 -0.0808735 0.07451129 0.08823873
-0.07784587 -0.2916766 0.05899886 -0.044658482 0.08070925 -0.21168034 0.08239348 0.14594133
0.033826973 -0.13525862 0.0022014575 0.04150839 0.23500803 -0.275732 0.076189026 -0.2463623
-0.09786799 0.20447558 0.22524628 0.17995992 0.27648404 -0.048128467 -0.09242481 -0.25373626
0.17557405 0.19936953 -0.009484055 -0.26886413 -0.22341834 0.23426782 -0.17025232 0.11734854
-0.019662827 0.217576 -0.20970029 -0.20487148 0.201129 0.16449782 -0.27288365 -0.019061217
0.09619148 -0.1540851 0.3296122 -0.2785187 0.23545781 0.16094185 -0.27918455 0.10842288
0.12360162 -0.28858453 0.051402584 0.19816607 -0.23068625 0.031390563 0.091156624 0.2840736
-0.12846012 0.15601988 -0.34794682 0.24865945 -0.023905365 -0.20127565 -0.1592068 0.0263481
-0.029989019 0.30408418 -0.17928883 -0.006431904 0.17553341 -0.0531375 -0.3213832 -0.1507659
0.0044018193 -0.23116617 -0.037302118 -0.050659824 -0.07404337 0.09162781 -0.16579561 0.06232975

blocks.1.1.bias f4 [16]
00000000: 5267 4d3e c07f 583e 884f 833c c266 87bd
00000010: f020 02bc e695 723d f525 9ebb 4a16 e5bd
00000020: f597 13be 7c3a 54bd c451 85bc b442 0f3d
00000030: 36d3 33be b4d8 723e 3bc8 3d3e 1d36 2c3e
0.20058945 0.21142483 0.016029134 -0.06611396 -0.007942423 0.059224986 -0.004826302 -0.11185892
-0.14413436 -0.051813588 -0.01627434 0.034975722 -0.1756104 0.23715478 0.18533413 0.16817518

blocks.2.1.weight f4 [16, 16, 1]
00000000: d36d 2cbe 57c7 74be 386a 4d3e 3e68 2c3e
00000010: a693 6c3e c6a3 5fbe 7fa8 9fbd 5eb5 eebd
00000020: 636c 8f3e a128 d3bd 73c3 72be fce4 fd3d
00000030: a6a8 9e3d 90f4 98be e0e8 08be 8bd7 8ebe
00000040: 391e 4dbe e7a5 5b3e 7c42 183d 145d de3c
00000050: 9104 65bd f903 693e 273b a8bb 4780 1dbe
00000060: 63e1 6cbe 1156 cdbd 38df 5e3e 54bd 51be
00000070: a4ab f4bd 2a38 423e 6f60 50be cfa8 1f3e
00000080: 7c54 053c eff1 163e 4c46 81bc 9748 2abe
00000090: 9cc4 5f3e e838 5f3d a4a0 953d b4ff 8a3e
000000a0: 7aba 74be 56b5 843d 4769 6d3e 738a 183e
000000b0: 332e 643e 7468 c33d 586b 06be dde6 373e
000000c0: cc16 603e 20a3 183e dca7 a63e c84c 893e
000000d0: 2991 08be 6e4e 7e3e 23c3 37be 1eec 543e
000000e0: 4956 743e be9d 093e 9e91 b33d 2f0e 85be
000000f0: b859 3dbe 8b39 c5bd 1826 7d3e 146f 4abe
00000100: 540d 72be b2f9 cbbc 0f31 80be 05eb 813e
00000110: 8400 eb3d d2f7 5f3e bf2b 41be ade1 a13e
00000120: 98b5 c7bd 9f0f b23c c382 79bd 461d 38be
00000130: 4268 cdbd bf4e 443e 99e7 303e 2d85 873e
00000140: 957d f9bc d0dd 1ebe 682f 7f3d cd6a 61bc
00000150: 1446 d73c d4d2 a33d 81a5 08be 6f9a 20be
00000160: 4f2d d03d 021a 08be e44a 3b3d 9d35 4a3c
00000170: 6516 213e f54d 593e 2e3b 88bc 519c 843e
00000180: 0b96 90bd ea9d 343e 11e4 263e 406d 7abe
00000190: 7562 b5bd f2d2 50bd 0c73 083e 8aeb 1dbd
000001a0: e14f 53be a18f d5bd ee27 e73c d5e5 8a3e
000001b0: fe90 0dbe bd9c 313e 249e 2f3e 97ca 0dbe
000001c0: d71f 82bd a736 c5bd f59b c5bc 2673 8fbe
000001d0: 8f04 3ebe 5b25 e83d 3ca2 6cbe 209a 85be
000001e0: 470c c73d 8b06 5b3e c291 003e d4a2 1bbe
000001f0: cb25 31be 2d24 19bd 1fb5 1dbe 533b 63be
00000200: c382 64be e5fa 063e 4922 6d3d ad8e 79be
00000210: 28a3 8fbd f764 8a3e 90c2 df3d 7911 56be
00000220: 44fc 23bd f196 94be 8567 c6bc 4d85 63bd
00000230: 7347 8ebc 8324 953e da4c 34be f497 a2be
00000240: 93b6 14bd 494c 37bd b683 cd3d eba6 60be
00000250: 9191 e9bd 4574 ba3c ee1f 0e3e 1c63 ddbd
00000260: a158 913e e9f0 153e 1a07 403e dce2 08be
00000270: fe8f 17be 92f1 f3bc 2232 0f3e 4db4 4bbd
00000280: cbab a13d 4330 863e e99c b33c 9d7c 9e3d
00000290: 0a05 6ebe 2fe9 c73d 771b 00be 5c32 7bbd
000002a0: c6ee ecbd a862 63be 56e6 a23d 597c 613d
000002b0: 3d97 8f3e d022 a13c 4181 88be 6212 b7bd
000002c0: 1bbf b73d 9e42 dfbd c189 973e 8a0d 533e
000002d0: 676f 24bd ec90 d83d eea6 2b3e f69b 453e
000002e0: bd7f 20be 98cd 113e 5a5a 9dbd bb5b 18be
000002f0: bcf0 b43d 5b1f f4bc 869b 5c3e 65ec 0a3e
00000300: 6c9e 37be 037b 6a3e 0452 9a3d 35fc 14be
00000310: 3047 83be 1930 ef3d 95da 5abe 3e14 7bbe
00000320: 77a0 8dbe 1eae 253d 4451 453e 3140 14bd
00000330: ba4f 1d3e 67ac b23e 6853 14be 876a 2abd
00000340: 078b abbc 6eb8 13be 2718 243e 0861 34be
00000350: bc84 98be 8130 953e dacd a6be 1615 29be
00000360: e94c a7be 7d83 ecbd eadb df3d 327a 23bd
00000370: c739 28be fb53 903e be8d f4bd 31f9 50be
00000380: 2d52 40be 5e6b d5bc cfc3 833c 1027 d33d
00000390: bedc ca3d d769 dabd 657f 5f3e 9b1b 3dbe
000003a0: f39a 3cbe 02e7 f1bd 4b93 2c3e 533d 8a3a
000003b0: e2af 28be 7f16 04bd a510 79be 5715 83be
000003c0: a710 abbe 19b6 cb3c b9c3 033e 23e1 1c3e
000003d0: cec1 59be 43f0 09be 8b17 cd3d 0dca f53d
000003e0: ece6 90bd 31c9 8fbd 7f6e 0a3e 3884 ea3d
000003f0: 1596 9b3e 4cad 06bd 0ea6 7bbe 3dae 27be
-0.1683877 -0.23904167 0.2006005 0.1683664 0.23103198 -0.21839818 -0.0779581 -0.11655687
0.2801238 -0.10310484 -0.2370737 0.12397191 0.07747011 -0.29874086 -0.13370085 -0.2789882
-0.2003106 0.21450005 0.03717278 0.027143992 -0.055912558 0.22755422 -0.0051340046 -0.15380965
-0.23132853 -0.100261815 0.21764839 -0.20482379 -0.119468 0.18966737 -0.20349286 0.15591739
0.008137818 0.14740728 -0.01578059 -0.16629253 0.21852344 0.05449763 0.073060304 0.2714821
-0.2389926 0.064798996 0.23184691 0.14896564 0.22283249 0.09541407 -0.13126886 0.17959161
0.21883696 0.14905977 0.32549942 0.26816392 -0.13336624 0.24834606 -0.17945533 0.20793197
0.2386104 0.1343908 0.08768009 -0.25987384 -0.18491256 -0.09630116 0.24721563 -0.19768935
-0.23637897 -0.024899337 -0.2503743 0.25374618 0.11474708 0.2187188 -0.18864344 0.3161749
-0.09751433 0.021735964 -0.06091572 -0.17979917 -0.10029651 0.19170664 0.17275847 0.26468793
-0.03045539 -0.15514302 0.06230107 -0.013758373 0.026278533 0.07999197 -0.13344385 -0.15683912
0.10164892 -0.13291171 0.04572572 0.012341884 0.15731199 0.21221144 -0.016629782 0.2590051
-0.070598684 0.17638364 0.16297938 -0.24455738 -0.0885667 -0.050982423 0.13325137 -0.038554706
-0.2063594 -0.10427786 0.028217282 0.27128473 -0.13824841 0.17344947 0.1715017 -0.13846813
-0.06353729 -0.09629565 -0.024122218 -0.2801754 -0.18556426 0.1133525 -0.23108763 -0.2609415
0.097191386 0.21389215 0.12555602 -0.15198833 -0.17299573 -0.037388016 -0.15401123 -0.22190599
-0.22315507 0.13181646 0.057894025 -0.24370833 -0.070135415 0.27030155 0.10925782 -0.20905103
-0.0400355 -0.2902141 -0.024219284 -0.055547047 -0.017368054 0.2912942 -0.17607442 -0.31756556
-0.03630693 -0.044750486 0.100348875 -0.21938674 -0.11404718 0.02276052 0.13879368 -0.10809919
0.2838793 0.14642681 0.18752709 -0.1336779 -0.14801022 -0.029778276 0.13983968 -0.049732495
0.07894095 0.26208696 0.021925407 0.07738612 -0.2324411 0.09761273 -0.12510477 -0.061327323
-0.1156898 -0.22205603 0.07954089 0.055050228 0.28045073 0.01966992 -0.26661113 -0.08939053
0.08971997 -0.10901378 0.29597285 0.20610633 -0.040145304 0.10574517 0.16762897 0.19297776
-0.15673728 0.14238584 -0.07683249 -0.14878742 0.08834979 -0.029800108 0.21543702 0.1356674
-0.17931527 0.22898488 0.075351745 -0.14549334 -0.2564025 0.11679096 -0.21372445 -0.2451944
-0.27661487 0.040449254 0.19269282 -0.03619403 0.15362445 0.34897158 -0.14484942 -0.0416055
-0.020940317 -0.14425823 0.16024838 -0.1761514 -0.29788768 0.29138568 -0.32578927 -0.1651195
-0.32675865 -0.11548517 0.10930617 -0.039911456 -0.1642829 0.28189072 -0.11941098 -0.20407559
-0.18781348 -0.026052173 0.01608458 0.10310185 0.099053845 -0.106647186 0.21825941 -0.18467562
-0.18418483 -0.11811639 0.16853063 0.001054684 -0.16473344 -0.032248016 -0.24322756 -0.25602219
-0.33411142 0.024867104 0.12867631 0.15320258 -0.21265337 -0.13470559 0.10014256 0.12001429
-0.07075295 -0.07020796 0.13518713 0.11451 0.3038794 -0.032880113 -0.24575064 -0.1637506

blocks.2.1.bias f4 [16]
00000000: 7e25 433e 3b6f 603c c5c9 19bd 2a4d 42be
00000010: 1228 093e 1c4b 433d 4949 223e 000e 96bd
00000020: c2c1 acbd 2890 1cbe b34f 2bbd 44e0 02bc
00000030: d1b6 41be ae6c e6bd b7db afbd 99b9 253e
0.19057271 0.013698394 -0.037545938 -0.18974748 0.13394192 0.04767905 0.15848269 -0.07326889
-0.08435394 -0.15289366 -0.041824054 -0.007988039 -0.18917395 -0.11251198 -0.08586829 0.16184081

blocks.3.1.weight f4 [16, 16, 1]
00000000: ce12 4ebc 0fb1 2a3e 126a febc 8f57 613e
00000010: e2ab b1bd 21f5 68bd c30b dcbc 5cd0 d7bd
00000020: 706b ba3d ca2e 273e 9602 84be 17fd eebd
00000030: d178 02bd 96b9 00be 952e 22bd 6068 41be
00000040: 383d 7ebd 300a 2b3e cf79 66bd 3897 3bbd
00000050: 4c1f cdbc 9686 d63c 5698 b2bd d42b 17be
00000060: a165 d63d 2f00 7e3e 7bb5 86be f122 80be
00000070: ed57 83be 7b6f 5a3e 25c0 0dbe ab28 1e3e
00000080: 16ed 34be 07f6 7abd d590 9dbe 3d46 8f3e
00000090: 8949 6abe e227 853e fd43 ff3c c581 433d
000000a0: 23db 1e3e fa2a 9d3d c8c5 c4bb e845 803e
000000b0: 1f46 6f3d e1da b4bd 0266 04be 43d1 ad3e
000000c0: 4555 fc3d 57dc 0fbc c1d2 5cbe 158c 503e
000000d0: 0a5d ab3c bcc3 973d 43fb 023e ee1b 363d
000000e0: e316 a9bd 3d39 8a3e 71fb 333d 3926 293e
000000f0: db02 203e 2659 14be fe11 593e e134 a239
00000100: 4ab3 39be 5a7c 0f3e 7b41 97be cf6f ec3c
00000110: 9771 c0bd 88e2 493e 7341 61bd 97b1 dabc
00000120: 198b 5b3e fdfc e23d 91ed c5bd 12e3 22be
00000130: 863a 9d3d 21a9 41be 98ef f43c a705 2a3e
00000140: 70f1 9ebe de7a 16be 22cd 863e af99 b2bd
00000150: 0b81 31be ea45 e03d 7c2b 42be 72ac 6cbe
00000160: 4d12 0dbe fb80 993e 9e91 85be 4c0c 9a3e
00000170: 2b27 9cbe b833 28bd 1544 a9bb 1522 d03d
00000180: 69cb a43c 57b6 f8bc 1e0b 6ebe d1c0 863d
00000190: 5718 4b3e cf1d d0bc 841f fa3d d488 103e
000001a0: 98fa 12bc ed7b ff3c 85bd 453e f972 81be
000001b0: 5ef4 c6bc 7f12 7dbd e207 4e3e 53c9 343e
000001c0: 6221 01be d15d 00be f64c b9be c730 593e
000001d0: 830f f9bc 67d9 b2bd 1b96 173e 95ae 4b3a
000001e0: 6df8 233d d711 ba3a 211e e53d 2f9c 40be
000001f0: 788d 383e c5e6 f93d 9ec7 4bbd 4b9c 15bc
00000200: c5f4 46bc 3c81 523e 3f53 88be ad07 7dbe
00000210: 8683 e83b 5ae8 033d ff57 8d3d 6f46 a83d
00000220: 8069 573d 2991 34be 7f6e 79bd a5b2 8bbd
00000230: dc4d f9bd d611 b6bb d6a2 78bd 263d 2fbe
00000240: e095 10be 407f 26bd 8403 e53d 55ed 81be
00000250: 6784 043e f088 68bd 31ef 83be 0764 6dbd
00000260: 2dd3 9ebe 11a2 80be eecb 113e 09dd 58bd
00000270: 8910 20be f20d 573e 069a 41bd 3535 98bb
00000280: 10dc 933e 8f09 953e a907 8dbe 76c1 1b3e
00000290: 9b8d 86be 03a4 623d 0237 8e3e 406a f73d
000002a0: e940 bdbd a57d 50be 2714 963e 3f39 cebd
000002b0: dd7f 253e 823a 2fbe aec1 62be 3d13 0fbe
000002c0: 1393 8f3d cc0a a2be f34b 06bd 0a42 4f3e
000002d0: 5aef 98be f763 dd3d 081b 65be ec17 73be
000002e0: 0949 8e3e 8654 80be ca26 34bc a92c 68be
000002f0: 9f20 0dbe d7ca 98bd 11da 1fbe cfdc 8c3e
00000300: b7c6 743e aeb9 403e 68f0 3cbd c1fc 4c3d
00000310: b490 253e 05fe 6ebe 4b7b e4bd b036 643e
00000320: 511c 1fbe 9ba1 733d 0a78 85bd ebde f7bc
00000330: b98a b8bd f25d 013e 4bf4 63be dac0 88bd
00000340: 0523 2cbe 1a97 b9bd 7206 58bd 059e a5be
00000350: af67 893c 022d 343d 346b 083d bb0a 893d
00000360: 509e 00be c334 b1bd 4197 0dbe ca0c 1fbe
00000370: 7b1e d0bd c8a4 153e 66a4 3ebb e07b c4bd
00000380: e3ca aebd d3aa 99be 2fce 3abd fe02 a4bd
00000390: f940 05be 87b1 49be 8a8c 443e 5bfa 17be
000003a0: 7ffe 5ebd 56d4 553d bb56 893e 3a12 59be
000003b0: f6f9 a0be 718b 76be a04a 683d 1bee 20be
000003c0: de22 123c f8bc 643d ad3c 4ebe 345f b63d
000003d0: 6340 13be c87f 083e 7354 0cbd e316 4d3e
000003e0: 30ae 65be 67ea 84bd f25a d73d 7281 f5bd
000003f0: 820c 813c c44a 60be 4dc3 68be 8a0f 8ebd
-0.012577726 0.16669105 -0.031056438 0.22006057 -0.08675362 -0.0568744 -0.026861077 -0.10537788
0.09102523 0.16326442 -0.25783223 -0.11669367 -0.0318535 -0.12570795 -0.039595205 -0.18887472
-0.0620701 0.16703105 -0.05626851 -0.04579851 -0.025039338 0.026187222 -0.08720462 -0.14762813
0.10468603 0.24804758 -0.26310334 -0.25026658 -0.2565302 0.21331589 -0.13842829 0.15445201
-0.17668566 -0.061269786 -0.3077456 0.27983275 -0.22879614 0.2600699 0.031160349 0.04773118
0.15513282 0.07674213 -0.0060050227 0.25053334 0.058416482 -0.0883081 -0.12929538 0.33948717
0.12320951 -0.00878056 -0.21564771 0.20365937 0.020918388 0.0741038 0.12791161 0.04446023
-0.082563184 0.26996794 0.043940965 0.16518487 0.1562609 -0.14487132 0.2119827 0.00030938446
-0.181348 0.1401228 -0.29542145 0.028861908 -0.093966655 0.19715321 -0.054994058 -0.02669601
0.2143978 0.1108341 -0.09664453 -0.15906933 0.07677178 -0.18912174 0.029899403 0.16603719
-0.31043577 -0.14695308 0.2632838 -0.08720719 -0.17334382 0.10950835 -0.189619 -0.23112658
-0.13776512 0.29981217 -0.2608766 0.30087507 -0.30498633 -0.041064948 -0.0051655867 0.10162751
0.020116525 -0.030360384 -0.23246428 0.065797456 0.19833504 -0.025404839 0.122130424 0.14114696
-0.008970879 0.031187022 0.19310577 -0.2528303 -0.024286445 -0.061785217 0.20120195 0.17654924
-0.12610391 -0.12535788 -0.3619153 0.21210013 -0.030402904 -0.087328725 0.14803354 0.000776985
0.04003184 0.001419599 0.11187387 -0.1880958 0.18022716 0.12202219 -0.049750917 -0.009131501
-0.012143319 0.20557112 -0.26626012 -0.2470996 0.007095757 0.03220401 0.069015495 0.08216559
0.052590847 -0.17633499 -0.060896393 -0.06821183 -0.121730536 -0.0055563254 -0.060702167 -0.1711317
-0.14119673 -0.0406487 0.11182311 -0.25376382 0.12941132 -0.05677122 -0.25768426 -0.05795672
-0.3102049 -0.25123647 0.14237949 -0.05294517 -0.15631308 0.21001413 -0.04726603 -0.0046450146
0.28878832 0.29108855 -0.27544907 0.15210518 -0.2627991 0.055332195 0.27776343 0.120808125
-0.09240896 -0.2036043 0.2931225 -0.100695126 0.16162057 -0.17112163 -0.22144195 -0.13972183
0.07010474 -0.31648862 -0.032787275 0.20240036 -0.2987011 0.108100824 -0.22373593 -0.23739594
0.27790096 -0.25064486 -0.010995576 -0.22673286 -0.13781975 -0.07460564 -0.1561053 0.27512214
0.23903929 0.18820831 -0.046127707 0.050045732 0.16168481 -0.23339088 -0.11156329 0.22286487
-0.15538146 0.05948029 -0.06517036 -0.030257663 -0.09010834 0.12633494 -0.22261159 -0.066774085
-0.16810234 -0.090620235 -0.05274052 -0.32347122 0.016773073 0.043988235 0.033305362 0.066915
-0.12560391 -0.086526416 -0.1382723 -0.15532222 -0.10162064 0.1461364 -0.0029089688 -0.0959394
-0.08534791 -0.3001314 -0.04560679 -0.08008383 -0.13013066 -0.19696628 0.19194236 -0.14841597
-0.054441925 0.052204452 0.26823983 -0.21198359 -0.31440705 -0.2407663 0.056711793 -0.1571583
0.008919446 0.055844277 -0.20140333 0.08904877 -0.1438003 0.13329995 -0.034260225 0.20028262
-0.22429729 -0.06490021 0.10515393 -0.1198758 0.015753035 -0.21903521 -0.22730751 -0.069365576

blocks.3.1.bias f4 [16]
00000000: f8b7 993d 23a2 68be cbeb 96be d9e0 95bc
00000010: 99b2 8f3c aca0 76bd b320 45be 12a4 78be
00000020: 3715 c33d b01b 193e c41a 11be 6ed9 573d
00000030: 8a00 3a3e 18db 643d 405f 35be fc6d b9bc
0.075057924 -0.227181 -0.2947677 -0.018295692 0.017541217 -0.060211822 -0.19250755 -0.24281338
0.09525531 0.14951968 -0.14170367 0.05269759 0.18164268 0.055873007 -0.17712116 -0.022635452

blocks.4.1.weight f4 [16, 16, 1]
00000000: 992e 02be 684c 01be a82c 26be 5f07 293e
00000010: fef6 0d3e f96d 74bd 85aa 113c 8500 43bd
00000020: 81e9 bcbd 2d27 8e3e 5d33 203b 42c3 16bd
00000030: 5229 41be 7fed 1d3e fa6e 33bd 433b f5bd
00000040: 5db1 483e 8f2c ff3d 6379 abbe 2d2d 84bd
00000050: 60d0 843e 74d4 843e caca d3bc dbb4 a83e
00000060: 4008 113e 6483 33be 9139 273e d7c3 95bd
00000070: 23f1 4cbe d9fc 10be c329 cf3d bacb 0ebe
00000080: 1244 f3bd 728a 4abe 38b6 73bd aed1 97be
00000090: 2450 1bbe 82ed 77be b9b5 22be a684 c63c
000000a0: 7fcd 903e 5f5e 103e 3afd 13be ada4 39be
000000b0: 7717 ad3d 1ff8 973e 0bfd 463e 95f9 40be
000000c0: 38dd 50be 1829 7fbd 59cc 81be 7600 423e
000000d0: 4f2b 0e3e ce9b 123e ffc7 203e eb37 ecbd
000000e0: 9132 71be 5923 9fbe 65bb 293e db4e 4c3e
000000f0: 5622 a83d 17e6 15be b2f7 a93d 9740 72be
00000100: b70c 60bd 840f 22be 4b85 af3d cf15 73be
00000110: 2764 53be 3f42 0cbe 3fdf 293e 74db 96bc
00000120: 414f 3e3e 14e8 f83d e6a4 2abe 70e3 f03d
00000130: 95ec 7c3e ead1 0b3e 8c6c 1fbd eec2 8cbe
00000140: d9cc 6bbe bf43 31be 0861 53be 9eba eabe
00000150: c354 893a 293b 163e 62cd 8dbe ce24 bf3e
00000160: dadc f23e f2c0 1ebe cc0c 7c3e 8fac 113d
00000170: 5c49 94bd 854c f6bd c5a7 4dbe 749b 47bd
00000180: 90c8 a4be 3093 153e 4760 19bd f105 6f3e
00000190: cfeb 8c3e 43a2 e13d 56cf 00bd 1439 5c3e
000001a0: 7824 103b a239 ffbb 45f2 4ebd 0abf 043e
000001b0: a001 0ebd 29ad 95be 6fee 1f3d 381d 76be
000001c0: 0979 9a3c 35c3 06be 0d05 953e 16c3 14be
000001d0: bdae 9fbe f5ae ebbc 102a 4abe 4e95 b03d
000001e0: 5b8f 113e 78d8 393d 2a82 77be 6e93 5ebe
000001f0: f917 453d 341d a93d d61a 8b3e 22e8 c33d
00000200: 769a 263e e09e 563e 733e cdbd ddff f3bc
00000210: 3a0f c23c 198b 8bbe cf3b bd3e cf1e a8bd
00000220: bf90 80be 50c2 ab3d 1a80 54be 3b3a 5c3e
00000230: 6368 d2be e380 53be 48b9 26bd 9c89 37bc
00000240: a31a c13d e50b 2abe a498 3e3d 443a 43be
00000250: 7e89 d13d 395f efbd ee59 de3b 2863 393e
00000260: 35d9 d0bc 111b 1cbe 5dce 2abe 33a8 99bb
00000270: 41c5 1bbe 3ebf 3f3e 0b8a cb3d 03bb 4cbd
00000280: adcb c83d fbb1 8e3e 0299 4e3d d08e 503e
00000290: f305 7cbe 2dc4 80be bc5c 0a3c 1c4a 37be
000002a0: be8d 2f3e 3c65 5c3e fe28 2abe 84bc 343e
000002b0: 6589 c9bd fb78 1bbd 8243 7cbd 0b3c 7cbe
000002c0: df8d c03d 37d5 18be c3c5 a2be 01ef 4d3c
000002d0: 870f 2d3e 560b 9a3e e219 6a3e a987 7c3e
000002e0: 8b3d 4a3e b1a6 9ebe 31c5 163c cfe9 3bbd
000002f0: 7265 b3be ef3d 1abe adaf 5fbe e526 a6be
00000300: 199b 6fbe 18d5 9c3d 5887 72be a691 733e
00000310: d2f8 b73d c718 ba3d dcb4 f43d dc31 bbbd
00000320: 375c 61be 9ab7 053e abcd f9bd c3ca 613e
00000330: 30c6 70be b3c1 6a3d 00d4 0e3e 456f d4bc
00000340: 9004 1b3e 7858 50bd 9d8f 333e 1db6 833e
00000350: e48e 83be 8b07 303e b679 653e 67f5 553e
00000360: fca5 60be 96c3 4f3e da75 4a3e 8a8f d2bc
00000370: c2ea 933d 878f eebd 7085 013e 25cf 90bd
00000380: 6f25 483e 11f9 57be 6816 1abe 2803 223e
00000390: a949 8b3c b4cc 653c 9a1f 8fbe a397 d2bc
000003a0: e626 283e 266c cebd fbd2 1ebe 8356 583e
000003b0: 61d9 f8bd 892f ccbd d407 173e f36f de3c
000003c0: 1ab9 243b 0caf 783d eda1 833e 3c7b 803e
000003d0: a13e c3bb e5e2 3a3e e852 40be 8c71 cabd
000003e0: 1a2b 9a3d 0264 9f3e ba6c 35bc 14f0 8a3e
000003f0: 9674 853e 70a3 16bd c0d4 833e cb57 8a3e
-0.12713088 -0.12626803 -0.16227973 0.16506718 0.13863751 -0.05967519 0.008890753 -0.047607917
-0.09224225 0.27764264 0.0024444677 -0.036807306 -0.18863419 0.15422629 -0.043807007 -0.11974194
0.19598909 0.12459671 -0.33491048 -0.06453929 0.25940228 0.2594334 -0.025853533 0.32950482
0.14163303 -0.1753059 0.16330554 -0.07312744 -0.20013861 -0.14158954 0.10115387 -0.13944903
-0.11878218 -0.19779375 -0.05949995 -0.2965216 -0.1516729 -0.24211696 -0.15889634 0.024233174
0.2828178 0.140985 -0.14452067 -0.18129225 0.08451741 0.2968149 0.19432466 -0.18845208
-0.20396888 -0.06229505 -0.25351217 0.18945488 0.13883708 0.14317247 0.15701292 -0.11534103
-0.23554446 -0.31081656 0.16575392 0.19951956 0.08209674 -0.14638554 0.08299197 -0.23657452
-0.054699626 -0.15826231 0.085703455 -0.23738788 -0.20643674 -0.13697146 0.16589068 -0.01841519
0.1858492 0.121536404 -0.16664466 0.1176213 0.24699624 0.13654295 -0.038921878 -0.2749247
-0.23027362 -0.17311 -0.20642483 -0.45845503 0.0010477531 0.14671005 -0.27695757 0.37332767
0.4743412 -0.1550329 0.24614257 0.035564955 -0.07240555 -0.12026314 -0.2008353 -0.048732236
-0.32184267 0.14606929 -0.037445333 0.2334211 0.27523658 0.11017277 -0.03144773 0.21506149
0.0021994393 -0.007788853 -0.050524015 0.129635 -0.03466952 -0.29233673 0.039045747 -0.24034584
0.018856542 -0.13160403 0.29105416 -0.14527544 -0.31188002 -0.02876995 -0.19742608 0.086222276
0.14214842 0.045372456 -0.24170747 -0.21735927 0.048118565 0.08257523 0.27168912 0.0956576
0.1626986 0.20959044 -0.10021677 -0.029785091 0.023688901 -0.2725456 0.36959693 -0.08209001
-0.25110433 0.083866715 -0.20751992 0.21506588 -0.41095266 -0.20654635 -0.04070404 -0.011202242
0.09428909 -0.166061 0.04653229 -0.19065195 0.10231303 -0.11688084 0.006785623 0.18104231
-0.025494197 -0.152447 -0.16680284 -0.0046892404 -0.15211965 0.18725297 0.09938439 -0.049983036
0.09804473 0.27870163 0.05043889 0.20366979 -0.24611644 -0.2514967 0.008444961 -0.17899364
0.17143914 0.21522993 -0.166172 0.17650038 -0.09840659 -0.037957173 -0.061587818 -0.2463228
0.0940206 -0.14925085 -0.31791505 0.01256919 0.16900454 0.30086774 0.22861436 0.24661125
0.1975004 -0.3098655 0.0092022875 -0.045877274 -0.35038334 -0.15062688 -0.21844359 -0.3245155
-0.23399009 0.07657832 -0.23684442 0.23786029 0.089830056 0.09086757 0.11948559 -0.09140369
-0.22007833 0.1305832 -0.12197431 0.22050004 -0.23513103 0.057313632 0.13948059 -0.025931964
0.15138459 -0.05086562 0.17535253 0.2572488 -0.25694954 0.17190377 0.2240971 0.20894395
-0.21938318 0.20289454 0.1977152 -0.02570321 0.07222511 -0.116484694 0.12648559 -0.0707076
0.1954553 -0.21091105 -0.1504761 0.15821517 0.017002897 0.014025856 -0.27953798 -0.025707072
0.16421089 -0.100792214 -0.1551017 0.21126752 -0.12150837 -0.09970004 0.1474908 0.02715299
0.0025134743 0.060713813 0.25709477 0.2509402 -0.0059583937 0.18250616 -0.18781626 -0.098849386
0.07527752 0.31130987 -0.011073286 0.2713629 0.2606551 -0.03677696 0.25748253 0.27020106

blocks.4.1.bias f4 [16]
00000000: 51ac 5bbe 9733 fabd 13d0 583e 015b 95be
00000010: d0ac 14be db95 9c3d d724 49be c337 07be
00000020: 3dac 09be 34dd 0abe abde 8e3e 45dc 1a3d
00000030: 741c 6cbe 12e8 5d3d 24f3 47bd 1067 83bc
-0.21452452 -0.12216871 0.21173124 -0.29170993 -0.14519048 0.0764577 -0.1964296 -0.13204865
-0.1344461 -0.13560945 0.27904257 0.03780772 -0.23057729 0.054176398 -0.04881586 -0.016040355

blocks.5.1.weight f4 [16, 16, 1]
00000000: 24de 393e 7432 453e fa7e d9bd 0568 11be
00000010: 2e58 bc3e c836 d93d 2686 753e f7f1 41be
00000020: c8a6 50bc b189 213e 50aa 0abe 3cc6 2d3d
00000030: 665f 35bd 95bf d3bd 15fb f7bd c9b1 763e
00000040: 1afa c1be 4a2f cabe 1668 1fbe 73b6 1cbe
00000050: 49ce 59be 1b6c 82be 280c 30be a50c d53d
00000060: 66d9 473e 6dfb 613d fdaf 51be 6eba 543e
00000070: b859 3fbe 6d85 c63e 0695 07be 8b19 8dbe
00000080: d05c b2be 825d 93be 0e03 1f3e 1b86 69be
00000090: 7afd f0bb e6f7 f0bd f410 10be 44f0 553e
000000a0: f214 7d3d 0825 88be 7f4a 893e f594 a63d
000000b0: 8b52 cebd 53e9 5abd 9d44 413e 9f3a e5bb
000000c0: dd81 29be 9ce7 e1be dfb1 9cbe bed3 473e
000000d0: a1c4 acbd 85bc 253d 1b8b c6bd efce a43e
000000e0: 903b d83d f2e7 37bd 81a9 d7bb 50f2 453c
000000f0: 590d bfbd f20f cd3e 3e41 413d 3e39 46be
00000100: 8c26 37be 423e 923e fc3a 733e c119 7ebe
00000110: 47d5 c03c bd8b 9f3e 49b2 403c 4b0f 9a3e
00000120: 76ca 6e3e ca58 a7bb c211 52be cd12 1abe
00000130: 0711 a4be abcb fdbd 255f 163e 27e4 953e
00000140: aaf8 d53d 74cb cebc 5f1f 0a3d 2a62 8dbe
00000150: 6fc7 413d 7a4a 18bc 3e41 df3d 37b9 093e
00000160: 9377 513e d9a9 2abc aa34 f9bd 1f3b 163e
00000170: 9256 b5be ae39 103e 2dbf 5dbe e9cb e83d
00000180: 8f14 75bd 6b8f 54be aeb8 93bd b026 ad3c
00000190: 56ff 0dbe edd0 8abe da80 563e 8c17 183e
000001a0: a6e5 ef3d 8281 c1bb f96d 71be 1756 3bbe
000001b0: 8fdd ad3d 380a c43d 5bef 793e 2991 09be
000001c0: d23b 173e 3c9b 6a3d ff80 06be dfb8 14be
000001d0: 6100 4dbe ad9f 01b9 da53 de3a 7359 36bd
000001e0: af4e 803e be9a 2dbe a359 edbd 9115 343d
000001f0: 9991 57be 99a0 143e 4996 453c e222 0a3e
00000200: 508a 1ebe 3859 423e 890d 66be 445d d03c
00000210: 67b7 c5bd 2a49 c73d be7a 7bbe 629a aebe
00000220: 0848 613e c9c8 5fbd 108e 4dbe 3373 6cbe
00000230: a2b1 883e 07e7 413d 7160 3ebc 7aca 7fbe
00000240: 27f2 40bc e3f5 693d 9910 a73d 28ca bbbd
00000250: 913b 8f3d a48f 61be d0bd debd e71f 893e
00000260: 07e9 2bbe 51aa ddbd 6501 933e 61e5 013d
00000270: e3e9 403d d1d6 8cbc 269e 4e3d 4b7a 0c3e
00000280: d595 4c3e 1ffd 363d 1ae0 bf3d 1809 463e
00000290: e781 783e b92d 73be 1586 f0bc 8603 96bd
000002a0: 2c12 cb3d acb1 c03d f5dd 21be ba0e 89be
000002b0: 11f9 883e 6bd5 aa3e 82de 083e 87ed 443e
000002c0: 492f 8bbe a544 0cbe 680f 85be e50d 4b3e
000002d0: b67b ecbd 6354 db3d 09dc 643e 72f1 ad3e
000002e0: b5d1 7c3d 1d18 503e c681 c23d 8ffe 503e
000002f0: 4f75 30be dbca b23e 044c 763d bc6f 15be
00000300: cc6c debd 1958 c7bd fc8d 15be a6ae 383e
00000310: dd97 8cbe e12a a0bd 77b9 1bbe aa83 063e
00000320: aaef 5d3e 16c7 333e fb2e 8bbe 9f78 41be
00000330: 6c78 1dbe bbff 58be ff80 8bbe 57dc 88be
00000340: 4a4b 9ebe dac1 b43d 0f34 12be 8319 da3d
00000350: 4106 86bd 93a4 59be ea3e 45be 45f7 2bbe
00000360: 3fa3 26be 38c9 2f3e 95cb 573d a824 803d
00000370: acc8 7fbe dd12 4dbd 4169 9a3d 3831 17ba
00000380: 7e11 df3d 532e 14be 8fdf f6bd 9795 4b3e
00000390: aa84 953b c96c 443e b749 c2bd 2a07 6ebc
000003a0: d18a 1abe e768 09be 5a4f 37be b8c4 b3bc
000003b0: e40e db3d 5d6d 5d3e 6d22 38be dc65 023e
000003c0: bb32 673e 79cb 5a3e 3633 883d 4c94 1e3d
000003d0: 3b98 d53d 2a2c 50bd ada1 393e 7808 24be
000003e0: 2717 cfbd d930 b33d 3153 76be 097c 7cbe
000003f0: 0b1d d93d d568 7e3d ca46 993d 0dbd 5e3d
0.18151146 0.19257528 -0.10619922 -0.14199837 0.36786026 0.10606152 0.23976955 -0.18939959
-0.012735076 0.15775181 -0.13541532 0.04242538 -0.044280432 -0.10339276 -0.12108437 0.24091257
-0.37886125 -0.39489204 -0.1556705 -0.15303974 -0.21270098 -0.25473103 -0.17192137 0.104028024
0.19516525 0.05517142 -0.2047729 0.20774242 -0.18686569 0.3877367 -0.13240442 -0.2755855
-0.34836435 -0.28782278 0.15528509 -0.22805063 -0.0073544355 -0.11766033 -0.14068967 0.20892435
0.061787553 -0.26590753 0.26814649 0.0813388 -0.100743376 -0.05344517 0.1887383 -0.0069955136
-0.16553445 -0.44122016 -0.30604455 0.19514367 -0.084359415 0.04046299 -0.09694501 0.32189128
0.10558236 -0.044898935 -0.0065814857 0.012081698 -0.09328718 0.40051228 0.04718136 -0.19357774
-0.17885798 0.28563124 0.2375297 -0.24814512 0.023539199 0.311613 0.0117612565 0.30089793
0.2331942 -0.00510702 -0.20514587 -0.15046234 -0.3204424 -0.12392362 0.14684732 0.2927563
0.104478195 -0.025243498 0.033721324 -0.27613956 0.047309335 -0.0092951 0.10901116 0.1344956
0.2045577 -0.010416471 -0.12168248 0.1467099 -0.3541761 0.14084503 -0.21654959 0.11367018
-0.05983406 -0.20757835 -0.07212959 0.021136612 -0.13866934 -0.27112523 0.2094759 0.14852732
0.11713724 -0.005905331 -0.23577107 -0.1829456 0.084895246 0.095722616 0.24407713 -0.1343428
0.14768913 0.05727695 -0.13135146 -0.14523648 -0.20019676 -0.00012361883 0.0016962246 -0.0445189
0.2506003 -0.1695356 -0.115893625 0.04396588 -0.21051635 0.14514388 0.012059757 0.13489869
-0.1548245 0.18979347 -0.22466101 0.025435098 -0.09654122 0.09730752 -0.24558541 -0.3410216
0.22000134 -0.054634843 -0.20073724 -0.2309082 0.26698023 0.047339465 -0.011619673 -0.24979582
-0.011776484 0.05711926 0.081574626 -0.091694176 0.06993783 -0.22027451 -0.108760476 0.26782152
-0.16788112 -0.10823501 0.28712 0.031712893 0.04709805 -0.017192276 0.05044379 0.13718526
0.19979031 0.04467499 0.09368916 0.19339406 0.24268304 -0.2374791 -0.02936081 -0.07324891
0.099155754 0.09408888 -0.15807326 -0.26769048 0.26752523 0.3336595 0.1336613 0.19231234
-0.27184513 -0.13698061 -0.25988317 0.19829519 -0.115470335 0.10709455 0.22349562 0.3397327
0.06172343 0.20321698 0.094974086 0.20409606 -0.1723225 0.3492039 0.060131088 -0.14593405
-0.10860595 -0.097336 -0.14604944 0.18035373 -0.27459612 -0.078206785 -0.15207468 0.13136163
0.21673456 0.17556414 -0.2718428 -0.1889367 -0.15377969 -0.21191303 -0.27246854 -0.26730606
-0.30916816 0.08826037 -0.14277671 0.10649397 -0.065441616 -0.21254186 -0.19262281 -0.16793545
-0.16273211 0.17166603 0.052684385 0.062569916 -0.24978894 -0.050066818 0.07539607 -0.0005767527
0.10892008 -0.14470796 -0.12054359 0.19881283 0.004562934 0.19182123 -0.09486716 -0.014528075
-0.15092017 -0.13418923 -0.17901364 -0.021944389 0.106961995 0.2162375 -0.17981882 0.12734169
0.22577946 0.21366681 0.06650393 0.038715646 0.10429426 -0.050823368 0.1812808 -0.16018856
-0.10111838 0.08749551 -0.24055173 -0.2465669 0.10601243 0.062111694 0.07484205 0.05437951

blocks.5.1.bias f4 [16]
00000000: ca98 a23c 65e1 8cbe c980 1bbe bec2 093e
00000010: 6645 273e 1d36 713d cee9 a13d f95e 053e
00000020: 29f2 623e 2d14 023e 1df6 c03d a71e 34be
00000030: 5e82 143e 4e48 703d ff34 20be afe6 913e
0.019848246 -0.27515712 -0.15185846 0.13453194 0.16335067 0.058889497 0.07905923 0.1302451
0.2216269 0.12703009 0.094219424 -0.17589818 0.14502856 0.058662705 -0.15645216 0.2849631

project.0.weight f4 [8, 16, 1]
00000000: 4b21 203d ee09 30be c6d3 4b3d 9523 813d
00000010: eddc 75be ccdb 88bd 9641 2cbe b9c3 943e
00000020: f617 893e 91be 3b3e 276c e43c 8402 863e
00000030: 621e f93b 0107 1dbe b623 c43c 52a8 f1bd
00000040: 400c d0bd 5160 50be 9ba2 b03d e636 443e
00000050: 8b0b 1e3e 3501 953e 2070 9fbd bb7d a0bd
00000060: 5047 183e 2911 213e db3a 593e 828f 60be
00000070: 4519 6e3e 7649 8cbc 1694 1ebe 0c98 833d
00000080: eacd 673c dbd1 03be c1ce e03d 255b 6d3d
00000090: 57a2 f23d 8130 a1be 463f 76be bc42 1f3e
000000a0: 7e27 3f3e c8af 153e 9132 2dbe 2036 2e3e
000000b0: d1de 47be d79b 0cbd 8003 2cbe 64f3 843e
000000c0: 509b 74bd 042e 013d e2b4 063e c2d7 8bbc
000000d0: 41a2 1dbe f581 d8bd 51ef 163e 37ed 90be
000000e0: b9cd 10bd f488 923d 1e69 54bd cd6e 2ebd
000000f0: b896 69bc 256d 5abe 84a9 8cbd 1f63 71bd
00000100: 4ac6 4c3e 3b69 25be a78e c3be 2106 aabe
00000110: 3f24 00bf da67 cbbd 5be2 f6be 464a b1be
00000120: 0e19 493e 6200 30ba af4a 6fbd d00f 273d
00000130: ae5b 9a3e 8418 ddbd 2d0c c8bc a632 0dbd
00000140: 903d 063e 349d 38be d3af 58be a53b a8be
00000150: ffd9 9dbd 3f97 27be f043 0e3d 2a03 c7bd
00000160: bbb2 67bc 2a86 17be 5d8d a83e 3e6e a0be
00000170: 91ee 7f3a 8525 af3d f101 0a3e 0aa7 763e
00000180: c1da 12be 8688 de3d db5f 063e d569 5cbe
00000190: e964 17bd aaf0 b3bd 538e d9bd 4c26 2e3e
000001a0: 8642 b4bd c933 723c 791e 273e ea42 66be
000001b0: 105e 373e b65b c03d 155a f6bd db37 e13d
000001c0: eae9 653e 2211 0d3e e685 86bd 3dcb 493d
000001d0: e42b 6ebd e08c 20be 4129 9abd 23e3 b7bd
000001e0: 41cf 553b 121f 94bc dc99 133e 89f2 49bd
000001f0: bba4 5abe e264 b1bd 97ff e7bd 1ebc 513e
0.03909425 -0.17191288 0.04976251 0.06305615 -0.24010058 -0.06682548 -0.16821894 0.29055575
0.26776093 0.18334414 0.027883602 0.26173794 0.007602499 -0.15334703 0.02394281 -0.11799683
-0.101585865 -0.20349242 0.086247645 0.19161567 0.15434091 0.29102483 -0.07785058 -0.07836481
0.14870954 0.15729202 0.21213858 -0.21929744 0.23251827 -0.017124873 -0.15486178 0.06425485
0.014148215 -0.12873022 0.10976935 0.05794825 0.1184737 -0.31482318 -0.24047574 0.15552801
0.18667409 0.14617836 -0.16913821 0.17012835 -0.19518591 -0.034328308 -0.1679821 0.25966942
-0.05971843 0.031538025 0.13154939 -0.017070655 -0.15393926 -0.10571662 0.1473973 -0.2830598
-0.035352442 0.07155028 -0.05185806 -0.042586137 -0.014257126 -0.21330698 -0.0686827 -0.05893242
0.19997516 -0.16153423 -0.38194773 -0.332078 -0.5005531 -0.099319175 -0.4821957 -0.3462698
0.19638464 -0.0006713924 -0.058420833 0.040786564 0.3014807 -0.107956916 -0.024419868 -0.03447213
0.13109422 -0.18028718 -0.21160822 -0.32858005 -0.07707595 -0.1636629 0.03473276 -0.097174
-0.014141734 -0.14797273 0.32920352 -0.31334108 0.0009763027 0.08552078 0.13477303 0.24087158
-0.1434126 0.108658835 0.13122503 -0.21524747 -0.03696147 -0.087861374 -0.10622849 0.17006797
-0.08801751 0.014782854 0.16320218 -0.22486463 0.17906976 0.093924925 -0.120289005 0.10996982
0.22452512 0.13776067 -0.06568508 0.04926609 -0.058147326 -0.1567874 -0.075274 -0.0897887
0.0032624754 -0.018081222 0.14414161 -0.049303565 -0.21351902 -0.0866182 -0.11328047 0.20481917

project.0.bias f4 [8]
00000000: 3e52 bebd e342 303e 8930 3a3d 6aee 013c
00000010: 6344 1ebe dc5d 03be 9625 5fbe 9aeb 923d
-0.0929303 0.17213015 0.045456443 0.0079303775 -0.15455775 -0.12828773 -0.21791682 0.07173844

project.3.weight f4 [3, 8, 1]
00000000: daa8 e23d d2da 5b3e 546b 9abe 64c3 f73d
00000010: 188c ce3e c064 86bc 062b 3b3e 93cb a8be
00000020: 4dc4 91be f058 983e 3dac b7be 173b b43d
00000030: 9dc0 c5be c4d0 fcbd 607d b73e 1542 0e3e
00000040: e4d2 e4bd b73e 4ebd 8a44 98be c3f6 5bbe
00000050: d734 76bd 939f ec3e f1dd 1dbe c123 56be
0.11067362 0.21470192 -0.3016001 0.12097815 0.40341258 -0.016405463 0.18278131 -0.32967815
-0.28470078 0.29755354 -0.35873595 0.08800333 -0.38623515 -0.123445064 0.3583784 0.13892396
-0.11173037 -0.05035278 -0.2973979 -0.21480851 -0.060108986 0.46215495 -0.15416695 -0.20912077

project.3.bias f4 [3]
00000000: 25e7 3fbe 1f35 3ebe ec2f 603e
-0.18740518 -0.18574952 0.2189328
