checkpoints/dong_fno_forward.pth (torch, 114378 bytes, 18 tensors)

lift.weight f4 [16, 4, 1]
00000000: 909f d43e 6f1a 09be 4a0f 8bbb ebad d93e
00000010: cebc 9cbe ee2c 54be 344d 183e 1104 6bbe
00000020: 3b1b 2cbd 0239 e03e 8f0f 0bbd a2bd 7abe
00000030: 0c8a ecbe ac24 acbe bded 68be 6408 d73d
00000040: f85d 033e 64ad 1c3e b87e c1be 4937 e2be
00000050: ae3d e23e 3460 4f3e 0701 f23e 3bf5 01be
00000060: 66eb aabc 93e6 f4be 21e8 bebe e480 31be
00000070: f59a f43d 43b9 c2be 1755 c53e e522 8bbe
00000080: 987d fbbc c5c8 cdbe 9e8a cc3c 07ff e6be
00000090: c5ca 603e a808 76be 46bb a9be 0495 2a3d
000000a0: fe50 243e d8f5 a3bd d6ef bebc c21d b63e
000000b0: d18c 88bd 2d2f 913e 095e b5be 8d62 a53e
000000c0: 9932 d53e aceb 533d 3b49 58be 324a a13e
000000d0: 3995 1ebd 9dc8 7c3e 19a7 703d 4f2c 483d
000000e0: f864 5e3d 8156 cfbb c0b9 79be 0add ce3e
000000f0: fafb d0be 1cb4 643e 84b9 0a3d 944e d5bd
0.41527987 -0.1338899 -0.004243766 0.425155 -0.30612797 -0.20720264 0.148732 -0.2295077
-0.042018156 0.43793494 -0.033950385 -0.24486402 -0.4619907 -0.33621728 -0.2274694 0.10499647
0.12828815 0.15300518 -0.3779199 -0.44182804 0.44187683 0.20251542 0.4726641 -0.12691204
-0.0208642 -0.47832164 -0.37286475 -0.17334324 0.11943618 -0.38031968 0.3854148 -0.2717506
-0.030699536 -0.40192237 0.024968442 -0.45116445 0.2195235 -0.2402674 -0.3315069 0.04164602
0.16046521 -0.08005875 -0.023307722 0.35569578 -0.066674836 0.28356305 -0.35423306 0.3230175
0.41640165 0.051738426 -0.21121685 0.3150192 -0.03871653 0.24685903 0.058753107 0.04887038
0.05429551 -0.0063274507 -0.24387264 0.40403014 -0.40817243 0.22334331 0.033868328 -0.10415378

lift.bias f4 [16]
00000000: acaa d53e dfc9 86be 606a aebe 5690 65bd
00000010: 7540 9d3e 4cd1 4b3e bc3b d6bc 90bc 9a3e
00000020: d8eb 57be d117 9abb 2560 bd3e 98e3 a23d
00000030: bf9b 9f3e 5b72 8c3e 32b9 2cbd 5786 083f
0.41731775 -0.2632589 -0.34065533 -0.056045853 0.3071324 0.19904059 -0.02615153 0.30221987
-0.21086061 -0.004702546 0.36987415 0.07953566 0.31173512 0.27430996 -0.042168804 0.53329986

blocks.0.1.weight f4 [16, 16, 1]
00000000: ef4e 94bd dc81 38be 1744 323e 459a 663d
00000010: b921 84be 4604 69be 8222 57be f1c2 a0bd
00000020: f402 6ebe 0afd 5c3e d2f2 6bbe e5f0 61be
00000030: 7753 49be 2764 5c3e 688f 003e db2c d63d
00000040: 1064 ed3d 79de 2ebd cdb9 063e b35f 453e
00000050: db2f d5bd 7b16 2c3e 1748 11bc 7e24 b7bd
00000060: ab80 35be d531 8c3e 61b5 be3a 3333 183e
00000070: 8afb 483e 6dd5 05be aace abbd 817b 61be
00000080: 585e 843e cf12 9f3d 5261 67be 5380 f23b
00000090: 369f 7a3e 98fd 1c3e c1eb d6bd 3159 97bd
000000a0: 558d b43d 1956 8dbd 8d7b 923c 99ef 813e
000000b0: ca08 bdbd c561 fdbd c2d1 463e e8d6 4abb
000000c0: e0fd a23c d817 63be bce3 873d 5baf 64be
000000d0: da07 a9bd baf0 2b3e deb5 cabd daa6 8cbe
000000e0: 6fef 393e 0a31 0f3e bf5b 3dbc 9364 e0bd
000000f0: d4fa 483e c28b 76be 84e5 febc c2e3 ac3c
00000100: f7eb fdbc 2f35 473d d96d 25be 7d21 f639
00000110: 2e05 c63d 9ca1 c23d db72 253e 658f e23d
00000120: dcd1 71bd d060 ee3d cb4e 953c fa83 41bd
00000130: afb5 8dbd 5e6c 77be 11b5 093e 4873 8a3c
00000140: c068 233e 8ccc 07be 5a35 2d3e b6c2 0f3e
00000150: ceb4 ea3d ca69 e4bc 500b a6bc 72a6 4cbd
00000160: e3a0 1abe 450e 423e ea9b 87b9 d3d4 4cbe
00000170: 9aad 823e 19ce cabd 51cf 49be f926 0e3d
00000180: 67fa 063d 6fe8 293e 4a2f 913e 350c 8d3e
00000190: c0d0 ba3d 43ff 7d3e 459e 41be 5daf 6d3e
000001a0: f456 323d 2633 d43d 23d9 6e3e 4099 1ebd
000001b0: 4a7d 0ebe eac8 be3b b077 84be 196f 823e
000001c0: 8f65 833c 945a 283b 4d07 d83d 3f7d 84bc
000001d0: 4bbb 2d3e c3e0 1c3e e0eb 36be 0c99 64be
000001e0: 7fd7 65be 9064 923d 35c7 a43d d063 85bd
000001f0: 5bea 0a3e 48d1 00be 27da 75bd 2882 16be
00000200: 499f 8bbe 4d71 693d c5b0 76be 31cb 0bbe
00000210: d06e 3f3d 8e90 423e 830a 853e d3a0 6e3e
00000220: 2243 c63d bb51 95be f676 863e fefc 0cbe
00000230: f518 593d e97c 623c 796f 3bbb 1db3 a63c
00000240: a85f 3bbe 3d64 85be 14db 113d fc09 48be
00000250: 1530 113e 068b 06be 72ef 233e 2077 d23d
00000260: 3aff 953d 5cbf 9a3d c5d2 ddbc f861 6bbc
00000270: 1d4a 343e 27fb 853e 2146 943b 5dfc c0bd
00000280: 95f9 d13d 9d2c e93d e808 31be 0d40 2ebe
00000290: 7ba6 fbba c83f 283c e7aa 7abe a718 1dbe
000002a0: 8a2e 69be 247e 443e 1cf3 6abe 00ff 0a3d
000002b0: 9ba0 1bbe c71d 26be efb8 02be f583 e33c
000002c0: 8700 ff3d 3752 033e 65fe 853e 3a73 313e
000002d0: c284 2a3e a888 5c3e 1867 2a3d 3578 abbe
000002e0: d82f 523e 9603 3bbd e4f7 3ebe b880 73be
000002f0: ffb9 55be 8a75 873d 708a 553e cc92 fcbd
00000300: 79fe 013e e390 6abe 6bfd 82be a325 d63d
00000310: 2455 d53d 0937 183c f020 663d 49d4 023e
00000320: cdf8 d83d c413 4abe 335e ccbc 0556 7bbe
00000330: 592e b4bd ae1c e8bc 5a62 643e 59dd 3d3e
00000340: a77c 47be a485 03be 0d38 443e 69eb a53d
00000350: 6799 2c3e d008 12be 515b fbbd a0c3 523d
00000360: 3441 68bd 7740 67be 2d41 753e 40d3 9fbc
00000370: ae17 353e 68fe ae3d 0fd9 5c3e dfc1 50be
00000380: 12f6 383e d0b7 2a3e e898 743e 85cc 593e
00000390: 17cb b23e 65b2 7b3e 56e3 a1bd bc7b 2ebe
000003a0: d103 e5bc 91f2 32be 71ff eb3d a763 1b3e
000003b0: 8794 91be b6f1 a1bc 0bcb 97be 1f6f fc3c
000003c0: 606b f33d cb84 10be 3ccd 46be b497 2a3e
000003d0: 69f9 3dbe e194 093e a2ba 6c3d 2cd0 13be
000003e0: 7a2a 8c3e eb7b d6bd d55d 613d 415e 253e
000003f0: 1a18 30be c327 0f3d 2306 4e3e 8b43 063e
-0.07241618 -0.18018287 0.17408787 0.056299467 -0.25806978 -0.22755536 -0.21009257 -0.07849682
-0.23243314 0.21580902 -0.23041847 -0.2206455 -0.19660746 0.2152258 0.12554705 0.10457774
0.11591351 -0.042692635 0.13156815 0.19274788 -0.10409518 0.1680545 -0.008867285 -0.08942507
-0.17724864 0.2738177 0.0014549905 0.14863281 0.19627205 -0.13069697 -0.083890274 -0.22019769
0.2585323 0.07767259 -0.22595719 0.0074005513 0.24474797 0.15331113 -0.10494185 -0.07390059
0.088160194 -0.069011874 0.01788118 0.2537811 -0.09230192 -0.12372164 0.19415954 -0.0030950848
0.019896448 -0.22177064 0.06635234 -0.22332518 -0.08253451 0.16791049 -0.0989797 -0.27471048
0.18157743 0.1398355 -0.0115575185 -0.10956683 0.19626933 -0.24076751 -0.031115301 0.021104697
-0.030996306 0.048634704 -0.16155185 0.00046945727 0.09668957 0.09503481 0.16157095 0.110625066
-0.059038028 0.11639559 0.018226048 -0.047245003 -0.06919419 -0.24162433 0.13447978 0.016900674
0.15957928 -0.13261622 0.16914883 0.1403912 0.11460267 -0.027882475 -0.020269066 -0.049963422
-0.15100436 0.18950756 -0.00025865372 -0.20003061 0.25523072 -0.09902591 -0.19707991 0.034705136
0.032953646 0.16592573 0.2835639 0.27548376 0.09121847 0.24804406 -0.18908031 0.23211427
0.043539956 0.10361318 0.23325019 -0.03872037 -0.13914981 0.0058222907 -0.25872564 0.25475386
0.016039638 0.0025688754 0.105482675 -0.016173003 0.16965978 0.15320115 -0.17863417 -0.22324008
-0.22445486 0.07148087 0.08045808 -0.06513178 0.13565962 -0.12579834 -0.0600225 -0.14698088
-0.27269962 0.056992818 -0.2409087 -0.1365173 0.04673654 0.19000456 0.25984582 0.23303537
0.09680773 -0.29163918 0.26262635 -0.13768384 0.053002317 0.013823726 -0.0028600378 0.02034908
-0.18298209 -0.26053038 0.03560932 -0.19535059 0.14178498 -0.1313897 0.1600931 0.102766275
0.07324071 0.0755603 -0.027078042 -0.014366619 0.17606397 0.26168177 0.0045249616 -0.094231345
0.10252682 0.113854624 -0.17288554 -0.17016621 -0.0019199395 0.010269113 -0.24479257 -0.15341435
-0.2277166 0.19188744 -0.22944301 0.033934593 -0.15197985 -0.16222297 -0.12765859 0.027772883
0.124512725 0.12824331 0.2617065 0.17329112 0.16652206 0.21536505 0.041602224 -0.33490148
0.20526063 -0.045657717 -0.1864925 -0.23779571 -0.20871733 0.06614216 0.20853591 -0.12332687
0.1269473 -0.22906832 -0.25583968 0.104563974 0.1041663 0.009290465 0.056183755 0.12776293
0.1059433 -0.19734102 -0.024947261 -0.24544533 -0.087979026 -0.028333988 0.22303143 0.18541469
-0.19481145 -0.12843949 0.19162007 0.081015415 0.16855393 -0.14261174 -0.122732766 0.051456094
-0.056702808 -0.22583185 0.23950644 -0.019509912 0.17684814 0.08544618 0.21567176 -0.20386456
0.18062618 0.16671681 0.23886454 0.21269424 0.3492057 0.24579771 -0.07904689 -0.17039388
-0.027955921 -0.17475344 0.11523331 0.15174733 -0.2843363 -0.019768577 -0.29647097 0.030814705
0.118857145 -0.14113156 -0.19414228 0.16659433 -0.18552174 0.13435699 0.057795174 -0.1443488
0.27376157 -0.10472854 0.055021126 0.16149236 -0.17196694 0.03495003 0.20119528 0.13111703

blocks.0.1.bias f4 [16]
00000000: 5514 04be 401a 9cbc ff60 8fbc 8fe6 f33d
00000010: 6c3f ee3d 1d11 3bbd 8c21 273e d3d9 223e
00000020: 2911 2a3d 0eb3 c4bd 648c f53d 7e97 10bc
00000030: eba7 12be 170e df3a 31e5 50be 64e5 1cbc
-0.12898381 -0.019055486 -0.017502306 0.1190921 0.116331905 -0.045670617 0.16321391 0.15903406
0.04152027 -0.096044645 0.11989668 -0.008825181 -0.14321868 0.0017017749 -0.2039993 -0.009576175

blocks.1.1.weight f4 [16, 16, 1]
00000000: d2b7 0fbe 8d45 3a3e 2600 debd 9932 d13d
00000010: ea96 943e 8f9e e33d 2695 9f3e 4d4f 4b3e
00000020: 1c6d 4abe 8005 77be 9a1e 14bb abce 0cbe
00000030: 1fe9 0c3d 9d3b 3d3e 5f9f 3d3e 0978 e3bd
00000040: cdef f93c f2cb 243e 4e18 87bc f1ad 7b3e
00000050: ebe7 a1bd 6b8f 433e 6db5 123e ba2f 023d
00000060: efaf 2e3e 1a73 35bd e9d0 b13b 5f6b 4d3e
00000070: 74c6 983d 333a 8f3e f26d 02be 84cd 26be
00000080: c6b2 053e 9d15 8fbe 1b05 43be febc 07be
00000090: 2408 8abe 653a 38be b6c1 89be e1c2 f2bd
000000a0: 1f41 93bd 40e6 85be 0498 863e 9b2a 8b3d
000000b0: 4152 3cbe 1ed6 353e 0ae6 7d3e 1562 22be
000000c0: 26d9 81be 2288 1f3e aa1e 05be e02a 52be
000000d0: 0a9f 3c3e 562e ec3c d790 4b3e 11f9 813e
000000e0: 0535 593d fd11 62be adac 14be a9ff f03b
000000f0: 4b11 8ebd bc6e 6ebe b5d7 42be 5c7f 613e
00000100: 0130 84be 509d aebd 993e 083e 3c74 6d3e
00000110: efca 92be 928f 19bc 4741 103e 7e3d 873d
00000120: fbbc 5abd f777 423c f878 97bc 8e59 433e
00000130: 42fe 57be 0e94 8cbc ee8e 42bd 06c2 4dbe
00000140: a9d7 833e 54b7 7f3d 698d c43d 2a2e e73c
00000150: 12fd a6bc afa9 07be 258d d13c 687b 56be
00000160: 18cc 3e3e 37ca 0ebe 3c87 c6bd 316d 6d3e
00000170: 7245 e23d c16c 4d3e 2043 86bd f543 eb3d
00000180: 73a6 2a3d f0ad 45be 6045 3e3e 728e f53d
00000190: 2a52 b3bd f084 2c3e 35cb dcbd 75ea 6b3e
000001a0: c675 1c3e aa78 88be ff11 10be 84d4 1cbe
000001b0: 33d0 bb3b c9b0 283e ec6c 033e 3411 94bd
000001c0: 1799 4cbe 266e 4e3c d085 b5bc db5e fcbd
000001d0: e6cd 53bd 8d35 edbd 732c 763e 12a7 483d
000001e0: 9175 163e 86ca 3cbe b11f 4ebe 54d5 e13b
000001f0: 3831 2a3e 09db 0bbe f823 81be 2648 37be
00000200: 620b 413e e271 913e 4144 1d3e bdb3 1cbe
00000210: d1a1 2d3e 42a4 713c 5c38 01be bdc3 023d
00000220: 2555 793e 9f70 c73d c0f1 22be da07 ad3c
00000230: abf8 973d ab02 d3bc 5f49 4c3d 03cb 863e
00000240: f9d9 fa3d b5d3 4c3e 5272 8c3e ab66 0c3e
00000250: b55f 033d 34f6 eebd 174c c83c 4e9b 833c
00000260: 1d17 313e edb5 e43d 0f10 78be 1e47 1ebe
00000270: 379b 2c3d 7032 633e db65 4abd e638 5d3e
00000280: 3084 f1bd 4bd5 2cbe c96d 65bd 7c16 093e
00000290: eab9 2f3e 6ce3 34be b0f1 e4bd d26f 6eba
000002a0: 99c2 2dbe 9b16 86be 96d1 5e3e e11e 5a3e
000002b0: 1097 9f3d 966e 85bd e02e 71be 3bf7 23be
000002c0: 5240 39be d65e a63d 460c 313e d0cb 46be
000002d0: cfbd ccbd 9b5f e4bd 14a7 1d3e 022d 3c3d
000002e0: 2a5c 98bd 19af 083d d4a0 813e afef da3c
000002f0: 09cc 82be ee3f 5f3e e5f9 283e f83f 4bbd
00000300: 9282 d0bd a695 533e 94ba 263e 1d7a 81bd
00000310: d716 32be 7c36 13be 5ae2 193e 2c2d fe3d
00000320: 3569 143e 578c 0cbe cf4c 1dbe a29c 013d
00000330: 2c72 41be 59cc 1abe 8e22 5ebe 9ac6 8abb
00000340: 973c 75bd 3d8f 763e be0f 113e b36d 003e
00000350: 221e 5bbe 46ff 1a3d 8215 a63c 6b2f c2bd
00000360: ab62 16be 944d 7dbe e7b8 a73c 51bf a83d
00000370: 0e42 4dbd f404 4dbe dcd5 a43c 1378 163e
00000380: 8482 5e3e 8561 573e e1ad 47be 9871 07be
00000390: ed48 efbd 3058 f83d ba5a b73d 911e 10be
000003a0: 9066 c73d 21e8 8e3d 8373 2b3e ca5a 903e
000003b0: 4a4e 59be 4785 803e 4e94 983d 90e5 08be
000003c0: dc9f c6bd 4f02 3bbd 1ab2 a5bd 57fb 2a3e
000003d0: e14e 803e 70cc b7bc c06b 4e3e 85d8 37be
000003e0: 20ce 08be 0481 31be 6285 30be d164 7abe
000003f0: 0810 3f3c 6253 86be 7cf6 27be 71e9 50be
-0.14034966 0.18190594 -0.10839872 0.10214729 0.29021388 0.11114227 0.3116848 0.1985447
-0.19768184 -0.24123192 -0.0022601248 -0.13750713 0.03440201 0.18479772 0.18517826 -0.11106879
0.030509854 0.16093424 -0.016491082 0.24578072 -0.07905563 0.19097678 0.14327021 0.031783797
0.17059301 -0.044299223 0.0054265154 0.2006049 0.07459727 0.2797409 -0.12737253 -0.16289335
0.13056478 -0.27946177 -0.19044916 -0.13255689 -0.26959336 -0.17991026 -0.26905602 -0.118535765
-0.07190155 -0.2615223 0.26287854 0.06795236 -0.18390752 0.1775746 0.24794784 -0.15857728
-0.25360984 0.15579274 -0.12999979 -0.20524168 0.18420044 0.028830688 0.19879471 0.25385335
0.05302908 -0.22077174 -0.14518996 0.007354696 -0.06936892 -0.2328443 -0.19027598 0.2202124
-0.25817874 -0.08526099 0.13305129 0.23188871 -0.2867045 -0.009372609 0.14087401 0.066035256
-0.053402882 0.011869422 -0.0184903 0.19077131 -0.21093085 -0.017160442 -0.04749959 -0.20093545
0.25750473 0.062430695 0.09597284 0.028220255 -0.020384345 -0.13248323 0.025579998 -0.20945513
0.18632543 -0.13944326 -0.09693763 0.23186184 0.11048402 0.20061018 -0.06555772 0.11487571
0.041662645 -0.19304633 0.18581152 0.1199006 -0.08755906 0.16847587 -0.10780946 0.23038657
0.15279302 -0.2665456 -0.14069365 -0.15315443 0.0057316064 0.16473688 0.12834519 -0.07229844
-0.19980274 0.012599504 -0.022158533 -0.1232278 -0.051710032 -0.115824796 0.24040394 0.048987456
0.14693286 -0.18436632 -0.20129277 0.006891886 0.16620338 -0.13657774 -0.25222754 -0.17898616
0.18851998 0.28407198 0.15358068 -0.1530294 0.1695626 0.014748635 -0.12619156 0.03192495
0.24348886 0.09738278 -0.15912533 0.021121908 0.074204765 -0.025758108 0.04987466 0.2632676
0.12248606 0.20002635 0.2743097 0.1371104 0.032073695 -0.11668053 0.024450345 0.016065266
0.17293973 0.11167512 -0.24224876 -0.15456817 0.042140212 0.22187209 -0.049413543 0.21603736
-0.11792791 -0.1687824 -0.056012902 0.13387483 0.17160764 -0.1766488 -0.11178911 -0.0009095642
-0.16968764 -0.26189122 0.21759638 0.21300842 0.07792485 -0.06515233 -0.23553038 -0.1601228
-0.18090943 0.08123557 0.17289838 -0.19413686 -0.099971406 -0.11151048 0.15395766 0.04594136
-0.07439454 0.03337011 0.25318015 0.026725618 -0.2554629 0.21801731 0.16501577 -0.049621552
-0.10181154 0.20662555 0.16282111 -0.063221194 -0.17391525 -0.14376253 0.15027753 0.124109596
0.14493258 -0.1372541 -0.15361331 0.031643517 -0.1889121 -0.15117015 -0.21692869 -0.004235101
-0.059872236 0.24078079 0.14166161 0.12541847 -0.21398214 0.037841104 0.020273928 -0.094817005
-0.14686076 -0.24736625 0.02047391 0.08239616 -0.050111823 -0.2002142 0.020121507 0.14694242
0.21729475 0.21033294 -0.19499923 -0.13226926 -0.11683831 0.121261954 0.089528516 -0.1407416
0.09736359 0.06977869 0.16743283 0.28194267 -0.21221271 0.25101683 0.07450162 -0.13368821
-0.096984595 -0.0456565 -0.08090611 0.16697441 0.2506018 -0.02243635 0.20158291 -0.1795369
-0.1335988 -0.17334372 -0.17238382 -0.24452521 0.011661537 -0.2623549 -0.1640262 -0.20401551

blocks.1.1.bias f4 [16]
00000000: e671 7b3e afa5 88be b76a 91be 2f00 2dbe
00000010: ec1e 67be e7c1 aabc 3e20 d1bd 04b0 f23d
00000020: 486f e1bd 2d07 24be 63d7 d23d 9a6b 653e
00000030: 9da5 7abd 6aaa 023e 0cc3 12be 1c2e 28be
0.24555168 -0.26688907 -0.2840173 -0.16894601 -0.2257039 -0.020844413 -0.10211228 0.118499786
-0.11007553 -0.16018362 0.10294988 0.22404328 -0.061193097 0.1276032 -0.14332217 -0.1642384

blocks.2.1.weight f4 [16, 16, 1]
00000000: d5bb 1abe 40ee f2bd 748f d1bd 7c1a 843d
00000010: c9ed 593e bd04 3d3e b84b bd3c f428 1e3e
00000020: 80b9 17bd 93c9 a2be 9877 21be 219e 173c
00000030: 0e96 81be ea00 47bd ccfd 9cbe fbae 25be
00000040: adc0 413b e02a 363e 19bc ec3c 5e10 efbc
00000050: c645 063e b2b7 e23d fefc 213e d409 e7bd
00000060: 3c0b 57be de51 91bd 5a91 69be d256 6b3d
00000070: e7e5 193d 4a1c 42be c729 d83d 5b5a f73c
00000080: 1ee4 c6bd 33f9 60be edc3 debd 798a 49be
00000090: ddcd cdbd 8705 c93d 7078 d53d 3a6a a63d
000000a0: 41b2 80be e048 e9bd 8c54 19bd 732a ec3d
000000b0: f93b 253e ff6b 2abe c30b 163e c4fa 50be
000000c0: 9cc0 503e 3a27 a0ba 1611 3bbe 6548 61be
000000d0: fde5 10be 2075 f2bc a89a 8b3d 2f1b 64be
000000e0: 607f 4abe 746f 79bd aa3c 333e 7d91 8c3a
000000f0: 24bf ab3d 75a4 d13d 1244 5d3e 592b 87bd
00000100: f7b3 85bd fa1c 203e 3104 48be 43d2 cd3c
00000110: f13d 793e b71e acbd 05d1 dc3d a08c 6dbd
00000120: 0146 68bd 2347 853e 9cfb f5bd db4a 103e
00000130: dd7b f1bd 6ec3 f1bc 88ae d93c 3168 62bd
00000140: 9820 4c3e 268d 813c 59ae 52bd d3c4 973d
00000150: e199 783d cb5e efbc 9f27 ad3c fcf3 07be
00000160: 0db3 5c3c 4963 6b3e 4e59 243e 64d8 34be
00000170: d188 22be be0a bbbc 58a5 763e 163d 473e
00000180: 36fa 213e de60 793e 4ac6 8abe 29b9 2dbd
00000190: 975e 823d c95d 53bd 6695 cdbd 54b0 6c3e
000001a0: bdd2 5abe e7c1 363e fe95 113e e65b 393e
000001b0: 1e08 573e 9c5d 243e 66cf debc 27a2 1f3e
000001c0: daf9 2ebe 296a 623b 1e80 243d b361 cdbc
000001d0: cfb2 e7bd a551 273c b7fa 31be 2c24 abbb
000001e0: f71a 093e da6e 60be 4fba a43d 4baf a5bd
000001f0: 249d debd 3612 6dbe 4761 8bbd 66dc 6c3e
00000200: 4465 9e3b f51b 563e 269c 8d3e d8d9 1bbc
00000210: df17 3cbe 79f1 a7bd d1ec 66be 7c4a 76be
00000220: 3f74 513d b2be 40be 7696 2c3e d0b0 59be
00000230: 104b 50bd c3a8 83be ca5d ff3b f6c5 4abd
00000240: a23c 37be 6064 30be b644 f03c 452b f33d
00000250: 8577 c1bd e9f3 3abc cc89 3c3e 158d 7bbe
00000260: a412 053d 9173 13bd bbd2 e03c 42fc d1bd
00000270: afff 16be a4dd 5c3e 41b7 1d3e 58e8 e6bd
00000280: b928 573e b222 27bd a21c b13c d83a fabd
00000290: a48c 0bbe 4bd5 31be f5ca b0bd 2f14 e0bd
000002a0: bfb6 e7bb 3465 483e e945 12bd bd97 bf3d
000002b0: ff35 a4bc 2d94 7c3d e8fd 53be 6e9d 80be
000002c0: 8622 2f3e bddd 3e3e 68ef 483e 87be ecbc
000002d0: 0a3a 32bd 0e36 2cbe 96b9 4ebe 067f 8b3e
000002e0: 0ad8 2c3e ad03 4fbe 4e27 8c3b 6602 62be
000002f0: d069 823e 1a80 dcbb 483a d13d da7a 91be
00000300: 8497 853e c8a2 a13d f7ef 893e a7ce 5a3d
00000310: d261 13be 8833 603e a43f 3bbe e01d c33c
00000320: 547a 4a3d d0e4 b53d aa47 d2bd cad3 85be
00000330: 0862 d73d 8b56 e13d 7af3 2a3e 27d8 05be
00000340: 83e0 113e 2dbc 693e c1fe 2fbe c0db 2a3e
00000350: b7e3 f33b 4ca1 2bbd 483c 83be 4e29 f63c
00000360: c91a 9b3d d119 693d 9484 5cbe e952 933d
00000370: 9b9a 383e aec5 203d 5e65 ff3d 6ec6 52bd
00000380: 3a99 91be ae7a 723e 562d 39bd b357 44be
00000390: 794a 063d 0000 95bd 171c 753e c271 003e
000003a0: 1ca2 febd 4894 d1bc 9821 313e 55ba 96bd
000003b0: cbac 7e3e 9769 823e 5f66 3c3e 1924 98be
000003c0: d5e4 53bd 0a03 2ebe c50d 883e 0704 43be
000003d0: 803c 123e c7ad 893e 5882 3b3e b5d5 74be
000003e0: f215 483e f1e7 59be 9dae 203e b2ed e2bd
000003f0: 2c15 93bd 7e7a d1bd 84dd 34be 535f 2ebe
-0.15110715 -0.11861849 -0.1023244 0.06450364 0.21282114 0.18458839 0.023107395 0.1544531
-0.03704214 -0.31794414 -0.15768278 0.009254009 -0.25309795 -0.048584856 -0.30662382 -0.16180031
0.0029564307 0.17789793 0.028898286 -0.02918261 0.13112554 0.11070193 0.15819165 -0.112811714
-0.2100038 -0.07095693 -0.22809353 0.057455845 0.037572768 -0.18956104 0.105548434 0.030194452
-0.09711479 -0.21970062 -0.108772136 -0.1968173 -0.10049031 0.098155074 0.10423362 0.0812573
-0.25135997 -0.11390853 -0.037434146 0.11531534 0.16136159 -0.1664276 0.14652924 -0.2040816
0.20385975 -0.0012218722 -0.18268237 -0.22000273 -0.14150234 -0.029596865 0.06816608 -0.22275995
-0.19775152 -0.060897306 0.1750361 0.0010724511 0.083860666 0.10236446 0.21607998 -0.06600065
-0.06528466 0.15636054 -0.19532849 0.025124675 0.24340035 -0.08404296 0.10782055 -0.05799544
-0.056707386 0.26030836 -0.12010881 0.14091055 -0.11791203 -0.029512133 0.02657248 -0.055275146
0.19934309 0.015814375 -0.051435802 0.07410588 0.060693625 -0.029220005 0.021137057 -0.13276666
0.013470423 0.22987093 0.16049692 -0.17660671 -0.15872504 -0.02283227 0.24086511 0.19456896
0.15818104 0.24353358 -0.27104408 -0.04241291 0.06365698 -0.051603112 -0.10038261 0.23114139
-0.21369453 0.17847405 0.14217374 0.18101463 0.2099919 0.16051334 -0.027198505 0.155892
-0.17087498 0.003454814 0.040161245 -0.025071 -0.11313402 0.010212337 -0.17380796 -0.005222818
0.13389193 -0.21917287 0.08043348 -0.08090075 -0.10869816 -0.23151478 -0.068056636 0.2313095
0.004833849 0.20909102 0.27658194 -0.009512387 -0.18368481 -0.08200354 -0.22551276 -0.24051851
0.05113625 -0.18822744 0.16854271 -0.21258855 -0.050852835 -0.25714692 0.007793163 -0.049505197
-0.17894223 -0.1722579 0.029329639 0.118734874 -0.09446625 -0.011410692 0.1841194 -0.24565537
0.03248848 -0.035998885 0.027444234 -0.102531925 -0.14745973 0.21568924 0.15401937 -0.11274785
0.21011628 -0.040804572 0.021620099 -0.12218255 -0.13627869 -0.17366521 -0.08632461 -0.1094135
-0.0070713456 0.19569856 -0.035711203 0.09355114 -0.020045279 0.06166475 -0.20702326 -0.2512011
0.17103013 0.18639274 0.19622576 -0.028899444 -0.04351238 -0.16817495 -0.20187983 0.2724535
0.16879287 -0.20216246 0.0042771464 -0.22071227 0.25471354 -0.006729138 0.102161944 -0.2841404
0.2609216 0.07892376 0.2694089 0.053419735 -0.14392784 0.21894658 -0.18285996 0.023817956
0.049433067 0.08881533 -0.10267575 -0.26138145 0.10516745 0.11002835 0.16694441 -0.13070737
0.142458 0.2282569 -0.17187025 0.1668539 0.007442917 -0.04190187 -0.25631928 0.030048992
0.07573468 0.056909386 -0.2153495 0.07193548 0.18027727 0.039251022 0.12470506 -0.05145877
-0.28437215 0.23679611 -0.04520925 -0.1917408 0.032785866 -0.072753906 0.23936497 0.12543395
-0.12433264 -0.025583401 0.17297971 -0.07359759 0.24870603 0.25471184 0.18398426 -0.2971504
-0.051731903 -0.16993347 0.26573005 -0.19044505 0.14280891 0.26890394 0.18311441 -0.23909648
0.19539621 -0.21279885 0.1569161 -0.11080493 -0.071817726 -0.10228442 -0.17662627 -0.17028551

blocks.2.1.bias f4 [16]
00000000: b1b2 533d 50e9 e1bd ae9e a43d be2e b5bd
00000010: 0575 c7bd beda 413e 1fa6 523e 6db4 113e
00000020: 6a96 003d 0541 4a3e fca5 20be 8d50 223d
00000030: ffee 2abe 7b15 873e c692 57be 386d 19be
0.051684085 -0.11030829 0.08038078 -0.08846806 -0.097391166 0.189311 0.20571183 0.14228983
0.031393446 0.19751365 -0.15688318 0.0396276 -0.16692732 0.26383576 -0.21052083 -0.1498307

blocks.3.1.weight f4 [16, 16, 1]
00000000: 3736 8b3e 6dcc 9a3c de8a 423e 91ef 423e
00000010: d7d5 ca3d 51a5 54be 8de8 1ebe e381 3b3d
00000020: b00a c03d f833 e9bd a023 ed3d 1008 023d
00000030: 9165 3d3e 2254 173e e181 26bd 4f86 c63d
00000040: 57dd 97be 2754 543e 367c 3bbe f2af 903e
00000050: 4a41 923d 144e 0b3e 6eb9 803e 8b4e fcbd
00000060: 867e 19be 6c9a 943e f1dc 8abc 433e 113e
00000070: cb66 dc3d 93cd 9ebe b30f 01be aa72 14be
00000080: 71be 2ebd 98f1 6bbe 6a37 94bd 99f1 76be
00000090: 3b7a e1bd 0eca 03be 8d1d 0ebe 30ca 66bd
000000a0: d754 b93c 2d7d 88bd 6d25 423d 871f 843e
000000b0: e0a3 e8bc 4a3b acbb a13a 6c3e 01c9 67be
000000c0: 2c01 17be 5711 ef3d 7118 d7bd 7ace c8bd
000000d0: 37d9 04be d4d0 6d3e 5931 55be 98ab 1cbe
000000e0: 5f5d 62be 92e9 153e 875e 6dbe 00d9 95bd
000000f0: 8630 65be 79f9 cd3d c183 eebd 2421 163d
00000100: 4efb 82be 3d5b 813e a4b7 78be 3418 8b3e
00000110: 67dd 423e 4b3b 073e 62e1 0ebe b638 1ebe
00000120: e3ce 493e a59b 6c3e d9b3 303e 969a a53c
00000130: 306e e03d 892c 083c 8115 8f3e 5ca8 353e
00000140: 7037 763e 82b5 a83d 255b 843e 0ab1 7fbe
00000150: 82a6 13be 8926 3cbe 1614 53be 9344 6abe
00000160: 1373 473e 8b63 5ebe 8891 a6bd 25b1 a7bd
00000170: d2a5 9abd 5eec 303e a9e7 a33d b08c 1ebe
00000180: a38d 89bd f70f f5bc 0215 c23c 9e7e 863e
00000190: 93b6 e23d 5d67 c93d a75b d9bd da37 063e
000001a0: c755 8ebe 5311 663d 633a ae3d 2b4a 24be
000001b0: ff02 ea3d 1ed8 46be 0d31 923e 52c5 4b3e
000001c0: 1ab8 ca3d 0060 773d 2a92 253e 2ca5 57be
000001d0: e3c0 60be 3565 71be 248a 673e c43b 70be
000001e0: d966 1b3d 7d66 13be f794 4fbe d79a 1cba
000001f0: f2a6 13be df9b 973d cc1f 1f3e f01c c33d
00000200: b34e d83d 152c 073e 881c 213e 0051 49be
00000210: a24a 1b3e ec9c d83d 8e5e 0b3e eb36 c83d
00000220: 840b 0ebe c90f 24be bda2 8ebc d7c8 633e
00000230: 0475 5bbe c950 acbd 211a a13d fe84 d7bd
00000240: 0bce 083e e6f4 e83d 2c7d 38bd e34e a3bc
00000250: d00c 2d3e 503c 1bbe eb36 693e 4107 413d
00000260: ce32 173c cdb0 ba3c 08a8 0cbe f9f1 4dbe
00000270: d410 ad3d 1a78 bb3d ffe4 54be 86eb 17be
00000280: 1d59 3eba 3044 1a3e 8e90 72be a5ad cdbd
00000290: c182 7e3d ddf2 31bd 70d0 abbd c58b 143d
000002a0: 4720 7c3e 34a7 71be 0332 e9bd c906 33bc
000002b0: 43b4 513e a871 463d 0e17 e4bd 109d 96bd
000002c0: ff88 53be e27e 47bb 48d6 df37 ebc0 793e
000002d0: d920 513e 0cff 833e 6016 1bbe 02c8 fb3d
000002e0: f83b 8ebc 3d74 65be f1ca 6d3e 7a11 d43d
000002f0: 5268 0e3e 7dfa 80be 62c1 213d a310 533d
00000300: a1e6 e73b bb65 67bd 2edc 853e b94c 723e
00000310: 47fb fcbd 9e31 c0bd b945 b9bd 19f7 d4bd
00000320: ac0c 763e f54d 5fbe 821f 803c 53f7 fdbd
00000330: 9de2 f8bd d5e4 f53d 8ce1 66bd 26ee afbd
00000340: 7739 653e 64d1 5cbe 1db6 f2bd f262 3bbc
00000350: c528 eb3d 4f4a 7cbe b13a 13be 0433 1c3d
00000360: 658e 4a3e eb60 2e3e 88d2 1cbe 272c 1ebd
00000370: 2b77 ca3d dff3 3e3e d8c9 133e a7d3 543e
00000380: b845 83be ddc4 513e b3b6 73be 5d32 43be
00000390: b25e c33b f7f5 863d e2ff 5a3d 629e 823e
000003a0: 5f39 46bd bac5 bd3d d10f fb3d 3aca 6abe
000003b0: 0d47 9a3e a70f 5ebe 44c7 623e f3d0 b4bd
000003c0: 9377 07be aab7 5abe ec50 b9bd b005 143e
000003d0: 8380 85be 682b 53be 2de6 63be 0a7b debd
000003e0: 30db 2c3d 145e 84be b70e c43c 8ba8 1d3e
000003f0: 502f fc3d d637 d63d eb2c 3e3e 4b1c 913d
0.271898 0.018896306 0.18998286 0.190367 0.09904068 -0.20766188 -0.15518399 0.045778167
0.093770385 -0.113868654 0.115790606 0.03174597 0.18495776 0.14778188 -0.040651206 0.09693586
-0.29661056 0.20735227 -0.18309101 0.28259236 0.07141359 0.13604003 0.25141472 -0.123196684
-0.14989671 0.29024065 -0.016951056 0.14183907 0.10761794 -0.31016216 -0.12603645 -0.14496866
-0.042662088 -0.2304138 -0.07237132 -0.241156 -0.11009642 -0.12870046 -0.1387846 -0.056345165
0.022623463 -0.066645004 0.047398973 0.25805303 -0.028398454 -0.0052560912 0.2306924 -0.2263527
-0.14746541 0.11673229 -0.10502709 -0.09805007 -0.12973486 0.23224193 -0.20819606 -0.15299833
-0.22105931 0.14639881 -0.2318059 -0.0731678 -0.22381791 0.10057349 -0.11646224 0.0366527
-0.25582355 0.25264922 -0.24288803 0.27166903 0.19029771 0.13206212 -0.13953164 -0.15451321
0.19707827 0.23106249 0.17256106 0.020215314 0.109585166 0.008311399 0.27946094 0.17740005
0.24044585 0.08237745 0.25850788 -0.24969879 -0.14418986 -0.18374075 -0.20613131 -0.22877721
0.19477491 -0.2171766 -0.08133227 -0.081880845 -0.07551159 0.17277667 0.0800317 -0.15483356
-0.06716468 -0.02991484 0.023691658 0.26268476 0.110699795 0.09834168 -0.106131844 0.13107243
-0.27799818 0.056168865 0.0850723 -0.16043918 0.11426353 -0.1941838 0.28553048 0.1989949
0.09898396 0.060394287 0.16169038 -0.21059102 -0.2194858 -0.23573764 0.2261129 -0.23460299
0.03793988 -0.14394565 -0.2027167 -0.00059740007 -0.14419153 0.07402777 0.15539473 0.09527004
0.10561886 0.1320041 0.1573354 -0.19659805 0.15165189 0.105768055 0.13610289 0.097761
-0.1387158 -0.16021647 -0.017411584 0.22244583 -0.21431357 -0.08413846 0.07866312 -0.10523413
0.13359849 0.11374836 -0.04504125 -0.019935077 0.16899419 -0.15159726 0.22774856 0.04712606
0.009228421 0.022789383 -0.13735974 -0.20111836 0.08450475 0.09153767 -0.2079048 -0.14835939
-0.0007261204 0.15065074 -0.23687956 -0.10042886 0.062136415 -0.043444503 -0.08389366 0.036266107
0.24621688 -0.23598939 -0.11386492 -0.010926911 0.2047892 0.048448235 -0.1113721 -0.07354176
-0.20657729 -0.0030440618 2.6683454e-05 0.24389999 0.20422687 0.25780523 -0.15145254 0.12294008
-0.01736258 -0.22407623 0.23221947 0.10354896 0.13906983 -0.25191107 0.039491065 0.051529538
0.0070770537 -0.056493502 0.26144546 0.2366208 -0.12352615 -0.09384464 -0.09046502 -0.10398693
0.24028271 -0.21807082 0.015640024 -0.12400689 -0.12152598 0.12006537 -0.056367442 -0.08590345
0.22385202 -0.21564251 -0.118511416 -0.011437165 0.114823855 -0.24637721 -0.14377858 0.03813459
0.19780882 0.17029159 -0.15314686 -0.038616326 0.09886011 0.18647717 0.14432466 0.20783864
-0.2563913 0.20485254 -0.23800163 -0.19062181 0.0059622163 0.06589883 0.053466685 0.25511461
-0.048394557 0.09266229 0.12258876 -0.22928706 0.30132332 -0.21685658 0.22146326 -0.088289164
-0.13229208 -0.21359125 -0.09048638 0.14455295 -0.2607461 -0.20622027 -0.22255774 -0.108633116
0.04220122 -0.25853026 0.023932798 0.15396325 0.12313712 0.104598686 0.18571822 0.070854746

blocks.3.1.bias f4 [16]
00000000: c22a a23d a6d9 84be 596a 8dbe f063 3abc
00000010: 16d3 5c3c 65f5 bb3d 24fe 9cbc a0ea 27bc
00000020: 0877 d93d 0063 40bc 24e9 e43c d8ca 80be
00000030: 4d62 b03d 91cf 57be 1575 17be e4c4 d8bc
0.07918312 -0.25947303 -0.276202 -0.011376366 0.013478061 0.09177665 -0.019164152 -0.01024881
0.106184065 -0.011742353 0.027943201 -0.25154757 0.086124994 -0.21075274 -0.14790757 -0.026461072

blocks.4.1.weight f4 [16, 16, 1]
00000000: c6fd 043e fb3f 1abe 3860 b13d 4cc9 b63c
00000010: ade7 863e 4c9e e8bd 40f9 acbd 6b35 173e
00000020: 36a2 9abe 922f 4c3e 4ce3 183e 0e20 99be
00000030: 600a 1ebd d873 013e d7f3 5c3a 4909 34be
00000040: 6ad8 633e 5730 cf3d cfab 3a3d c98e 833d
00000050: 8af4 debd 39b8 6ebe fddb 2ebe 8ff0 4f3e
00000060: 3474 213d 96c2 5b3e 921b 0fbe a331 963e
00000070: 25a1 933e e851 3ebc cbd4 b13e a469 9b3e
00000080: a462 2f3e 21dd 86be 2870 67be 7199 24be
00000090: 1c7a 43be 0338 ad3d e2ea e33d 7ba7 3d3e
000000a0: 3d57 0d3d 364d acbd db24 69bd f35b 27be
000000b0: 1b75 febc 4184 5d3e 8512 413e ab27 00be
000000c0: 9b0f 913d 5516 143e 19fe 503e f626 103e
000000d0: ed13 413e 2bdc 423d a067 e63d 55ab a13b
000000e0: 425a 733e c18c 1d3d 0b17 00be e19d 3a3d
000000f0: 45f9 6d3e 255f 4f3e b4e9 6ebd 01ef 76bd
00000100: 31e9 5a3e 2182 a03b 9492 0fbd 7888 043e
00000110: b730 333e 4d68 b0bc 76da dabd 01b0 4c3e
00000120: 339f 103e e67d 713e ff28 dd3b fcd3 673e
00000130: bf64 683e ff3e 2f3e 2677 14bc 0fd5 883e
00000140: e9f4 693d 83da 1c3e 8b06 9c3d 169d 793e
00000150: cea7 423c 1ed5 883e f0e0 0f3e 4744 cdbd
00000160: 0720 623d cd1a 35bd 9b88 4bbe 130a 36bd
00000170: 2dd9 8a3d 7fef 003e 2baa 493e b7a5 4bbd
00000180: 1744 e8bd 0b8b f83d 58dc 07be 65a3 bb3d
00000190: e9ad 8f3c b773 00be 7708 e6bd 80b7 7dbd
000001a0: 0855 d23c c147 073e e67c 4abe 4ad8 4bbe
000001b0: 46dd a53d b74e 863e 9fdb 7c3e ca6b b0ba
000001c0: a8a6 5f3e 4ce9 0bbe 5138 293e 0edd d93d
000001d0: db3e 123e eb90 76be da52 5bbe 43dc 0c3e
000001e0: 7cf9 38be 1742 4abe 4dbb 5f3e c3dd 9f3d
000001f0: 03e4 69be 5129 113e 7a99 36be ed05 a3bd
00000200: 86a7 f83d a8e9 9a3d 0614 623e 595e d23d
00000210: 18ee 283e 3537 823d a256 8fbd 5db5 22be
00000220: 325d 61be 8ebd 4d3d ed13 963d c981 43bc
00000230: 6cce 13bd 9a4b 043e 3525 e63d e539 23be
00000240: 4865 5b3e 6a25 063d 4b1c 823c 54ab 3e3e
00000250: dafb 863d cbfe 0c3e 5f82 1fbe 9ef9 d8bd
00000260: 25a9 663e 2ce7 603d 56b9 443e 7752 3dbe
00000270: 1f05 dfbc 82d0 a3bd 6657 6ebd b440 d33d
00000280: 3402 b23d b84d 14bd 9043 babd b870 a8bc
00000290: c7af 2cbe 9ac8 d13d d964 213e 31bc d43d
000002a0: 6177 883d 81d5 9e3c 058a 49be 29b3 dd3d
000002b0: 1fff 283e e5bb 4f3e 9fcb 713e 56cc 143e
000002c0: 0b7f 6dbb c497 4dbe 159b 2a3e 08b8 71be
000002d0: be56 033e 5f47 77be 3784 60be b3bc 9d3d
000002e0: a461 60bd 660e 5dbe 7a32 60be 1e3b 20be
000002f0: 041c 1d3d 17fd 633e ed4b e6bd 99dd 2bbe
00000300: ca63 c5bd 5cbd 773e fbc0 61be 8c2b 633c
00000310: 53a3 593e d6d9 083c 33e0 f4bc ffba 013d
00000320: 3ba8 5bbe 9212 5fbe 9219 6b3e a7c8 29be
00000330: 482a a53d a209 263e 4b71 8b3d 7f32 59bb
00000340: cd3a 313e d495 0ebe aa7d 2dbe 863a 6f3e
00000350: b215 5e3d fd70 4fbe ce07 52be 5d28 e83d
00000360: 6a50 2b3e 38c7 3ebe 028f 0dbe 7edf 42bd
00000370: 1b47 cbbc 5761 e5bd 6046 533e 16cb 0c3d
00000380: 8aad a73e b3a9 4fbe 535e 1fbe 4da9 083c
00000390: 0277 0ebe 45f9 2b3e 342e 353e aea2 ea3d
000003a0: ccbb 943e 7fde 7b3e 9ace 51bd 3966 29be
000003b0: 52ba 803e f4e6 133e 01c3 7e3e 9c11 f2bd
000003c0: c6da 453d 7f16 7f3e 26a8 cabd 8bb2 4b3e
000003d0: f72f 8d3d a091 18be 3586 b7bd 9ad7 f63c
000003e0: 0203 20be 5d81 2bbe 804d 033e 2655 20be
000003f0: bf8e 23be 0d23 47be b480 2c3e 0a1f 8bbe
0.12987432 -0.15063469 0.086609304 0.022312783 0.2634863 -0.11358318 -0.08445978 0.14766471
-0.30201882 0.19940022 0.14930457 -0.29907268 -0.038584113 0.12641847 0.0008428669 -0.17581667
0.22250524 0.10116642 0.045574006 0.064237185 -0.10886486 -0.23312463 -0.17076106 0.2030661
0.03941746 0.21460947 -0.13975361 0.29334745 0.2883388 -0.011616208 0.3473266 0.30354035
0.17127472 -0.26340583 -0.22601378 -0.16074158 -0.1908955 0.08457949 0.11128785 0.1852092
0.034507025 -0.08413164 -0.056919914 -0.1634367 -0.0310617 0.21632482 0.18854721 -0.12515132
0.07083055 0.14461644 0.2040943 0.14077362 0.18855257 0.04757325 0.11250234 0.0049337544
0.237649 0.03846431 -0.1250879 0.04556072 0.2323962 0.20251139 -0.058328345 -0.060286526
0.21378018 0.004898325 -0.035051897 0.12942684 0.17499052 -0.02153411 -0.10686199 0.19989015
0.1412323 0.23583183 0.006749272 0.2263946 0.22694682 0.17113875 -0.00906161 0.2672505
0.05711833 0.1531773 0.076184355 0.2437633 0.011880828 0.26725096 0.1405065 -0.100227885
0.055206325 -0.044215012 -0.1987633 -0.0444432 0.06779704 0.1259136 0.1969382 -0.049718585
-0.11341112 0.12135895 -0.13267648 0.091620244 0.017538982 -0.12544142 -0.11232083 -0.061942577
0.025675312 0.13210966 -0.19774207 -0.19906726 0.08098845 0.2623193 0.24693154 -0.0013459858
0.21840918 -0.13663214 0.16525389 0.10637866 0.1428179 -0.2407872 -0.21418324 0.13755898
-0.1806392 -0.19751774 0.21848793 0.078059696 -0.22840886 0.14175917 -0.17831984 -0.07960115
0.121413276 0.07564098 0.22077951 0.10271902 0.16497076 0.06358186 -0.06998946 -0.15889497
-0.22008207 0.0502296 0.07328019 -0.011932799 -0.03608553 0.12919465 0.112375654 -0.15940054
0.21425354 0.032750525 0.015882632 0.18620044 0.065910056 0.13769071 -0.15577076 -0.10594486
0.22525461 0.054907963 0.19211325 -0.18488489 -0.027224122 -0.07998754 -0.05818882 0.103150755
0.086918265 -0.03620693 -0.09094918 -0.020561561 -0.16863929 0.1024334 0.15761127 0.10387457
0.06663395 0.019388916 -0.19681557 0.10825188 0.16503571 0.2028652 0.23612832 0.14531073
-0.0036239054 -0.20077425 0.16660722 -0.23605359 0.12826058 -0.2414832 -0.21925436 0.07702007
-0.054780617 -0.21587524 -0.21894255 -0.15647551 0.038356796 0.22264515 -0.112449504 -0.16783752
-0.09638174 0.24193329 -0.22046272 0.013865363 0.2125371 0.008352717 -0.029892063 0.031672474
-0.21450894 -0.21784428 0.22958973 -0.16580449 0.08064705 0.16214612 0.06808718 -0.003314167
0.17307587 -0.13924342 -0.16942468 0.23362169 0.05421991 -0.20257945 -0.2051079 0.11335824
0.16729894 -0.18630683 -0.13824084 -0.04757642 -0.02481418 -0.11200207 0.20632315 0.034373365
0.32749587 -0.20279579 -0.15563326 0.008341146 -0.13912585 0.16794308 0.17693406 0.1145681
0.29049528 0.24596594 -0.05122242 -0.16542901 0.2514215 0.1444357 0.24879076 -0.11819765
0.04830434 0.24910925 -0.09895353 0.19892327 0.06893914 -0.14899302 -0.08961145 0.030132104
-0.15626147 -0.16748567 0.12822533 -0.15657482 -0.15972422 -0.19446965 0.16845971 -0.27172118

blocks.4.1.bias f4 [16]
00000000: d033 8e3d 5f0b f6bd aefd b3bd 9378 5dbe
00000010: 30b0 b2bd c978 553d a8ac 88be 6458 0dbe
00000020: dd60 48bd a387 373e 4f3d adbd a083 47be
00000030: 37ad 23be 5af4 2dbe d593 83be b04c abbd
0.06943476 -0.120138876 -0.0878862 -0.21628027 -0.08725011 0.052117143 -0.26694226 -0.1380325
-0.0489205 0.17922835 -0.08458959 -0.19483805 -0.15984045 -0.16987744 -0.25698724 -0.08364236

blocks.5.1.weight f4 [16, 16, 1]
00000000: 26b1 913e d8dc 143e a790 c1bd 72ae 9f3e
00000010: 7fb2 e4bd b580 6ebd 4fc9 b8bd 363e 983d
00000020: 4246 9bbd caff bebb 85fc c03b 2617 9a3d
00000030: bb4d 6d3d e280 a13d db1d eb3d 8f53 0d3e
00000040: 3537 943d 41e6 4cbd 9ca7 47bd a179 d6bd
00000050: ff3c 9fbd 2812 2a3d 5da0 bdbd 399b 27be
00000060: f3cd ff3d 3171 f73c 5da1 67bd 5b39 afbd
00000070: 4f1a 8b3e 05b0 d5bd 64ef f83b 6683 bb3c
00000080: b36e 38be aeee 24be cc07 b7bd fd77 8abe
00000090: c62e 243e 01c3 07bd a155 8fbd b593 8a3e
000000a0: 8c6d 8f3d af3f 47be 1fe8 ec3d c29e 5bbe
000000b0: 0b24 8a3e 5e4b 23be 7bb5 3fbc db85 6e3d
000000c0: 1cf4 a5bd cbf1 133e bb43 513c e667 0e3e
000000d0: 062d 363d e161 4cbd 7717 183e 02d6 7d3e
000000e0: 5c40 b4bd cbf7 4abe 19a9 37be f3a6 693e
000000f0: 7d88 0dbe 6324 3cbe 0a54 a23d b263 b8bc
00000100: 63e0 1dbe f2ee 90bd 5d46 563e 0a03 85be
00000110: c78b 79be fc68 ef3c 3b2c 8cbe 358d 3c3d
00000120: 4480 963e 374f df3d 63e2 013e ce14 7a3c
00000130: 3ac7 783e 8d90 1ebe be21 36bd 068f 4abe
00000140: fa61 0bbe b1a3 733e 9e7e 30be de67 18be
00000150: 436c 763c 679d 173e 644a ca3d a330 3d3e
00000160: 1c6c 6e3e 4869 1e3d 7c1f 263e 2175 5a3d
00000170: 5f42 05be 0206 863e 67b1 6fbd 9b68 1cbe
00000180: dd96 183e 3261 6f3e 61c5 103e eb52 8a3d
00000190: 4507 aa3d 3551 0bbe 7388 7abe 9530 2a3e
000001a0: 81df 463e 411b 08be 67e5 493d 73dc 10be
000001b0: d9c2 9bbd c3a2 603e f435 02be 29e3 0b3e
000001c0: 40ea fa3d ce8d 473e 6537 a23c 0e00 76be
000001d0: ff35 373e fb04 1cbe 4baf 1dbe befb 66be
000001e0: 7216 a93d 3687 3cbe dbb5 14be 6d39 f83d
000001f0: d9d6 01be 9fd5 df3d 70a3 88be 9f08 763e
00000200: 3053 293e 584c 0b3e cb94 c13d c2c3 c03c
00000210: 3afa 823e f2cf 643e 0b0e 48bd 96fa 18be
00000220: 8dd6 f7bd fc0d ccb8 6c34 643c 7c96 c73d
00000230: f385 783e e807 adbb 274a 3fbe 1315 25be
00000240: af70 f93d 381b 2abe 8d4e b9bd 67cf d73d
00000250: f091 cb3d ca41 1b3e cce7 73bc 842e f3bd
00000260: edc8 bb3c d28f a4bd 08e3 4bbd afc2 73bd
00000270: 3ab4 a1bd f3e4 debc 7aa8 3a3e bb95 2a3e
00000280: 0efc 543e d03d 1f3e 6a27 293e 3032 acbd
00000290: 1717 88bd 41b1 e13d 0caf 7f3d ad2b 7bbd
000002a0: 6a7b 173c 2877 59bd fde2 59be 5986 2fbe
000002b0: ec40 8c3c 3d90 60bd 127b 0fbe 9c94 16be
000002c0: 8393 4fbe 1d49 59be da3f 633e afea 253e
000002d0: 32ad 0bbe 34c9 40bc 8956 0fbe 63cf d93d
000002e0: ae16 433e b4ef 72bc b3e8 413d 26be 65bd
000002f0: 198f 333d 4a4c d6bd 37b3 9bbd 6462 703d
00000300: ae6e a3bd fad2 4b3e 368b 4e3e 6dfc 56be
00000310: 9028 693e bbf0 e93c 97df 833e 6bdd 26bd
00000320: dda6 423e c3d3 d7bd c6c6 6e3e 92ce 2dbe
00000330: dab2 b2bd 5fc6 ba3d 80ba c9bd b293 6e3e
00000340: a9f6 033e 2c97 36be cfd0 adbd 375b cabd
00000350: c595 a53d f9d6 d3bd c117 103e 2277 60be
00000360: 44bc 233e cd20 27be 9725 163e d2a1 273e
00000370: 305d 123e 60c3 dc3b 566b c03d f227 0e3e
00000380: e8a4 90be 23c3 03be 4b1b 45bd ff7c 7cbe
00000390: 9b35 f3bd f845 4ebe 74f9 28be f8c5 0b3d
000003a0: 71b6 57bd fa16 90bc 764a 3ebe 49c2 1a3d
000003b0: 14e9 33be 5164 033e e315 143e 8be4 f03d
000003c0: 4c8b 8fbd fe03 3fbc 020a 81be 5d27 a4bd
000003d0: e69d 353e 9cf7 d4bd 44d1 683e 7f24 8fbd
000003e0: 6510 813d b967 4bbe 0bb4 50be 8f1f 5c3e
000003f0: 3439 f0bd 1f2f 22bd de5c 89be 96c0 003e
0.28455466 0.1453737 -0.09451418 0.3118778 -0.11166858 -0.058228213 -0.090227716 0.07433741
-0.0758176 -0.0058288323 0.0058894777 0.075239465 0.057935458 0.078859106 0.11480304 0.13801406
0.072370924 -0.050024275 -0.04874383 -0.104724176 -0.07775306 0.04152122 -0.092591025 -0.16367806
0.124904536 0.030205341 -0.056550372 -0.085558616 0.2716851 -0.10433964 0.007596897 0.022889804
-0.18010978 -0.16106674 -0.08937034 -0.2704467 0.16033468 -0.033144955 -0.06998754 0.27065817
0.07003316 -0.19457887 0.11567711 -0.2144728 0.26980624 -0.15946719 -0.011700983 0.058233123
-0.08103201 0.14447705 0.012772496 0.13906822 0.04447653 -0.049898032 0.14852701 0.24788669
-0.08801338 -0.19821088 -0.179356 0.22817592 -0.13821597 -0.18373255 0.079261854 -0.022508476
-0.15417628 -0.07076825 0.20925279 -0.2597888 -0.24369727 0.029224865 -0.27377495 0.046033103
0.29394734 0.10903781 0.12684016 0.015263749 0.24294749 -0.15484829 -0.044465773 -0.19781122
-0.13611594 0.23792912 -0.172358 -0.14883372 0.01504046 0.14806138 0.0987747 0.18475585
0.23283428 0.038674623 0.16222948 0.05333436 -0.130136 0.2617646 -0.058518793 -0.15274279
0.149013 0.23376921 0.14137794 0.067540966 0.08302168 -0.13605197 -0.24466114 0.16620095
0.19421197 -0.13291647 0.04929104 -0.14146595 -0.076055236 0.21937089 -0.12715894 0.13660873
0.12251711 0.19487688 0.019801805 -0.24023458 0.17891692 -0.15236275 -0.153989 -0.2255697
0.08256234 -0.18410954 -0.14522497 0.12120328 -0.12679614 0.10929417 -0.26687193 0.24026726
0.1653564 0.13603342 0.09452208 0.023530845 0.25581533 0.2234495 -0.048841517 -0.14939341
-0.12101469 -9.730083e-05 0.013928514 0.097454995 0.24269848 -0.0052804835 -0.1868063 -0.1612132
0.12179696 -0.16611946 -0.090481855 0.10537606 0.09939945 0.15161815 -0.014886808 -0.118741065
0.022922957 -0.08035244 -0.04977706 -0.059511837 -0.078957036 -0.02720878 0.18228331 0.1665868
0.20799276 0.15550923 0.16518942 -0.0840801 -0.06645029 0.110201366 0.062422797 -0.06132095
0.009245733 -0.053092152 -0.21277995 -0.17141093 0.0171208 -0.054825056 -0.14011791 -0.14705127
-0.20271115 -0.21219297 0.22192326 0.16202806 -0.13640288 -0.011766721 -0.13997854 0.10635259
0.1905162 -0.0148276575 0.04734106 -0.056089543 0.04383764 -0.1046377 -0.07602542 0.058687583
-0.07980095 0.199047 0.20170292 -0.2099473 0.2276938 0.028557172 0.25756523 -0.040738504
0.19008966 -0.10538437 0.23318014 -0.16973332 -0.087255195 0.091198675 -0.09850025 0.23298529
0.12887062 -0.17831105 -0.08487093 -0.09880679 0.08085207 -0.10343737 0.14071561 -0.21920446
0.15989786 -0.16321106 0.14662777 0.16370323 0.1429336 0.0067371577 0.09395473 0.13882425
-0.28250813 -0.12867408 -0.04812173 -0.24657057 -0.11875459 -0.20143878 -0.16501409 0.034124345
-0.052664224 -0.017589081 -0.18583092 0.03778294 -0.17569381 0.12831236 0.14461474 0.11762341
-0.07008991 -0.011658667 -0.25202948 -0.080153205 0.17736015 -0.1039879 0.22736079 -0.06989383
0.06301955 -0.19863786 -0.20381181 0.21496414 -0.11729661 -0.03959572 -0.26828665 0.12573466

blocks.5.1.bias f4 [16]
00000000: 6a00 86bd f252 f3bc 15f2 30be 9417 f6bd
00000010: 05a6 f13b 40bc a03d d38a 6dbd 9f02 93bd
00000020: abd8 b03d a687 3d3e 81a9 53bd ba3a 21be
00000030: 0203 b93d ba97 30bc c180 e3bb bc3c 6c3e
-0.06543048 -0.029702637 -0.17279847 -0.12016216 0.0073745274 0.07848406 -0.05799372 -0.07178234
0.08635076 0.18508777 -0.051675323 -0.15745059 0.09033777 -0.010778362 -0.006942839 0.23070043

project.0.weight f4 [8, 16, 1]
00000000: 59f7 21be 7823 433e 6eee d23d dbc4 023e
00000010: 75c7 d23d 9fc2 55bc 448b b6bd 40e1 e83d
00000020: e8fc 2b3e 101c 00bd 9d69 d8bd cc15 11be
00000030: 4321 d43d fced d23d 8cda 913e 642d 04bc
00000040: 8c82 85be eae2 09be 3bb0 983e 9db1 4e3e
00000050: 4966 38be a1c5 69be 306d a23c c282 fcbd
00000060: 7f81 853e 79d2 bc3d 3fe7 a43d d66a a13c
00000070: 0126 ec3d 18f5 0fbd d9bd 673d 3574 863d
00000080: 1eb0 893e 309e 14be eee1 72bd 3862 593e
00000090: e1da 0cbe e9ec a7bd 0cc7 c63c 3982 ed3b
000000a0: 83d8 3f3e f210 413e abe8 2f3e 427d 823e
000000b0: 1d2c b63d a071 bbbd 4789 73be e460 c0bd
000000c0: c9c6 0c3e afa5 86be 2c0c bf3d 9803 b8bc
000000d0: dfc3 81be c2ad ef3d 2c95 9fbd 7971 efbd
000000e0: d272 4fbd b35e cd3d 9569 57bc cc28 59be
000000f0: d23f bd3d 51aa ffbd 643a 75be ea37 933e
00000100: ef54 943e 2ec5 103e 506d 41be a09d 3dbc
00000110: 20da 61be 4a3a 563e cc57 69bd 6566 713e
00000120: 26a3 cf3d 5512 e93d 1215 1dbe 13a8 893e
00000130: da7a 0bbe 47e6 fa3a 66a7 1f3e 38c2 1ebd
00000140: e1dd 4abe 68bd 2b3d 5d5e 31be 4f98 2bbd
00000150: 3a5a 1abe 1115 683e efd1 3abe 0008 8f3d
00000160: c641 fb3d f408 513e afc2 4abe 62de 60bd
00000170: 2f74 433e d778 233e 908f 7bbe d71f 123e
00000180: 3f27 563e 77a4 033e 177b 23bd 929d e2bc
00000190: 868c 493e f690 b53d 205b a2bc 76f6 54be
000001a0: c92c fabc ef93 d93d de34 073e c8e9 38be
000001b0: fac3 6ebe 5a13 c6bd f336 023d ef01 5abd
000001c0: 3d12 5fbc e0a0 9f3c a154 30be 62dc 63bb
000001d0: 1789 3bbe ca5f 75bc bbbc febd 81ff 113e
000001e0: b207 483e 6999 703e 3441 a33e 8a15 f93d
000001f0: 8483 8a3e ef28 253e 5483 bebe fdbb 633e
-0.15817012 0.19056499 0.10299383 0.12770407 0.1029195 -0.01304689 -0.089132816 0.11371088
0.16795695 -0.031276762 -0.10567019 -0.14168471 0.10357907 0.10299298 0.2848705 -0.008067463
-0.26076162 -0.13465467 0.29821953 0.20184942 -0.18007769 -0.22829296 0.019827455 -0.123296276
0.2607536 0.09219832 0.08051919 0.019704264 0.11530686 -0.03514585 0.056577537 0.065651335
0.2689218 -0.14513469 -0.059297495 0.21228874 -0.1375537 -0.08199484 0.024264835 0.0072481898
0.18734936 0.1885412 0.171786 0.2548619 0.08895133 -0.091525316 -0.23782836 -0.093934804
0.13747706 -0.26298282 0.093284935 -0.022462651 -0.2534475 0.117030635 -0.07792124 -0.11691565
-0.05064661 0.10027828 -0.013147731 -0.21206969 0.092406884 -0.12483657 -0.23948056 0.28753597
0.2897105 0.14137718 -0.18889356 -0.011573225 -0.22055864 0.20920673 -0.056968495 0.23574217
0.1013854 0.1138045 -0.15340069 0.26886043 -0.13621083 0.0019142114 0.15591201 -0.03875944
-0.19811203 0.04192868 -0.17321153 -0.0418933 -0.15073481 0.22664286 -0.18244146 0.06983948
0.12268405 0.20413572 -0.19800828 -0.05489958 0.1908729 0.15964065 -0.24566483 0.14269958
0.20913409 0.12855707 -0.03991231 -0.027663026 0.19682512 0.0886554 -0.019818842 -0.20797142
-0.030538933 0.10623919 0.13203761 -0.1805793 -0.23316947 -0.0967166 0.031790685 -0.0532245
-0.013615188 0.01948589 -0.17219783 -0.003476881 -0.18314014 -0.014976451 -0.12438341 0.14257623
0.19534186 0.23496021 0.31885684 0.121623114 0.27053463 0.16128896 -0.3720957 0.2223968

project.0.bias f4 [8]
00000000: e6cb c6bd f908 50be 8d67 203e f342 ed3d
00000010: 53c9 34be 3cf7 8a3e 6466 0a3c 033f 6a3d
-0.09706859 -0.20315923 0.15664501 0.11585035 -0.17654924 0.2714175 0.008447263 0.057189

project.3.weight f4 [3, 8, 1]
00000000: 33a6 40be 7f6a 26be 4c46 bd3e 7351 6f3e
00000010: c427 02be 7951 ae3e aae6 99be 0aa0 8e3d
00000020: 3013 ba39 1ef8 30bc d55e 15bc 22a2 b8bb
00000030: cf04 683d 1c61 1cbc 07d3 e9bd 4e99 c1bb
00000040: f6f4 cbbc fd99 2dbe 25cc 443d 1f36 413e
00000050: 216b bd3e 0035 be3e 46d8 823e 8afa 733e
-0.188134 -0.16251563 0.36967695 0.23370914 -0.12710482 0.34046534 -0.30058795 0.06964119
0.0003549098 -0.010801343 -0.009116848 -0.005634562 0.05664521 -0.009544637 -0.114172034 -0.005908168
-0.02489708 -0.16953273 0.04804625 0.18868302 0.36995795 0.3714981 0.2555563 0.23826042

project.3.bias f4 [3]
00000000: aaa3 abbd 6551 dd3b 5866 3fbe
-0.08380826 0.0067540877 -0.18691385
