checkpoints/dong_fno_forward.pth (torch, 114378 bytes, 18 tensors)

lift.weight f4 [16, 4, 1]
00000000: 586f ac3e bde1 23be 3107 78be d807 593c
00000010: 2a90 c53e 86ef 09bf bb2d 3a3e ed26 af3e
00000020: e2b1 8c3d 6c6c 683d d7a2 9b3d c13b c2bd
00000030: 41de a1be ea2d fa3d 4562 ce3d 5acf 963e
00000040: aa8b 3cbe d75b 8dbe b033 a23e 9793 aa3d
00000050: 6d92 593e 50df 08be d3e6 b33e ec4a c63e
00000060: 7234 abbe d0ce a1be d3ae 9ebe 4e06 a93e
00000070: 1fe2 a53c b79e c8be 1ffb 4b3e 198b 15bd
00000080: a732 a3be 04b4 cabd f50d 693e 9244 17bd
00000090: 087a 1a3d a203 a23e 522c 973e 6002 d8be
000000a0: 0e7a 873e 5668 adbe 39c8 e93d a263 dabe
000000b0: 543e e2be 5eab 49bb b229 9fbe 6e1e e6bd
000000c0: 356b a73e 0662 393d 534c a0be d483 853e
000000d0: 090b aa3e ebb2 c7be 7a0c ef3d e010 5c3d
000000e0: d6fa c23e 883b 923e ba29 8bbe a343 b4bc
000000f0: 7760 c63d 65d1 a5be e928 d4bd 836e 0cbf
0.336787 -0.16004081 -0.24221493 0.013246499 0.3858655 -0.5388111 0.18181507 0.34209386
0.06869866 0.056744024 0.075994186 -0.094840534 -0.3161488 0.12215789 0.10077337 0.29455072
-0.18412653 -0.2760913 0.3168006 0.08328932 0.21247263 -0.13366437 0.35137042 0.38729036
-0.3343845 -0.31603098 -0.30992755 0.33012623 0.020249425 -0.3918359 0.19920014 -0.036509607
-0.31874582 -0.098976165 0.2275923 -0.036930628 0.037714034 0.31643397 0.29526 -0.42189312
0.26460308 -0.33868665 0.114151426 -0.4265414 -0.44188178 -0.0030772309 -0.31086498 -0.11236273
0.3269898 0.045259498 -0.3130823 0.2607714 0.33211544 -0.3900369 0.116723016 0.05372703
0.38081998 0.28561044 -0.27180272 -0.022004908 0.09686368 -0.32386318 -0.103593655 -0.5485613

lift.bias f4 [16]
00000000: c961 8cbd bf5d 35bd 46b3 b63e 8da3 033e
00000010: 2936 a4be 46f5 a23e b34d a6be 5dc0 9c3d
00000020: d33b d33e d77a 11bd 4fb5 d6be e6fe e9be
00000030: 8c4f eabe ea8e a9be bd11 743e ae6b f0be
-0.068545885 -0.044278856 0.3568365 0.12855358 -0.3207257 0.31827754 -0.32481155 0.07653878
0.4125658 -0.03551754 -0.41935202 -0.45702285 -0.45763814 -0.33116847 0.23834892 -0.46957153

blocks.0.1.weight f4 [16, 16, 1]
00000000: c471 59bc 4881 18be d465 153e 4d92 433e
00000010: d1a4 5a3d b8fd aebd 0530 4b3c fc9a 3fbe
00000020: 97ce febd 2bf9 34bc d0a8 8cbd e796 34be
00000030: b614 173c d8d2 04bd e802 003e 9ae8 723e
00000040: 12f5 083e 850e 313d 95f0 0a3a 1931 37be
00000050: d961 0cbe c09f 4f3e 36dc 46be c0d0 673e
00000060: 326c ad3d c413 fcbc 0b72 be3c 38c4 a1bd
00000070: e3da 083d e334 acbe c6b8 b0bd 9b96 39be
00000080: 6ed2 f4bd bb98 3dbe 3fd3 e7bd d706 0bbd
00000090: f935 7bbe d686 093e ce91 413e eb8e 0abe
000000a0: 7ddc 543d e6cf cb3d 1eef 003e bec7 243d
000000b0: 37dd 1c3e aee4 5cbe 8832 303e 1e29 87be
000000c0: fa90 3abe 77b3 2e3e 38ef 91bd acee c8be
000000d0: 4af8 58bd 3a57 d5bd dbd5 653e 54d0 a9bd
000000e0: 2e9f f7bd 069f 573e 6b12 683c 9997 4a3a
000000f0: b23f 983e a0ea 993e bc56 203e 3cf0 0bbe
00000100: 11d1 333c 6e72 50be ff82 1e3e 061a cfbd
00000110: 4b1b f93c ea62 7a3e fbc0 243e 9aea 5bbe
00000120: 98ef 753d f02a 2fbd c6c5 66be 89ee 703e
00000130: e6be 50bb 8dbf 16be 10de 8f3b b45f e2bd
00000140: a08e 04be 9413 603e 002f 403e 9438 1e3e
00000150: 5f78 f03c 90d0 1fbd 461f 0b3e 358f 4b3d
00000160: a293 f33c f8ff 3dbe 0f89 6bbe 7cda 693e
00000170: c6bd 0a3e 79cb 863e a141 f7bc 2b0b 47be
00000180: 2f2f 82be ce2e 9b3e e365 bebd e65e d03d
00000190: dce5 2f3d f95e 28bb d001 fa3a 9d58 6bbd
000001a0: a3cb 91be 0190 19be 434f 863e 8028 05be
000001b0: 8ebb 563e eca4 323e 5a44 783e ff16 653a
000001c0: 55dd b1bd a7a8 893c 1fe5 c83d af21 123e
000001d0: 096d 6c3e be6d be3d 9b6b 8cbe d53f 823e
000001e0: a7a6 563e 9b43 ddbc 79d1 833c c5e7 2cbe
000001f0: d218 dcbd da3d ce3d 9c9e a73d 24b7 fc3d
00000200: 066a c7bd ba8a 9dbd fe8e 33be 6906 9ebc
00000210: f9fe 3fbe 55e9 c2bd e160 bfbd 8cfc 8bbe
00000220: 0f5e 73bd c00c 843e d776 793e 6e0b 493e
00000230: 1bd7 1cbe 28dc 8cbd dc90 22be 9fba d13d
00000240: 71bf 38be 8c48 ecbd d06e d53d 0a4d b4be
00000250: 863c 213e 2505 023e f488 49be 311e 843e
00000260: 7403 833e 43f4 44be b6b5 abbd 030b 0ebd
00000270: 944f f7bd 2529 463e 8cef 01be d669 173e
00000280: 1e52 e03d 07f1 3ebe 79cd 65be 40d6 29be
00000290: 44a0 6ebe c9e8 543e 7ad6 37ba db57 67be
000002a0: cacb 9bbe a8c7 e1bd 03a0 89bd 4d25 2abe
000002b0: 0f5b 03be 16e8 883e 8659 223e ace6 7f3e
000002c0: c4bf 3cbd ec33 183e ac88 91bd 0531 413e
000002d0: 9ce8 773e 85a3 14bd 0a15 673e 3bd2 6d3e
000002e0: 0115 67be 199d 0c3e 0087 323e 9a8b 8bbe
000002f0: 6ee2 8bbe 75ba 53be d57f 22bc 11ec 98bd
00000300: 754f ba3d 2a6a 19be 0ba1 a2bd e43c 0abd
00000310: bc5f 1dbd 3c41 333e 05c0 983b aaac 0dbe
00000320: 7b7d e83c 7232 133e 362f 9bbd 729b 41be
00000330: 1f26 72be e3de 51be 0310 96be 0f1a e6bd
00000340: 2411 153e c715 3dbe cd44 7c3e 771d 7dbd
00000350: d860 243e 96d8 2c3d 339a 7fbe 6632 8f3e
00000360: d098 0b3e bd0a cebd 286c 533c 4f1c a3bc
00000370: dc9d ce3d 556a 9cbe 47ed 163d c697 a13d
00000380: fd4d 09bc c354 f13d d332 70bd 991c 693e
00000390: 4722 22bd 83be f0bd 8bf9 ccbd ecdb 34be
000003a0: 46ea f3bd 439e 53be e436 5ebe f7a0 1bbd
000003b0: c294 d83d 4365 1fbe 0ace b3bd fdc3 ef3c
000003c0: 4459 323e 9dfc 99be 1eb4 97bd b352 403e
000003d0: 2922 ad3e 2446 fe3d 8eb3 3c3e 96a8 0abe
000003e0: 13b5 f93c a78a c23d 90dd 15be 1b10 babe
000003f0: 6625 aebd 4b5c cdbc c02a 9abe 239b 0e3e
-0.013271753 -0.14893067 0.14589626 0.19098778 0.053379837 -0.08544487 0.0124015855 -0.18711466
-0.12441748 -0.011045734 -0.06868136 -0.1763569 0.0092212465 -0.03242764 0.12501109 0.23721543
0.13374737 0.043226738 0.0005300132 -0.17889823 -0.13709201 0.20275784 -0.19419941 0.22638226
0.08467902 -0.030771144 0.02324774 -0.07898754 0.03341187 -0.336341 -0.08628993 -0.18123858
-0.11954199 -0.18515293 -0.11319589 -0.03394207 -0.24532308 0.13430342 0.18903276 -0.13531081
0.051968087 0.09951763 0.12591216 0.04022955 0.15318762 -0.2157161 0.17206776 -0.26398557
-0.18219367 0.17060648 -0.071257055 -0.39244592 -0.052971162 -0.10417028 0.2244486 -0.082916886
-0.12090908 0.21056756 0.014164547 0.0007728278 0.29736096 0.30061817 0.15658087 -0.13665861
0.010975138 -0.20356151 0.15479659 -0.101123855 0.030408522 0.24451795 0.16089241 -0.21476212
0.060042948 -0.042765558 -0.22536382 0.23528494 -0.0031852066 -0.14721508 0.0043904856 -0.1105341
-0.12945032 0.21882468 0.18767929 0.1545127 0.029354272 -0.03901726 0.13586149 0.04969712
0.029733483 -0.18554676 -0.23001502 0.22837251 0.13548955 0.26327112 -0.030182661 -0.19437854
-0.25426623 0.30309147 -0.09296777 0.101743504 0.04294382 -0.0025691374 0.0019074026 -0.057457555
-0.28475675 -0.1499634 0.26232347 -0.13003731 0.20969984 0.17445725 0.24244824 0.00087390834
-0.08684794 0.016804053 0.098093264 0.14270662 0.23088469 0.092982754 -0.27425846 0.25439325
0.2096201 -0.027009776 0.016091095 -0.16885288 -0.107469216 0.10070391 0.08184549 0.12339619
-0.09737019 -0.076924756 -0.17535016 -0.019290166 -0.18749608 -0.09517161 -0.0934465 -0.27341115
-0.059415873 0.25790977 0.2436174 0.19633266 -0.15316431 -0.06877929 -0.15875572 0.10240673
-0.18041779 -0.11537275 0.104215264 -0.35215026 0.15745744 0.12697275 -0.1968115 0.25804284
0.25588572 -0.19233803 -0.08384268 -0.03467847 -0.12075725 0.19351633 -0.12689036 0.14786467
0.109531626 -0.18646632 -0.22441663 -0.16585636 -0.23303324 0.20791925 -0.00070128555 -0.22592108
-0.30428916 -0.110244095 -0.06719973 -0.16615792 -0.12827705 0.26739568 0.15854463 0.24990338
-0.04608132 0.14863557 -0.07106146 0.18866356 0.24209827 -0.036288757 0.2256662 0.23224728
-0.22566606 0.13731803 0.17434311 -0.27254945 -0.2732119 -0.20676596 -0.009918173 -0.07466901
0.090971865 -0.14981905 -0.07940873 -0.033749476 -0.038421378 0.17505354 0.0046615624 -0.13835397
0.028380146 0.14374712 -0.07577364 -0.18906954 -0.23647355 -0.20495181 -0.2930909 -0.11235439
0.1455732 -0.18465339 0.2463562 -0.061795678 0.16052568 0.04219874 -0.24961166 0.27968138
0.13632512 -0.10060642 0.012904204 -0.01991096 0.10088703 -0.30549875 0.03684738 0.078902766
-0.00838041 0.11783745 -0.05864222 0.22764815 -0.03958347 -0.11755087 -0.10008534 -0.17662019
-0.119099185 -0.20665841 -0.21700627 -0.037995305 0.10575248 -0.15565972 -0.08779533 0.02926826
0.17416865 -0.3007554 -0.074074015 0.18781547 0.33815125 0.12415722 0.1842787 -0.13540873
0.03048185 0.09499102 -0.146353 -0.36340412 -0.08503227 -0.025068423 -0.3011074 0.13926367

blocks.0.1.bias f4 [16]
00000000: 567c 33bd 2163 84be 4565 6cbd 5449 4c3e
00000010: d356 933d 3500 55be f3f4 803e 9c57 1ebe
00000020: 2adf d7bd 1aa5 163e b19e 6bbe dbb4 1f3d
00000030: fef4 1bbc 7595 2a3e c899 843d 5887 c73c
-0.043819748 -0.2585688 -0.057713766 0.19949847 0.07194295 -0.2080086 0.2518688 -0.15463108
-0.10540612 0.14711419 -0.23009755 0.038990837 -0.00951886 0.16658576 0.06474644 0.02435653

blocks.1.1.weight f4 [16, 16, 1]
00000000: 4934 92be 9897 37be d11f 64bd f17c 7abe
00000010: 7914 803e 013e 6dbe 077e debd d444 4a3e
00000020: 1199 52be 5d4d 8b3e 093a e4bd 3671 19be
00000030: 668b 603c 4d5b 74be 6535 debd de1d a4bd
00000040: 7e37 a2be 7c7e 80bd e629 aebb 0382 8ebe
00000050: bc04 cdbc a48e d5bd 1be1 69bc fa38 a0be
00000060: f392 44bd 52eb 473e 59d9 84bc c112 81be
00000070: ad3b 4dbd 5272 9cbd f7c4 99bd dc08 c03e
00000080: 9bd7 1ebd d3a3 6d3e d79c 2fbe 781b aebd
00000090: 4db4 153e 22b5 f33d ebc6 6ebd da24 55be
000000a0: 4447 813e e908 2cbd 6ddc cf3d d67f 98bc
000000b0: 25b4 273d f5dd 2b3e 6021 803e 53a0 c03d
000000c0: 071b 1e3e ae8b 0ebe 0fb0 903e 9f01 a53e
000000d0: 1052 273d 1d82 94bc 834e b0be 2350 823e
000000e0: d198 b03c b1f5 ca3d 7d30 403e 3b35 08bd
000000f0: 4150 853e abb8 f9bd 5b0f 0ebe 615f 8cbe
00000100: 83fd 1ebe 63a3 f73d 8a9c 78be 40fe 73be
00000110: 9f76 50be 5248 bd3d 669c a23d 0ffc 653e
00000120: c62a 51be 3dd2 4abe bbb5 e5bc fefb 83bd
00000130: d556 eebd 201c a23d 3561 45be 7d37 083e
00000140: f832 473d 691d bdbd 9972 84be 75a0 04be
00000150: 230a 76be e099 4abe a866 393e ded7 1bbd
00000160: bcd3 67be 0567 a73e adac 193e 97dd 45be
00000170: 3a58 283d 1094 14be d66a f7bd bd4e 64be
00000180: 8fea b63d 1f85 09bd 4d4f bbbd 3bb5 813e
00000190: ba84 b9be 0604 ef3d 6e10 d63d ef71 5c3e
000001a0: c414 973e 307b 573d f427 14be f871 a83c
000001b0: 8345 823d 0b76 8ebd d43b 76bd 685f f1be
000001c0: 729c 093e 234e 00be ed27 6bbe 7037 0abe
000001d0: c193 693e 3e67 28be d0d8 2f3e 0f11 1dbe
000001e0: c78f b0bc 8501 15be fef7 69be bf16 97bc
000001f0: a4fd 7cbe e7e4 4fbe 2f16 65bc 16f3 003e
00000200: a535 4e3e fa26 a1bd 186b 403d 5d99 5d3e
00000210: a7f1 52bd 5ad2 183e e1c3 4fbe bec6 0b3e
00000220: 24f7 303c a133 483d 5258 e63c 5068 1c3d
00000230: 933a 15bd dc7d a3bd 8282 6f3e 346a 183e
00000240: e79a 71bd 0eda 26be e0dc 03be 9135 09be
00000250: 7cac e83b d9fb abbc 3bc9 463e b845 6bbd
00000260: 2326 40be 16d2 303e 9908 2cbe 639e 0f3c
00000270: 8eba 88be 04a5 91bb 634c 29bd 0e5c 37bd
00000280: dc63 adbd d361 1c3c d0f5 bc3d 9738 8dbe
00000290: 90e3 523e 4ca3 8b3d 84a2 793d 1279 d4bd
000002a0: be97 e2bd 8cbb 30be db48 00be 74cd c7bc
000002b0: 5dee 313e 85d6 5cbe c8da b63d 4615 41be
000002c0: 9ec7 c93d 0d15 8fbe 7b70 783d 6d6c 07bd
000002d0: 9030 cf3c d1f6 f93d b69a 25be 03fc 133d
000002e0: 6381 7fbe 17ee c8bd 5a3e 60be c2c4 0b3d
000002f0: e262 04be 9bb3 f1bc d4d2 c93a 49ae f7bd
00000300: 067f 44be 3c3a 163e 99c5 75bc 3f9e 193e
00000310: d018 173e 885d bcbc 9072 bfbc ee8b ce3d
00000320: 19b3 95bd a72a d0bc bc35 013c 184c c5bd
00000330: 5134 833d c897 4dbb 3910 64bd aec5 083b
00000340: b432 203d c820 e73d 5bc1 b63c aa9b a03d
00000350: 2f92 9f3e aa7f d53d 1a1b 1cbd bf0b 55be
00000360: 2cd0 17bd c650 10be 051f a0bd da3c 8e3d
00000370: f90c 02be 8b27 9cbc 36b9 573e b96f 173e
00000380: b744 793d 13aa 493e 002d 64be d29e 403e
00000390: 6d86 5b3e b71d 0b3e 7fbc e93d 1063 7d3e
000003a0: 9329 97bb 45a2 583d 3273 5a3d 4e17 1fbc
000003b0: d022 373e 0551 26be c5e6 163e ce33 73bd
000003c0: 8f34 c4bc 7a6b aa3d 7243 803e 59cb ab3d
000003d0: 1ccd adbd 01e8 633d e145 523e 8a9a f0bd
000003e0: 6c30 a8be 8002 ccbe bbf8 323d 2f86 20be
000003f0: 68c0 d5be 6701 b6be c178 e0bd 2fc1 1e3d
-0.28555515 -0.17928922 -0.055694405 -0.24461724 0.2501562 -0.23168184 -0.108638816 0.19752818
-0.20566203 0.2720746 -0.11143882 -0.14984593 0.01370511 -0.23862953 -0.10850028 -0.08013509
-0.31682962 -0.06274125 -0.0053150533 -0.27833566 -0.025026672 -0.10427597 -0.014274861 -0.3129347
-0.047991704 0.19523361 -0.01621692 -0.2520962 -0.05010574 -0.07638992 -0.07508271 0.3750676
-0.038779836 0.23207025 -0.17149673 -0.08501333 0.1461956 0.11899783 -0.05829517 -0.20814839
0.25249684 -0.042000685 0.10149465 -0.018615644 0.040943284 0.16783889 0.25025463 0.094055794
0.15439998 -0.13920471 0.28259322 0.322278 0.040849745 -0.01812845 -0.344349 0.25451764
0.021557244 0.09910143 0.18768497 -0.03325389 0.2603779 -0.12193426 -0.13873045 -0.27416518
-0.15526395 0.120917104 -0.24278465 -0.23827457 -0.2035775 0.0924231 0.07939987 0.22459434
-0.20426473 -0.19806762 -0.028040757 -0.06444548 -0.11637656 0.07915521 -0.19275363 0.13302417
0.048632592 -0.09234125 -0.2586868 -0.12951834 -0.24027304 -0.19785261 0.18105567 -0.038047664
-0.22639364 0.32695785 0.15007277 -0.19322811 0.041099764 -0.14509606 -0.12080924 -0.22295661
0.08931457 -0.03357422 -0.09145985 0.2533358 -0.36234075 0.11670689 0.104523525 0.21527837
0.2950803 0.052607715 -0.14468366 0.020562157 0.063609146 -0.06956109 -0.06011565 -0.47143102
0.13438585 -0.12529807 -0.22964449 -0.1349771 0.2281027 -0.16445634 0.17172551 -0.15338539
-0.021552933 -0.14551361 -0.22848508 -0.018443463 -0.24706131 -0.20302163 -0.01398234 0.1259273
0.20137651 -0.07868762 0.046977133 0.21640535 -0.05149999 0.14923993 -0.20289566 0.13650033
0.01080111 0.048877362 0.028118286 0.038185418 -0.036432814 -0.0798299 0.23389629 0.14884263
-0.058985617 -0.16294119 -0.12877226 -0.1339934 0.00710064 -0.020994114 0.19412701 -0.057439536
-0.18764548 0.17267641 -0.16800155 0.00876579 -0.2670483 -0.00444472 -0.041332614 -0.044765525
-0.08466312 0.0095448075 0.092265725 -0.27582237 0.2059462 0.06818256 0.060946003 -0.10374655
-0.11064099 -0.17259043 -0.12527792 -0.02438996 0.17376085 -0.21566208 0.08928448 -0.18855771
0.09852527 -0.27945748 0.060654145 -0.033062387 0.025291711 0.122052796 -0.16172299 0.03612901
-0.24951701 -0.09811037 -0.21898785 0.03412319 -0.12928346 -0.029504588 0.0015397915 -0.12093789
-0.1918908 0.14670652 -0.015000724 0.15001772 0.14755559 -0.022993818 -0.023370057 0.10085283
-0.07309551 -0.025410963 0.007886346 -0.09633654 0.06406463 -0.0031370986 -0.055679534 0.002086978
0.039110854 0.112855494 0.022308996 0.078421906 0.31166217 0.104247406 -0.038111784 -0.20805262
-0.037063763 -0.14093313 -0.078184165 0.069452 -0.12700261 -0.019061824 0.21066746 0.14788713
0.060856547 0.19693784 -0.22282791 0.18810585 0.21437998 0.13585554 0.11412906 0.2474482
-0.0046131103 0.052889127 0.053332515 -0.009710146 0.17884374 -0.16241844 0.14736469 -0.059375577
-0.023950843 0.08321281 0.25051457 0.08388395 -0.08486387 0.055641178 0.20534469 -0.11748226
-0.32849443 -0.39845657 0.04369424 -0.15676187 -0.41748357 -0.35547945 -0.10960532 0.038758453

blocks.1.1.bias f4 [16]
00000000: a1e1 e43d 83dc 323e 4fb8 2f3e 2e22 40bd
00000010: 6ec1 2f3e f3fa 41be a562 e6bd 3293 8d3d
00000020: 85ee b0bc 586c e83d 6ead ff3b 2659 d2bd
00000030: c407 62be a8ce 103e 87c0 1c3d 6749 283e
0.11175848 0.17466931 0.17160152 -0.046907596 0.17163631 -0.18943386 -0.11249284 0.06912841
-0.02159811 0.1134879 0.007802657 -0.1027091 -0.22073275 0.14141333 0.038269546 0.16434251

blocks.2.1.weight f4 [16, 16, 1]
00000000: dec8 f2bd d529 06be 0e86 48be 1144 c5bd
00000010: b11a 653d 970a 9c3d 4845 9f3e c30e 4f3e
00000020: de96 bebd 6678 3fbe 7470 14bd ca57 8abe
00000030: f40a 4b3e fe42 3bbe 29b1 553c 9a09 93be
00000040: 89db 28be 377f da3d 9a57 843e 3d1d f7bd
00000050: 9203 04be 9be5 ccbd 15ab 06be f065 65be
00000060: 8e22 113e 83bf 2abe 4854 193e bcce 6fbe
00000070: ba78 693e 501a 42be 7aa2 1dbe 0896 5e3b
00000080: 3831 d9bb 56cd f0bd f47f 20be c851 b5bd
00000090: c5d5 913e ee68 07be eee1 87bd f2c5 acbd
000000a0: 86dd 353e 3c91 423e d0dc 68be 6062 3c3d
000000b0: e319 473e 860f 29be 40b5 713e a4a9 6f3e
000000c0: 8074 823e 397f 853e 0376 cfbc 35b6 d13e
000000d0: 2278 b83e ad4b 26be 8d95 03be 6081 913d
000000e0: d735 843d b50f ae3d 3bf4 f1ba d2ab b0bd
000000f0: ee58 a5be 6c63 5c3e fe9b 263e f1e6 803e
00000100: 7ef3 ffbd 14d5 e5bb 4470 e4bc 92ee 6d3e
00000110: f0ee 3e3e e3dd 6cbe 9e7a 2f3e e63e 86be
00000120: 1b5d 983e 1740 c33d eca2 fc3c c02c 103e
00000130: c707 5a3e 817b 003e 758f 9e3c 2e26 673e
00000140: c81e 9d3d 5253 743d f44f da3d 90b8 793e
00000150: cc4f 473e 6e20 f33d 34f8 e33d bd0b e2bc
00000160: 5723 953e a0b0 0f3e f68a 8c3d 1d7b 7bbe
00000170: 9bd5 713e 5907 293e 4434 d43d e49d 073c
00000180: 6493 263e 7d58 8a3e 0cc6 143e 986a 443e
00000190: 48e0 353d 0e33 1ebe 3862 3c3e 9706 9b3e
000001a0: 9a0a 7cbe 3be9 f83d e7b9 b5ba 54cf 723e
000001b0: 8fa9 da3d 8fd4 a33e 202a 47be 4b11 173d
000001c0: d87f 1c3e a345 7cbe 34bd 04be 5b82 38be
000001d0: 6f0f d83c 501c 69bd 4cb9 8bbd 5e8b 6cbe
000001e0: 51ca 85be e9e1 ffbd b7e0 343d c5be 383d
000001f0: 4a65 9b3d f965 05be 01a1 9ebd 50fb adbd
00000200: 3ae6 26be d6c8 f7bd 9f26 373e 4198 4a3b
00000210: 9ef4 c83b 5813 78be 8610 013e 3d2a cabd
00000220: d2c6 33be 3b92 4fbe c9fd d9ba f951 a93c
00000230: 360f 99bd cbc9 1fbe 5e36 ba3c e148 833d
00000240: 4782 aebd 4a4f 3dbe cf2d bb3d 392a 5f3e
00000250: bfc7 0c3e 44d8 04be ca15 b6bd 5e9c 88bc
00000260: 5ba7 c73d 3d1c 983d 71e9 0b3d 6fb2 bd3c
00000270: 16fc 7abe 60f4 04be 3e59 54be 7d26 263e
00000280: 9ebc 46be 979f 333e c58e 863e fdb7 05be
00000290: 306c b33c 29a9 a73d 6271 bb3e 1674 9e3c
000002a0: 8508 81bc 4aee 17be ad36 8ebd f555 b6bc
000002b0: 34d1 4ebe 7bda 723d 6e75 313e 1dfe debd
000002c0: bde0 d33d fab2 433e 62f4 09bb 1748 febd
000002d0: 6c4f 853d 4845 3b3e a85d e5bd 9180 37be
000002e0: accc 80be 9fbc 513e 472e 053d 942c 83be
000002f0: 07e1 463e 0b05 a2bd 3f65 223e 9a0c 47bd
00000300: bd9b 393b bb4e 48be bf1e 963e 9de9 5ebe
00000310: 3f98 65be 768f 603e 9fde 8c3d f223 57be
00000320: 5cdd 92be 7fac 32bd d800 813e baf3 8bbe
00000330: a661 25be 8915 853c d201 d0bb 80ea 6bbe
00000340: 49e2 45be 254d 89be 3b06 813e 0ba7 583d
00000350: 0d18 34be f6cf 5c3e 4945 9b3c 90db 243e
00000360: 630a 7f3e 948e e8bc c25a 5e3d f393 223e
00000370: 9d71 993e 81b6 66be 3bcf 87be d91b 5f3c
00000380: 393f 723e b33b 613d 9bf8 8cbe 435e 603c
00000390: c7f3 34bd 4142 50be beb0 e53e dd26 383e
000003a0: 171c 3b3d ae53 7fbd 2352 ed3d a4d2 43be
000003b0: a961 193e e8d9 a4bd a48e 7ebd 2e23 1dbe
000003c0: a9a3 58be 07c1 ee3d e105 c8bd a30a a5be
000003d0: 4c94 6dbe d442 bc3c aba6 c8bb ebd1 aa3d
000003e0: 424b 32bf 7a3e 94bd 6ddd b4bd bc67 c03d
000003f0: f75a 893e 5aba 7c3d 3200 c2bc 1a08 1ebd
-0.118547186 -0.13101895 -0.19582388 -0.09632123 0.055933658 0.07619207 0.31107545 0.20220475
-0.093061194 -0.18698272 -0.036240056 -0.27020103 0.19828397 -0.18287274 0.013042727 -0.28718263
-0.16489996 0.106687956 0.25848085 -0.12066124 -0.12891987 -0.10004731 -0.131512 -0.22402167
0.14173338 -0.16674618 0.14973557 -0.23418707 0.2279996 -0.1895535 -0.15394011 0.0033963937
-0.006628182 -0.11757915 -0.1567381 -0.08853489 0.28483406 -0.13223621 -0.066348895 -0.084361926
0.17760286 0.19000715 -0.22740483 0.045992255 0.19443469 -0.16509828 0.23604298 0.23404557
0.25479507 0.26073626 -0.025324827 0.40959325 0.36029154 -0.16239806 -0.12850018 0.071047544
0.06455582 0.0849909 -0.0018459627 -0.08626522 -0.3229441 0.21522301 0.16270444 0.25176194
-0.12497614 -0.0070139263 -0.027885564 0.23235539 0.18645835 -0.23131518 0.17136618 -0.26219863
0.29758534 0.095337085 0.030839406 0.14079571 0.2129203 0.12547113 0.019355515 0.22573158
0.07671887 0.059649773 0.10659781 0.24386811 0.19464034 0.1187142 0.11131325 -0.027593488
0.29128525 0.14032221 0.06862442 -0.24558683 0.2361664 0.16506709 0.103615314 0.00827739
0.16267163 0.27020636 0.14528674 0.19181287 0.044403344 -0.15449163 0.18396842 0.30278465
-0.24613419 0.1215386 -0.0013864607 0.23711902 0.10676872 0.31998107 -0.19449663 0.036881726
0.15283144 -0.2463594 -0.129628 -0.18018477 0.026374547 -0.056911767 -0.06822452 -0.2310004
-0.26130918 -0.12494261 0.044159617 0.045103807 0.07587679 -0.1302718 -0.07745553 -0.084952
-0.16298762 -0.12098853 0.17885827 0.0030913504 0.0061326763 -0.24226129 0.1260396 -0.098713376
-0.17556313 -0.20270626 -0.001663142 0.02066897 -0.074736044 -0.15604322 0.022731002 0.06410385
-0.08520942 -0.18487278 0.09139597 0.2179345 0.13748072 -0.12973124 -0.08890875 -0.016676124
0.097487174 0.07427261 0.034158174 0.023156373 -0.24510226 -0.12983847 -0.20737168 0.1622562
-0.19407889 0.17541347 0.262808 -0.13058467 0.021902174 0.081865616 0.36609942 0.019342463
-0.015751133 -0.14836994 -0.06944022 -0.022257784 -0.20196992 0.05929039 0.17329952 -0.10888312
0.103456 0.19111243 -0.0021050205 -0.12416094 0.06509289 0.18288147 -0.11199504 -0.17920138
-0.25156152 0.2048211 0.032514837 -0.25619948 0.19421779 -0.07911118 0.15858935 -0.048596002
0.0028321587 -0.19561283 0.29320332 -0.21768804 -0.22421359 0.21929726 0.06878399 -0.21009806
-0.2868451 -0.043621536 0.25195956 -0.27334386 -0.16150531 0.01624562 -0.0063478732 -0.23038673
-0.19324602 -0.2681667 0.25200066 0.05289368 -0.175873 0.21563706 0.018953936 0.16099381
0.24906306 -0.028388299 0.054285772 0.1587675 0.29969493 -0.22530557 -0.26525292 0.013617479
0.2365693 0.054988574 -0.2753342 0.013694349 -0.044177797 -0.20337774 0.44861406 0.17983575
0.045681085 -0.062335663 0.11587932 -0.19123322 0.1497866 -0.08049375 -0.06214775 -0.15345451
-0.21156181 0.11657911 -0.09766746 -0.32234678 -0.23201102 0.022981085 -0.006123384 0.0834082
-0.69646084 -0.07238479 -0.08831296 0.09394786 0.26827213 0.061701156 -0.023681734 -0.038581945

blocks.2.1.bias f4 [16]
00000000: bbdd 643c da0b 70be b98a 6f3c 493d 9abd
00000010: 6483 84be 1ecf 7bbe 4388 8c3d 6f16 c9bd
00000020: ce4e 1f3d 9ca8 03be cd12 04be 7371 2c3e
00000030: 1557 5cbe 64f0 2ebd c179 42be f3ad 4f3d
0.01396888 -0.23442021 0.014620476 -0.075312205 -0.25881493 -0.24590728 0.06861927 -0.09818732
0.038893513 -0.12857288 -0.12897797 0.16840152 -0.21517594 -0.042709723 -0.18991758 0.050703

blocks.3.1.weight f4 [16, 16, 1]
00000000: 8dc7 51be 0f5e 35be b1d5 713e bc78 82be
00000010: 2610 753d 042d db3d 1f27 30be 5850 8bbe
00000020: 55c2 1a3e 4d9b 49be 7b3e b03e 1e2e 913e
00000030: 3864 1a3d 74ca 3dbe 5c2a 54be 6014 e03c
00000040: 28ea 4bbe 37ed 58bd 19af 2c3e 6a75 e13d
00000050: 2cf6 c83d bb4f 44be 206a 5a3e ee7a 2fbe
00000060: 75ae 80bd 8901 e93e 818b 1d3e 71c3 81bd
00000070: ffd7 583e 816d e4bd 7968 2abe 1e79 863c
00000080: e345 3e3e 496c 81be 7b6e 5fbe dc69 483e
00000090: 111d a33d 8648 90bd 0324 f43c 3f6c dbbd
000000a0: 6c68 20be 7c97 273e d03f 41be ef1f 6cbd
000000b0: f783 b5bd 5906 a63c c3d7 1c3e 9576 ff3d
000000c0: 4875 8e3d 56b7 41be a32a 62bd 928a db3c
000000d0: a477 923e 7548 573e 9a57 933c 7aba 323e
000000e0: d249 00be 67d1 57be ff9f 1dbe 2e65 4cbe
000000f0: 16e7 2dbe 4d30 3dbe c0e2 803e 53eb ee3c
00000100: 81a9 1abe 6160 3c3e eb97 973d 1b3a df3d
00000110: 4b21 afbd 0276 6b3e 2d7e 123e 1252 363e
00000120: 7349 e93d 299f 913c 296f 10be 6849 983d
00000130: 5aa1 fa3d 7f03 463d a4a4 143e 54c5 d8bd
00000140: a569 4cbd b224 433d aba9 c3bd 75b3 8d3d
00000150: 1b49 06be 0539 37be 1525 b1bd 187d 7e3d
00000160: 82f6 3fbe c11e 14be 9758 dcbd 7b26 363c
00000170: 00eb 6b3e 22d9 643e bf0d d6bd b30f 6ebd
00000180: 8ead f93d 3b45 c83d 94ef 863e c911 aabd
00000190: f0e9 b6bd 4652 86bd 70a2 9abc e22e f2bd
000001a0: 4547 72be 253a efbe 023c 813e 7855 bbbd
000001b0: d4b9 febc 7e2d 80bc 90f9 513e 2612 52be
000001c0: 8a45 cebd 6eaf cc3a 48ef a4bd e762 d8bd
000001d0: 0f39 9bbe 51da c63c 3367 05bc 24b8 9bbe
000001e0: 7415 883e 0a40 bb3d 0013 a3bd 3de8 8c3d
000001f0: 8544 233e 3568 8d3e 9a20 10be 2a37 5a3e
00000200: b74d 33be bcfd adbc 498f 27be aad2 b43d
00000210: 840c 5f3e 3b08 383d 583a d9bd 9044 683d
00000220: c4c3 bdbd be99 663e 225e 35bd af1e 4dbd
00000230: 6723 c93d d054 62be f535 bf3d 6565 4cbe
00000240: 498a 433e ec04 393e 45a8 16be b9eb 3dbe
00000250: 036b 50be 5023 6d3e 4ffd 673e bf0e 4cbe
00000260: 94c8 0c3e 022e ac3c b242 0d3e 0de5 463e
00000270: 0ff1 cb3d 55f3 013e 8201 63be 28f9 63be
00000280: 6bf1 1fbe 30e8 7e3e a979 fe3c 3bad 66be
00000290: bbc2 4c3e aab2 ccbd 549e 6f3d 41eb a3bd
000002a0: dda2 183e e946 04be ddf5 27be 2469 42bd
000002b0: 878f 143e cadf da3d 1a0d 0b3e cb4a afbd
000002c0: e1bf f03d f99a 673e b02a 1f3e af11 88be
000002d0: fe7d 72be 61d0 60be 4a0d 6b3e a917 e2bd
000002e0: f62d 1b3e 85ae 39bd 9dc9 863e 2b21 57be
000002f0: 008e 463e 998c 523d 3897 02bd 942c f7bd
00000300: fac6 1c3e 0e33 06be 2cd5 dd3d 003f 663d
00000310: 6c88 373e 7b13 62be 4309 233e d8e1 dd3c
00000320: 6d2d 683e 7ed5 b33d e6fc 0bbe a638 fdbc
00000330: aa6c e5bd 237d 3b3e 382a 373d 253b 333d
00000340: 4f84 b33d a8f1 40bd 6650 993c 179a 413d
00000350: 27f6 1dbe b688 6e3d c983 853e 70a2 be3d
00000360: a784 4bbe cc56 4a3e 01c8 853e f42a 823d
00000370: ba6b 0d3e 05c2 6c3e de69 03bd de49 94bd
00000380: f0a7 0b3e 3a08 28be fbfc 693e 537e d3bd
00000390: 908b 5a3e b30a ed3c 316a c33d dcd1 513e
000003a0: b8a4 07be 5495 60ba 7873 b03d f497 663d
000003b0: 4287 6bbe 59bc 373e abd8 0dbd 7efd 57be
000003c0: df3a 533e 6904 903d ebd5 61be 2762 4d3e
000003d0: 01f2 443e 55df 153e c438 563e 53dc 8cbd
000003e0: ab05 45be 71b6 a53e 54ce 1b3e 07f6 c0bc
000003f0: c6b6 d33d 57ff 333e d1cd 9ebd 5a53 8b3d
-0.20486279 -0.17711662 0.23616673 -0.25482738 0.059829853 0.107019454 -0.17202424 -0.27209735
0.15113194 -0.19688149 0.3442267 0.28355497 0.037693232 -0.18534261 -0.20719284 0.027353466
-0.19913542 -0.0529606 0.1686367 0.11008723 0.098125786 -0.1917104 0.21329546 -0.17136738
-0.06283275 0.45508984 0.15385248 -0.063361056 0.21176146 -0.11153699 -0.16641416 0.016415175
0.18581347 -0.25277928 -0.21819489 0.19571632 0.07964528 -0.07045083 0.029802328 -0.10714006
-0.15664834 0.1636638 -0.18871999 -0.05764764 -0.08863061 0.020266699 0.15316682 0.124737896
0.069559634 -0.18917593 -0.055216443 0.026799474 0.28606904 0.21023734 0.017986108 0.17453948
-0.1252816 -0.21075974 -0.15393065 -0.19960472 -0.16982684 -0.18475457 0.25172997 0.029164946
-0.15103723 0.1839614 0.07402023 0.108997546 -0.08551272 0.22994235 0.14305945 0.17804745
0.113909625 0.017776089 -0.14104904 0.07435876 0.122378066 0.048343178 0.1451593 -0.10584512
-0.049905438 0.047642417 -0.09553846 0.06918994 -0.13113825 -0.17892845 -0.08649651 0.062131017
-0.18746379 -0.14464857 -0.10759085 0.011117573 0.23038864 0.22348455 -0.104518406 -0.05812044
0.12191306 0.0977883 0.2635466 -0.083041735 -0.08931339 -0.06558661 -0.018876284 -0.118253484
-0.2366 -0.46724048 0.25241095 -0.09147161 -0.03109447 -0.015646692 0.20505357 -0.20514736
-0.10071857 0.0015616247 -0.08053452 -0.10565739 -0.3031697 0.024274023 -0.00814228 -0.30413926
0.26578867 0.09143074 -0.07962608 0.068802334 0.15944107 0.27618566 -0.14074937 0.21310106
-0.17510115 -0.021239154 -0.16363253 0.088292435 0.21782118 0.044929724 -0.10606831 0.05670601
-0.09265855 0.22519585 -0.044279225 -0.05007809 0.098212056 -0.22102666 0.09336463 -0.19960554
0.1909572 0.18068284 -0.14712627 -0.18546952 -0.20353322 0.23158002 0.22655223 -0.199275
0.1374839 0.021018032 0.13794973 0.19423313 0.09958088 0.1269048 -0.22168544 -0.22263014
-0.15619437 0.2489326 0.031063871 -0.2252702 0.19996159 -0.09995015 0.058500603 -0.080038555
0.14905877 -0.12917675 -0.16402383 -0.04746355 0.14507876 0.106872156 0.13579217 -0.085591875
0.11755348 0.22617711 0.15543628 -0.26575992 -0.23680875 -0.2195449 0.22954288 -0.11039669
0.15154251 -0.04533245 0.26325694 -0.21008746 0.19390106 0.051403616 -0.031882495 -0.120690495
0.15310279 -0.13105413 0.10831675 0.056212425 0.17923135 -0.22077744 0.15921502 0.02708523
0.22673579 0.08780955 -0.13670692 -0.030910801 -0.11202367 0.18309455 0.044717997 0.043757576
0.0876547 -0.04710546 0.018715095 0.047266092 -0.15425931 0.058235846 0.26077107 0.09308326
-0.19874822 0.19759673 0.26129153 0.06355849 0.13810626 0.23120888 -0.032083385 -0.072406515
0.13638282 -0.16409388 0.2285041 -0.10326829 0.21342301 0.028935766 0.09541739 0.20490211
-0.13246429 -0.00085671735 0.08615774 0.056297258 -0.23000816 0.17942943 -0.03463046 -0.21092793
0.20627926 0.07032091 -0.2205426 0.20056973 0.19232942 0.14635976 0.20920092 -0.06877961
-0.19240443 0.32365754 0.15215427 -0.023554815 0.10337596 0.17577873 -0.077541 0.068030074

blocks.3.1.bias f4 [16]
00000000: 7b51 65be 9097 06bd 1746 723e 3279 633e
00000010: 0862 173d e69b 4dbd e9a3 bd37 3f37 eb3d
00000020: 4422 f63d 9d1c 93bc 5ace e6bc 866f 21be
00000030: db8e f1bd 60be 83be e246 11be 31fb 203e
-0.22394364 -0.032859385 0.2365955 0.22214201 0.036958724 -0.050197504 2.2606882e-05 0.11485147
0.120182544 -0.01795798 -0.028174568 -0.15765199 -0.11794826 -0.25731182 -0.14187196 0.15720822

blocks.4.1.weight f4 [16, 16, 1]
00000000: 6573 9abd 0a64 18be cf11 433e 076e 0cbe
00000010: f84e 08be 8e66 623e b899 5d3e 3865 8cbd
00000020: 4a80 bb3d c0e4 38bd 7b91 d4bd 01e6 053e
00000030: 4c76 86be c007 ff3d f192 bc3d fe89 7abe
00000040: 0ae6 1c3d 87bd 45be 070d 84be 4cc8 8a3e
00000050: e722 48bd e2bf 5f3e f772 89be 9a59 273e
00000060: 3f24 f23c eea4 96be 0545 6e3d 4252 6dbe
00000070: fbc6 8bbe cf41 c73d f731 acbd d68b 8fbe
00000080: 6c82 723e f131 d93d 9d52 cebd 521c 95bc
00000090: 5c66 36be 9339 47be d6f3 98bd ecd1 313d
000000a0: cbc9 c83d 0f88 d43d 3ee4 9a3c 4112 25be
000000b0: 710f 7b3e aa48 d7bd 382f 6dbe 2033 83bb
000000c0: b56f 393e 9158 4b3c 4124 7a3e 7bfc 1f3e
000000d0: 5c8a b0bd d558 e13d fc6b b23e 6939 0fbe
000000e0: fb1b a5be c3aa 203e 94fd 973d 92b3 2e3e
000000f0: 2fd8 dd3c f6fe 373d a621 9bbe e4f4 8c3e
00000100: 8709 8d3d ff6b 22be b261 b43d fe6a 263e
00000110: 18e2 033e 075b 223e 9bc4 9e3d a014 3c3d
00000120: 8cb3 eb3d 673b f2bb 3855 c0bd 2f81 bdbb
00000130: 043a a03d 42d8 503e 6e1d 86bd 877f f8bd
00000140: 95ab 2cbc b4a9 5b3d c34f 02be b491 10be
00000150: 9402 1d3e 9af7 e63d 34f3 4cbe 0014 d43d
00000160: e581 2f3e a637 95bd 3c30 5f3e dc22 91ba
00000170: d424 043d d7af 123e e005 0f3e e79d 0abe
00000180: 149d a63e 6786 c13c b647 cc3d b1c7 d9be
00000190: 3005 4a3b ec33 b3be dd93 b13e b8e2 013e
000001a0: 7e6f 0a3e c2b5 2e3e 0089 45be d9f0 6b3e
000001b0: aee4 8c3d 46a1 2abe 1051 11bd 6517 063c
000001c0: 6fe5 84be c6fc 38bd 46f8 103e 6eb7 8d3e
000001d0: 3ba4 98be 80d1 6bbd 781b 2c3e bde7 c93d
000001e0: e81e 34be 6d89 9dbe 49a8 073e 14e4 14bd
000001f0: 3a37 41bd a1d3 13bb 8f09 833d ad17 c83d
00000200: 9bf0 f73c 8e35 643d 4a99 1fbe 42a3 eb3b
00000210: 58a5 2abe a2ab 9fbc bd25 043e bc9e 6dbe
00000220: ad84 22bd 06c1 32be a823 8cbd 9365 0b3e
00000230: 2329 b7bd 6c8f 7dbe f921 ea3d 08c8 9dbd
00000240: 1dca 47bc 7838 8abe 934d 0cbd 8ce0 f03c
00000250: ed5a e8ba b589 b83d c3cc f53c 7f2c 903e
00000260: 5bda 8dbd a38f 1a3e 15c7 143d 1fa6 75bd
00000270: df60 113e 199d 40bd 6f4e 6b3e 848f 0abd
00000280: f880 34bc 093a f0bd 4eb0 86bd bdf1 2bbd
00000290: 6930 4abe 5aed f5bc 8f7f 2f3d ad01 8dbd
000002a0: 4b04 c4bd a1be 4b3e 6f4e 3fbe 34a9 493d
000002b0: c220 83be ce87 ccbd 0c98 dc3d cf88 efbc
000002c0: a793 0e3e f59b f13d b1a5 85be 5c45 0e3e
000002d0: 7b21 6bbe 32ec 4cbd 5daa 3dbd e42a 203e
000002e0: 8fdc 623e 6845 82be 4736 4f3d 7372 543e
000002f0: a603 74be 658f 583e 2c0b 873d bd00 4ebe
00000300: 5a9d a53d 8d9d eebd 1416 dcbc 20d9 9d3d
00000310: 4485 e9bd 203f 323d 7f77 78bb fbc9 48be
00000320: a724 893e 42dd 273e dae7 d83d fe2d 69be
00000330: e4cd 933d 8ecb 0b3e 1b82 d73d 8d9c 023e
00000340: a4e6 0b3c 94c7 45be 18fb 3bbe 8eec ff3d
00000350: 2d52 93be cbcb a0bd 66d0 303e 76ff 183e
00000360: 1f36 abbd 2b86 26be 29bf 913d 24c0 8ebe
00000370: f742 51be dbd7 623e 96c7 aebd 6ea4 b23c
00000380: da5a 253e 7bcf 693e 2299 a4bd 702e fcbd
00000390: 9171 5a3e 5ddd 81bd 45f9 2e3e 24d0 dbbb
000003a0: a551 363e 99c4 9b3d 167d 2d3e 4474 cb3c
000003b0: 9720 113e 558f 123d ecf1 433d fd96 583e
000003c0: f82c 223d bff3 683e 709c 25ba c7f6 a5bd
000003d0: 3018 4cbe 31ce 353e 9881 97bd 1702 483e
000003e0: 5cc1 1dbe dc7a 393e d688 7b3e dd33 27be
000003f0: 07ed 693e e1f0 aa3d da1d 0d3e 3237 bc3d
-0.07541541 -0.14881912 0.19049762 -0.13713847 -0.13311374 0.22109434 0.2164067 -0.068552434
0.091553286 -0.045140028 -0.10379311 0.13076021 -0.26262128 0.1245265 0.09207714 -0.24466702
0.03830532 -0.1931058 -0.2579119 0.2710594 -0.04886141 0.21850541 -0.26845524 0.16342774
0.0295583 -0.29422706 0.05817129 -0.2317591 -0.27300248 0.09729349 -0.084079675 -0.28036374
0.23682564 0.10605229 -0.10074351 -0.01820198 -0.17812485 -0.19455557 -0.07468383 0.043413088
0.09804114 0.103775136 0.018907662 -0.16120245 0.24517609 -0.105119064 -0.23162544 -0.0040038973
0.18109019 0.012411253 0.24427892 0.15623657 -0.0862014 0.110032715 0.3484801 -0.13986744
-0.3224791 0.1569014 0.07421413 0.17060688 0.027080623 0.044920884 -0.3029911 0.27530587
0.06886583 -0.1586151 0.088076964 0.16251752 0.12879217 0.15855037 0.07752343 0.045918107
0.11508855 -0.007392335 -0.09391254 -0.005783222 0.078235656 0.20394996 -0.06548582 -0.12133699
-0.010538955 0.05362864 -0.12725739 -0.14118081 0.15333015 0.11277695 -0.2001465 0.10355377
0.17139395 -0.07286005 0.21795744 -0.0011073011 0.032261685 0.1432489 0.13967085 -0.13536797
0.32541716 0.023623658 0.09974615 -0.42535165 0.0030825846 -0.3500055 0.34683123 0.12684143
0.13519093 0.17061523 -0.19290543 0.23041095 0.06879555 -0.16663083 -0.035477698 0.008184289
-0.25956294 -0.04516294 0.14157209 0.27679008 -0.29812798 -0.05757284 0.16807353 0.09858654
-0.17589915 -0.3076891 0.1324779 -0.036350325 -0.04717181 -0.002255656 0.063983075 0.09770141
0.030266097 0.055715136 -0.15585819 0.0071910927 -0.16664636 -0.01949102 0.12905021 -0.23205084
-0.03967731 -0.17456445 -0.068427384 0.13612966 -0.08943393 -0.24761742 0.11432261 -0.077041686
-0.012194184 -0.26996207 -0.034253668 0.029403947 -0.0017727293 0.090106405 0.030004865 0.28158948
-0.069264136 0.15093856 0.036322672 -0.05997288 0.1419711 -0.04702482 0.22979139 -0.033828273
-0.011017077 -0.11729819 -0.06576596 -0.041978586 -0.1974503 -0.030020405 0.04284626 -0.06885085
-0.09571131 0.19896938 -0.18682264 0.04923363 -0.2561093 -0.0998684 0.10771188 -0.02924004
0.13923512 0.117973246 -0.26102975 0.13893646 -0.2296199 -0.05002994 -0.04630505 0.15641361
0.22154449 -0.25443578 0.050588872 0.20746784 -0.23829517 0.2114845 0.06593928 -0.20117469
0.08086653 -0.11651144 -0.026865996 0.07707429 -0.114023715 0.043517232 -0.0037913022 -0.196083
0.26785776 0.16392997 0.10591097 -0.22771451 0.07217005 0.13651869 0.105228625 0.12755032
0.008538876 -0.19314414 -0.18357503 0.12496291 -0.28773633 -0.078513704 0.17266998 0.149412
-0.08359932 -0.16262119 0.07116539 -0.27880967 -0.20435701 0.22152655 -0.08534162 0.021806922
0.16147938 0.22833054 -0.0803702 -0.12313545 0.21332385 -0.0634105 0.17087276 -0.006708162
0.17804582 0.076058574 0.16942248 0.024835713 0.14172588 0.035781223 0.047838137 0.21151347
0.039593667 0.22749232 -0.00063175615 -0.0810371 -0.19931102 0.17754437 -0.07397765 0.19532047
-0.15405792 0.18113273 0.24563918 -0.16328378 0.22844325 0.08346725 0.13780919 0.09190215

blocks.4.1.bias f4 [16]
00000000: 7a43 eebd e7ee 163b b8de fabd b9cb 683e
00000010: 3ffc 433e f352 293e dce8 3dbe c832 48bd
00000020: 3258 38be e6be 383e 2347 efbd 5b19 1c3e
00000030: f988 c4bc bef6 a0bc 3399 41be 4e2a 93bc
-0.11633964 0.002303058 -0.122495115 0.22733964 0.19139193 0.16535549 -0.1854586 -0.048876554
-0.18002394 0.18041572 -0.1168349 0.15244047 -0.023991095 -0.019648906 -0.18906097 -0.017964508

blocks.5.1.weight f4 [16, 16, 1]
00000000: 8c92 683d c87b d2bd 0b95 e5bd 96e2 093e
00000010: 2d3c 583e 0941 00be efcf ccbc 1224 87be
00000020: 66c4 2bbd c6f3 c53d b04a b53d 63ea 34be
00000030: 26ab 463e 6828 953e 1031 303e 5be3 a7bd
00000040: a957 8fbd 73d5 3bbe 1f1a 083e 2ace 9abe
00000050: 8505 94be 4048 623c 0483 8cbd 836c 66be
00000060: a901 94be ba7a 63be 2c74 c73d 2ffa 8cbe
00000070: 7f44 0dbd 9741 6a3e 39b3 8ebd 499c 1dbe
00000080: b8b2 3f3e 67c8 373e 2f26 db3d 531f cabd
00000090: f334 36be 457c d0bd 6aa3 25be c4a5 ce3d
000000a0: 1cf5 12bd 1d77 0f3c 091b 0d3c 4460 593e
000000b0: 6ceb 6abd f73d 463e c478 d53d 1fa7 1b3e
000000c0: cefe 173d 3ed9 0dbe ce0e 34be ab8e bbbc
000000d0: 0908 283e 6af6 973e f7f5 f1bd 09f5 4b3d
000000e0: 428e 973e 48bf 1b3e 947e bebd df9c 2c3e
000000f0: 5825 b4bd 55b1 693c f4c0 623e 31c1 f83d
00000100: 2eca 69bd fcdc 5f3e 49f3 ff3d 5a93 e2bc
00000110: ed1c 2d3e 6501 5ebe 434c 69be 5705 1dbe
00000120: c2a3 ea3d e54a 103e 9f02 f6bd bc1e 74be
00000130: e0f9 3bbc efd8 32be b331 92bd f955 1ebe
00000140: 3130 11be c47d 0ebe 7e36 653e 94c8 7dbe
00000150: 1ee6 2dbd 7060 8abe f353 23be c198 89be
00000160: 0c66 073e cdd8 5f3e 0684 f23d 7bf2 9d3d
00000170: b6bd 423e 2ca4 f43c 0967 983e 7295 a5bd
00000180: 43e2 1dbe d78b b43d ec98 17be 2a30 0b3e
00000190: 3832 353d f602 4b3e 8da1 c3bd d6e8 403c
000001a0: fd83 d33d 76fc 823e 210b abbd 103d 8a3d
000001b0: 80db e2bc 2e45 0dbe 67b2 523e 8b70 4e3e
000001c0: d5b0 80be c9c4 93bd 6807 0dbd d1ef 133e
000001d0: 6ebc 303e 7e8b 43be 552f 6e3e f4fd 8c3c
000001e0: ab0b f3bb bead 97be 4b26 4abd 58d3 bf3d
000001f0: 9e64 5a3e 4606 45be f154 ddbd e616 413e
00000200: 7069 263e 4dcd 773c 24c2 e43d f090 243e
00000210: b8c0 2a3d f7ea cd3c 9d5b 7ebe 6ec2 b4bd
00000220: afd9 f93d 493b 3d3e 10f9 423e e42b 49be
00000230: 813d 393e d657 d2bc 83a8 31be 9cb7 37bd
00000240: fdc5 c3bd 6e82 0dbd 0d23 803e 3104 6abe
00000250: e392 8cbe 4708 17be ebef bbbc 150f 5fbe
00000260: 5b4b 0f3d 8a3c 393e 5db6 1f3d 6592 65be
00000270: f3c6 cb3d cefa 833c 96c9 d3bd 0823 4dbe
00000280: 47f5 85be 5ea9 8abd 4003 11bd 4271 41be
00000290: 2bca 89bc b2c1 79bd 467a 873e aba9 be3d
000002a0: 150b 88be 68b9 013e f523 273e d054 5dbe
000002b0: 05f9 2cbe c61b f9bd aef7 75bd 7fbb 2f3e
000002c0: ed85 c43d e7d5 1e3e 79ad 8f3e 9e3d 13be
000002d0: 46df 56be 68aa 2e3e ee5e 95bd 3b71 6fbd
000002e0: fec5 e93d 94e2 4abe 9ba7 773e da15 16be
000002f0: c448 aabd 7ad9 513d eedd 533e 1270 1e3e
00000300: b2cd 06be 76dc c0bd 8a5a e2bb 0d6c 133d
00000310: 68c7 53bd ede7 35bc 2126 533e c464 91bd
00000320: f165 23be 9a20 02be 07c1 853e 27d7 d6bd
00000330: 44aa 463e 40f9 6a3e 84b1 16be fcb7 49bd
00000340: cb10 dc3d ec5b 853d 4ef7 1cbe 7942 233e
00000350: add2 1b3d 18f9 71be fc74 723d 312f 623e
00000360: 2cdf 74be d82a 20be 4736 f13d 0a76 0abe
00000370: 4b27 5dbe db70 083e cb1c a63d 6647 373e
00000380: 0833 8c3d 05ba 51bd e5a8 293d 847e ac3d
00000390: c8f5 7d3d 144b 183e 3321 5abd daca 7c3e
000003a0: 6c75 bfbd 73f0 92bd d3be b2bc 41e2 1ebd
000003b0: a114 c8bd 5cb9 cabd 0072 c23b 6de0 25be
000003c0: d2df 3bbe b931 723e 9085 333e 7b2a 413e
000003d0: 3d28 c6bb bfd6 083e 3bfa 213e 6ff8 853e
000003e0: 7835 86bd b9b7 19be 5d3f 213e 3497 4ebe
000003f0: 4621 173e e7ed e2bd 5681 aebd e8c2 953e
0.056780383 -0.10277516 -0.11210068 0.13465342 0.21116705 -0.12524809 -0.025001494 -0.26394707
-0.041935347 0.09665637 0.08852136 -0.17667536 0.19401225 0.2913239 0.17206216 -0.081976615
-0.06999142 -0.18343143 0.13291214 -0.30235416 -0.2891046 0.013811171 -0.06860927 -0.22502331
-0.28907517 -0.22214785 0.09738955 -0.27534625 -0.03448915 0.22876583 -0.06967778 -0.1539165
0.1872052 0.17947541 0.10700642 -0.09869256 -0.17793636 -0.101799525 -0.16175619 0.10090211
-0.035878286 0.008756426 0.008612403 0.21228129 -0.057353422 0.19359575 0.10423425 0.1520047
0.037108235 -0.13852403 -0.17583773 -0.022895178 0.16409315 0.29680187 -0.11814492 0.04979423
0.29600722 0.15209687 -0.093014866 0.16856717 -0.08796185 0.014263471 0.22143918 0.12146223
-0.05707758 0.21861643 0.12497575 -0.027658153 0.16905566 -0.2168022 -0.22782998 -0.15334068
0.114570156 0.1409107 -0.12012219 -0.23839849 -0.011473149 -0.17465566 -0.071383856 -0.15462483
-0.1417854 -0.13915163 0.22384068 -0.24783546 -0.042455785 -0.270267 -0.15949993 -0.26874354
0.13222522 0.21860047 0.11841588 0.07712265 0.19017681 0.02986344 0.2976611 -0.08085145
-0.15418343 0.08815735 -0.14804429 0.13592592 0.044237345 0.19825348 -0.09552298 0.011774262
0.10327909 0.25583237 -0.08351732 0.06749928 -0.027692556 -0.13795921 0.20575868 0.20160119
-0.25134912 -0.07215268 -0.03443089 0.14446951 0.1725938 -0.19096181 0.23260243 0.017210938
-0.0074171624 -0.29624742 -0.049352925 0.093664825 0.21327445 -0.19240674 -0.10807217 0.18856391
0.16251159 0.015124631 0.11169842 0.16070914 0.041687697 0.025136454 -0.24839635 -0.08826147
0.12199723 0.18479647 0.19040322 -0.19645649 0.18089868 -0.025676649 -0.17349438 -0.044852838
-0.09559248 -0.034548216 0.25026742 -0.22853161 -0.27455816 -0.14749251 -0.02294155 -0.21783097
0.034983974 0.180895 0.038992275 -0.22419126 0.09950056 0.016110804 -0.10341184 -0.20032895
-0.26163694 -0.067705855 -0.03540349 -0.1889086 -0.016820034 -0.060975738 0.26460475 0.09309705
-0.26570955 0.12668383 0.1632231 -0.21614385 -0.16891868 -0.121635005 -0.06005066 0.17161368
0.09595857 0.15511285 0.28062037 -0.14378974 -0.2098361 0.17057192 -0.07293497 -0.058457594
0.11414717 -0.19812995 0.2418503 -0.14656773 -0.0831466 0.051232792 0.20690128 0.15472439
-0.13164404 -0.094170496 -0.0069077658 0.035991717 -0.05170384 -0.011102659 0.20620014 -0.07099298
-0.15956856 -0.12707749 0.2612383 -0.10490256 0.19400889 0.22946644 -0.14716154 -0.049247727
0.107453905 0.06511673 -0.15328714 0.15943326 0.038042713 -0.23630178 0.059193596 0.22088315
-0.23913258 -0.15641344 0.11777931 -0.13521591 -0.2159702 0.13324301 0.081109606 0.1789833
0.06845671 -0.051202793 0.041420836 0.084225684 0.062001973 0.1487239 -0.053254317 0.24686757
-0.09348568 -0.07174768 -0.021819508 -0.03878999 -0.0976956 -0.09898636 0.005934 -0.16198893
-0.183471 0.2365178 0.17531419 0.18863861 -0.0060472772 0.13363169 0.15818112 0.26166102
-0.06553167 -0.15011491 0.15746827 -0.20174867 0.14758787 -0.110805325 -0.085207626 0.29250264

blocks.5.1.bias f4 [16]
00000000: 020f 86be 89b2 c9bd cfb6 4bbe adfd 4bbd
00000010: e12a 9239 63e5 80be cd12 e23d 70e3 f2bd
00000020: 45a6 fcbd dc6b 4e3e b3ff 303e ee5f 08bd
00000030: 29e3 9e3d 1514 83be bc83 643e f3aa 57bd
-0.26183325 -0.09848506 -0.19893955 -0.04980247 0.00027879237 -0.25175008 0.11038742 -0.118597865
-0.12336401 0.20158333 0.17285042 -0.03329461 0.07758171 -0.2560126 0.22315878 -0.052653264

project.0.weight f4 [8, 16, 1]
00000000: 9298 0a3d 02e0 91bc 8ed2 713e a2f3 23bb
00000010: 0409 18be bbb2 a23d 0674 ecbb 0eba 5b3d
00000020: 7d23 923c 7f7b 293d 5b6b 933c 7bcd 2c3e
00000030: 6ecf 92bd 5960 bf3d 1724 29bc 5d39 e53d
00000040: 9bcb e2bd fd2d ae3d 2e71 763e edc1 f8bc
00000050: f5c5 bfbd f232 5bbe bf1c ab3a fee3 003d
00000060: b83e 3a3e f718 29be 8228 dcbd 5c0e a6bd
00000070: 2bcf e6bd 3fef a4bd 0384 e63c 2fa7 473e
00000080: 5502 103d e148 213e 1733 2fbe 73ea 61bd
00000090: 2318 3f3d 027d 92bd d009 f8bd 900b a43e
000000a0: 0ea6 bdbe 02bf c23d a065 acbc 0efc 403e
000000b0: 149e a4bd 5666 803e c5e8 5dbe 213c a03e
000000c0: 4aa1 93bd e9ac 2f3d fed7 1ebe bd4d 9ebb
000000d0: 51a7 88be f51d 943d bc90 ad38 3293 c8bc
000000e0: 48b4 173e 14c2 c43d 0f0d 383e ef5e 83bc
000000f0: 5e75 24bd 7130 0cbd 23bd 87bd 3984 ca3d
00000100: fd0d 0b3e 3c2a 5c3e 0b67 843d 00ff 8bbe
00000110: bd4a 0e3e 145a 1abd a2f1 e0bd 9667 4d3e
00000120: 97db 17be 10c6 633e 6723 89bd e1d4 ef3d
00000130: 06cf 1b3e 0727 4b3e 8296 89be 8768 58bd
00000140: ad6c 50bd e96b 6d3a bb02 16be dd2c 09bd
00000150: 124d 60be 24b1 263e 1424 39bc 608a 663d
00000160: 527e 153e eb27 d5b9 bb1d 583e 29aa a73b
00000170: 6c01 a03d 702f 023d 4893 74bc 6a9e bbbc
00000180: f412 e93d 1f86 3f3e 299a 11be 3a7e 99be
00000190: 5f75 3a3e 7ed5 acbb b027 12bd 8fbc eb3d
000001a0: 9ad1 e13d 0232 b03d b8b6 4b3e 1e1d 783d
000001b0: f754 ab3e 7e02 9e3e eed0 f83d ee57 413e
000001c0: ad9f 463e b31f 913d f754 8abe b9e5 44bd
000001d0: 7a50 cbbd 5bb0 5d3e bc04 24bc f786 013c
000001e0: f56b c03d 7fed 54be 900f 5e3e f8c8 9dbd
000001f0: e864 933c 81f5 30bd 0da5 be3d 0624 08bd
0.03383691 -0.01780701 0.23615476 -0.0025017043 -0.14847189 0.079442464 -0.0072159795 0.053644232
0.017839188 0.04137754 0.017995527 0.1687526 -0.0716847 0.09344549 -0.010323546 0.11192582
-0.11073991 0.08504865 0.24066612 -0.030365909 -0.09363929 -0.21406153 0.0013054832 0.03146743
0.18187988 -0.1651343 -0.10749914 -0.081082076 -0.11269983 -0.08053445 0.02813912 0.19497369
0.035158474 0.15750457 -0.17109333 -0.05515523 0.046653878 -0.071527496 -0.121112466 0.3204007
-0.37040752 0.09509088 -0.021044552 0.18846151 -0.080379635 0.25078076 -0.21670826 0.31295875
-0.07208498 0.04288951 -0.15512082 -0.0048310445 -0.26690152 0.07232276 8.276242e-05 -0.02448425
0.14814866 0.0960733 0.17973731 -0.016036479 -0.040150993 -0.034225885 -0.06627872 0.09888501
0.13579555 0.21500486 0.064649664 -0.27342987 0.13895698 -0.03768356 -0.10983588 0.20059046
-0.1482986 0.22243524 -0.066962056 0.11710525 0.15215692 0.19839107 -0.2687264 -0.05283406
-0.05088489 0.00090569124 -0.14649479 -0.03349005 -0.219044 0.16278511 -0.011300106 0.05628431
0.14598969 -0.00040656267 0.21105091 0.00511672 0.07812771 0.03178352 -0.014927693 -0.022902686
0.11380568 0.18703507 -0.14218964 -0.29979116 0.18208836 -0.0052744737 -0.03568238 0.11510574
0.110263065 0.08603288 0.1989392 0.060574643 0.3346326 0.30861276 0.12149225 0.18881199
0.19396849 0.07086124 -0.27017948 -0.048070643 -0.09927459 0.21649306 -0.010010894 0.007905713
0.09395591 -0.20793723 0.21685624 -0.07704347 0.017992452 -0.04320288 0.09308825 -0.03323748

project.0.bias f4 [8]
00000000: 4b46 363e b25d de3d 7ada a1bd 3c7c ae3d
00000010: 4100 afbd 50c5 3c3e eda2 80be 7564 b1bc
0.17800252 0.10857715 -0.07902999 0.085197896 -0.0854497 0.18434644 -0.25124303 -0.021654347

project.3.weight f4 [3, 8, 1]
00000000: e280 39bd e8e4 983d 0e23 d8bd 80cf 28be
00000010: fa19 14be e408 1ebe 5601 b4be 8794 32be
00000020: d974 cd3b 07ca d2ba 37fc 4839 3692 bf3b
00000030: 8371 2d3a f97a f43a 0607 dc3a de61 5cba
00000040: 5e49 f3be 7839 503e e535 cabe 5fb3 15bf
00000050: 50be e6be 1c0b f6be efef 20bf 1e55 d6be
-0.045288928 0.074655354 -0.10553561 -0.16485405 -0.14463034 -0.15433079 -0.3515727 -0.17439471
0.006270033 -0.0016081937 0.00019167444 0.005846287 0.0006616341 0.0018652371 0.0016786761 -0.00084069173
-0.47516912 0.20334423 -0.39494243 -0.58476824 -0.45067072 -0.4805535 -0.6286611 -0.41861814

project.3.bias f4 [3]
00000000: e292 793f 9d3f d639 ba3e 6b3f
0.9748975 0.00040864656 0.9189259
