checkpoints/dong_fno_inverse.pth (torch, 114314 bytes, 18 tensors)

lift.weight f4 [16, 3, 1]
-0.39726165 -0.31936428 -0.30270505 -0.053171884 0.8214667 0.46546805 0.3722492 -0.17824097
0.08512271 0.059662327 -0.63526464 -0.4716514 -0.52282196 -0.27857187 -0.41647732 -0.3809967
0.15317377 0.4219023 -0.24268284 0.3483845 0.1548107 0.53716344 -0.66369283 -0.016683277
0.0029733102 -0.52223384 -0.5181524 -0.5122997 -0.38395542 0.015922228 0.0870758 0.46454915
-0.5206133 0.28936046 -0.24510191 -0.32765794 -0.2930915 0.2393727 0.31609073 0.46227303
0.19469605 -0.1346573 0.16385913 -0.20983677 0.3794627 0.5219125 -0.7037778 -0.42310435
00000000: e165 cbbe b783 a3be 28fc 9abe c3ca 59bd
00000010: a44b 523f d451 ee3e 7297 be3e cd84 36be
00000020: d154 ae3d 7c60 743d b4a0 22bf 4b7c f1be
00000030: a9d7 05bf f9a0 8ebe 843c d5be 0012 c3be
00000040: 96d9 1c3e 9403 d83e da81 78be 745f b23e
00000050: b286 1e3e 8b83 093f c6e7 29bf 5eab 88bc
00000060: dedb 423b 1eb1 05bf a3a5 04bf 1326 03bf
00000070: ce95 c4be 556f 823c cc54 b23d 63d9 ed3e
00000080: ea46 05bf 0e27 943e fffb 7abe c8c2 a7be
00000090: 1710 96be 1e1e 753e a5d6 a13e 0daf ec3e
000000a0: 675e 473e 9ae3 09be b0ca 273e 73df 56be
000000b0: ef48 c23e 0f9c 053f c82a 34bf 22a1 d8be

lift.bias f4 [16]
-0.19091804 0.4495387 0.3476276 0.41066846 0.044008806 0.30317205 0.3752136 -0.4828465
0.15528345 0.30891043 0.49634117 -0.07913828 0.22356883 -0.35264266 -0.42604837 0.5029502
00000000: 0580 43be f029 e63e 3ffc b13e 2343 d23e
00000010: 9442 343d 5e39 9b3e ff1b c03e a837 f7be
00000020: a002 1f3e 8229 9e3e 6e20 fe3e 4013 a2bd
00000030: 3aef 643e 948d b4be 0323 dabe 58c1 003f

blocks.0.1.weight f4 [16, 16, 1]
-0.28489828 -0.038128663 -0.1288539 0.088155925 -0.07266747 -0.12508994 0.14113766 -0.20461449
-0.11280134 -0.15481375 -0.18688253 0.00051223254 -0.068840764 -0.25710198 0.1415554 -0.054204416
0.15570106 -0.2551711 0.13641475 -0.08666697 -0.17590664 0.11069874 0.1718079 -0.033147156
-0.096176505 -0.1954208 -0.09561586 -0.078995615 -0.17944913 0.03115641 0.19051753 -0.2665628
-0.13935408 0.2611899 -0.22168548 0.0047933185 0.039284877 0.27738255 -0.017827595 0.024887817
-0.051921904 -0.06132294 -0.17689887 0.30018705 -0.04801403 -0.051329814 -0.156531 -0.01758801
0.23848593 0.12367644 -0.07629392 -0.2743142 0.17342322 -0.21662019 0.010545156 0.04458142
-0.17488909 -0.06044137 -0.16012537 0.047412697 0.08691251 0.050070055 0.17117387 0.07306349
0.06446455 0.022042995 -0.1876045 -0.09969017 0.12650685 0.19566776 -0.10562898 -0.03661381
-0.08837101 -0.27867413 -0.05782076 -0.06108829 -0.17300773 0.23006389 -0.044580724 -0.263695
0.18017955 -0.046470728 -0.10853304 -0.18874311 0.2490534 -0.17507465 0.023077732 0.076755986
-0.16643973 0.058142107 -0.14798543 0.11889314 0.12842217 -0.1394857 -0.13270254 -0.024585495
-0.0474921 0.028030578 0.07621842 -0.23808935 0.083670504 -0.08413761 0.19166316 -0.09605289
0.06939206 -0.05608545 -0.20441571 -0.05522562 0.23919353 0.16815592 -0.0025581678 -0.19015595
0.07744196 0.0073125865 -0.06337425 -0.072718434 -0.21735132 -0.240659 -0.08367826 0.11047499
0.09518722 -0.040427484 0.05592966 -0.14998169 -0.11594415 0.09588523 -0.009172837 -0.21672188
-0.08115126 0.033227302 -0.12232462 0.13919514 0.18204601 0.09883358 0.062435325 0.01565641
0.1265929 -0.18559805 0.11397609 -0.1184405 -0.08940433 -0.08891973 -0.28090617 0.12396358
-0.14909801 -0.23556013 -0.08239437 0.26335743 -0.002473229 -0.17447157 -0.01283879 -0.18282095
-0.021398079 -0.23522596 0.009120704 0.21893656 -0.13186222 -0.13293421 -0.099716194 -0.25526804
-0.25834036 -0.02802885 0.20447221 -0.066354 0.06501455 -0.10668524 -0.17543706 -0.17127794
0.07681839 -0.037117306 -0.26961276 -0.1553725 -0.18408224 0.023819314 -0.12115446 0.14789064
-0.0012203669 0.07311685 -0.12873982 0.013812437 0.018969512 -0.15017077 0.22259054 -0.15943184
0.23182394 -0.025727348 0.1418744 0.27014208 -0.004244744 -0.13527738 0.1759862 -0.24041303
0.11613153 0.20417769 -0.038548376 0.028418155 -0.14411883 0.0046263426 0.03728199 0.108720414
-0.2491819 0.100345634 0.2404971 -0.017378975 0.1820865 -0.042686846 0.06012067 -0.22511248
0.15574862 0.28706425 -0.14922397 -0.16536392 0.0023820985 -0.076088995 -0.20883563 0.2198417
-0.1852193 -0.24155028 0.10955551 0.1428764 0.1370354 -0.16232692 0.02126409 -0.09973286
-0.15707222 -0.057355706 0.11232628 -0.24624974 0.18159904 -0.23593989 -0.16288212 0.22697236
-0.20518586 0.00018801958 0.2907649 -0.17944202 0.22073609 0.23447058 0.027501067 0.16328754
0.27662495 0.0015571691 -0.22581981 -0.14535409 0.17123793 -0.23440443 -0.153971 -0.020896113
-0.18704315 0.22186525 0.25968945 -0.10232347 -0.007915762 -0.18540223 0.26385778 0.114236005
00000000: 30de 91be cd2c 1cbd 47f2 03be 188b b43d
00000010: afd2 94bd 9417 00be 6486 103e 7686 51be
00000020: 6404 e7bd 7f87 1ebe 225e 3fbe 5847 063a
00000030: 63fc 8cbd dfa2 83be e6f3 103e 7305 5ebd
00000040: 1970 1f3e c9a5 82be 4fb0 0b3e 747e b1bd
00000050: df20 34be 05b6 e23d 69ee 2f3e 50c5 07bd
00000060: 30f8 c4bd 641c 48be 3fd2 c3bd 74c8 a1bd
00000070: 83c1 37be ba3b ff3c 0717 433e eb7a 88be
00000080: d6b2 0ebe afba 853e 8501 63be 4511 9d3b
00000090: 2ee9 203d 1605 8e3e 2d0b 92bc 89e1 cb3c
000000a0: 10ac 54bd c32d 7bbd fa24 35be 1eb2 993e
000000b0: 5caa 44bd 363f 52bd aa49 20be bb14 90bc
000000c0: a835 743e 134a fd3d fd3f 9cbd e972 8cbe
000000d0: db95 313e afd1 5dbe 97c5 2c3c 029b 363d
000000e0: 2016 33be 5f91 77bd e8f7 23be d133 423d
000000f0: 30ff b13d 4216 4d3d 3448 2f3e 50a2 953d
00000100: fd05 843d 8393 b43c 651b 40be 5c2a ccbd
00000110: 038b 013e 215d 483e 0254 d8bd 5df8 15bd
00000120: dcfb b4bd 60ae 8ebe 76d5 6cbd b737 7abd
00000130: f028 31be de95 6b3e 479a 36bd 0803 87be
00000140: fd80 383e 1758 3ebd 9246 debd e045 41be
00000150: db07 7f3e c546 33be 830d bd3c 3e32 9d3d
00000160: 2d6f 2abe 6b26 6e3d 7e89 17be 3f7e f33d
00000170: 1a81 033e 57d5 0ebe 2de3 07be 8567 c9bc
00000180: 1487 42bd 62a0 e53c 6718 9c3d b2cd 73be
00000190: 715b ab3d 5750 acbd 5943 443e 61b7 c4bd
000001a0: 6d1d 8e3d dbb9 65bd 5a52 51be 4234 62bd
000001b0: 26ef 743e 1131 2c3e efa6 27bb 3eb8 42be
000001c0: e499 9e3d 6c9e ef3b 5cca 81bd 67ed 94bd
000001d0: 5891 5ebe 506f 76be 825f abbd b640 e23d
000001e0: 84f1 c23d 4a97 25bd 8016 653d cd94 19be
000001f0: 2074 edbd 7a5f c43d ab49 16bc 57ec 5dbe
00000200: a232 a6bd 5a19 083d 5585 fabd 2c89 0e3e
00000210: 456a 3a3e 4369 ca3d 2fbc 7f3d df41 803c
00000220: 92a1 013e 6a0d 3ebe 4c6c e93d ef90 f2bd
00000230: 9e19 b7bd 8c1b b6bd efd2 8fbe 9ee0 fd3d
00000240: 26ad 18be ad36 71be 61be a8bd c9d6 863e
00000250: e615 22bb ada8 32be ca59 52bc 6a35 3bbe
00000260: 064b afbc 13df 70be 016f 153c e830 603e
00000270: e406 07be e81f 08be 0138 ccbd 7eb2 82be
00000280: 3045 84be c29c e5bc 2a61 513e 9be4 87bd
00000290: 5926 853d cb7d dabd c6a5 33be 7c63 2fbe
000002a0: f652 9d3d 5108 18bd af0a 8abe f819 1fbe
000002b0: 0e80 3cbe b920 c33c d41f f8bd a570 173e
000002c0: b8f4 9fba 49be 953d 5fd4 03be 8f4d 623c
000002d0: f365 9b3c 5ec6 19be c6ee 633e 1a42 23be
000002e0: 4163 6d3e 29c2 d2bc 8647 113e 1050 8a3e
000002f0: 7e17 8bbb 2786 0abe ba35 343e d52e 76be
00000300: 5ed6 ed3d f513 513e e7e4 1dbd 31cd e83c
00000310: e393 13be 9398 973b 00b5 183d cfa8 de3d
00000320: 8a29 7fbe 0382 cd3d df44 763e 5a5e 8ebc
00000330: e274 3a3e 67d8 2ebd 1741 763d e383 66be
00000340: 917c 1f3e 16fa 923e 2bce 18be 2955 29be
00000350: fb1c 1c3b 8cd4 9bbd 02d9 55be 2f1e 613e
00000360: 21aa 3dbe f558 77be a45e e03d 314e 123e
00000370: 0253 0c3e 0739 26be 0732 ae3c be40 ccbd
00000380: 8ad7 20be d1ed 6abd 520b e63d e428 7cbe
00000390: 19f5 393e 3a9a 71be 92ca 26be 716b 683e
000003a0: 3e1c 52be 1f27 4539 23df 943e a6bf 37be
000003b0: a408 623e 0e19 703e eb49 e13c d934 273e
000003c0: c9a1 8d3e ed19 cc3a 4f3d 67be b4d7 14be
000003d0: ff58 2f3e b707 70be 93aa 1dbe 532e abbc
000003e0: 3d88 3fbe a530 633e 04f6 843e f88e d1bd
000003f0: 1db1 01bc 15da 3dbe 5e18 873e 91f4 e93d

blocks.0.1.bias f4 [16]
0.19587253 -0.15197577 0.19230011 -0.12595102 0.17130813 0.062718414 0.24594443 -0.022578295
0.08535731 -0.011571818 -0.111253984 0.12201817 0.18686844 -0.08484828 -0.058868222 0.13216591
00000000: cf92 483e 899f 1bbe 52ea 443e 4ef9 00be
00000010: 666b 2f3e 8372 803d dbd8 7b3e 1ef6 b8bc
00000020: d0cf ae3d b997 3dbc 21d9 e3bd aae4 f93d
00000030: 715a 3f3e efc4 adbd ce1f 71bd 8056 073e

blocks.1.1.weight f4 [16, 16, 1]
0.014859024 0.16459017 0.24291925 -0.103768736 0.014079013 0.27010384 0.23999289 -0.047600057
-0.08789122 0.14524432 -0.051460065 0.1032634 -0.18676332 0.151879 -0.28169143 0.19051905
0.1341351 0.19425811 0.24756916 -0.06735638 0.25403696 -0.0023394967 -0.09671096 0.22285223
-0.011805318 0.01369726 -0.21207833 0.080137625 -0.214785 0.05783307 -0.021159766 -0.18701139
-0.07377901 -0.16810983 -0.25468493 -0.04708266 -0.14445478 0.13455871 0.08793938 0.22273344
-0.22085544 -0.24210013 -0.07403509 0.0891133 -0.16363753 0.03287037 -0.25903657 0.14041032
-0.08158445 -0.013261428 -0.16599856 -0.26314345 -0.08083953 -0.12864909 -0.1463522 0.032540374
-0.076324806 -0.07234477 0.06516968 0.1164326 -0.013625761 0.2696898 -0.16434062 0.27611053
0.2835722 -0.061285987 0.16201454 0.23930949 0.18104607 -0.05811735 0.16835298 0.138081
0.02478269 0.03670217 -0.162832 0.056653563 0.08987937 -0.082802065 0.103925265 -0.25725392
-0.25600314 0.2817117 0.19695853 0.017776717 0.12636848 -0.13188641 -0.2158552 -0.23000364
-0.14501946 -0.09067093 0.08737582 0.16219854 -0.20911108 -0.10293555 -0.016852567 0.24388537
-0.20923601 0.06935017 0.25853816 0.23055321 -0.24016175 -0.20033662 -0.19914162 0.11371827
0.020198042 0.14256461 -0.16579293 -0.17404048 -7.235187e-05 -0.031527005 -0.008776219 -0.19274163
-0.21677132 -0.079220034 0.14796649 0.039937045 0.06661293 -0.115068585 0.19992022 0.17927267
-0.027437849 0.078650884 0.14713453 -0.16773498 0.12923561 -0.20071855 -0.045637317 -0.20524912
-0.056472406 -0.27009484 -0.20319314 0.08752457 -0.21906869 0.12320006 -0.013521358 -0.1563757
-0.04330086 0.11865113 -0.13595814 -0.021280503 -0.22113986 -0.12821108 -0.10082078 -0.142658
-0.16466817 0.057285648 -0.1228124 0.15507019 0.03064887 0.20090292 -0.11057064 0.22153537
0.072535545 0.09937823 -0.22283973 -0.03139399 -0.13611504 0.051030483 0.1496539 0.008449283
0.16111085 -0.13696289 0.02681625 0.0059705153 0.21194734 -0.040578984 0.103910886 0.045657486
0.08447763 -0.11854489 0.119137466 0.07116055 0.014423332 -0.17953415 -0.12400378 -0.11493417
0.2557428 0.08983471 0.06265591 0.21379402 -0.1316521 0.1354486 0.23645937 0.08153048
-0.24852598 -0.25473675 -0.24467593 -0.26134267 0.052549124 -0.13196355 -0.1502101 -0.2815977
0.10389588 0.23344424 0.20926686 -0.04495302 -0.08635469 -0.022685086 -0.24221194 -0.13518295
-0.15922871 0.04404644 0.10022936 0.19179958 -0.03150695 0.19331104 -0.06279522 0.20070621
0.17918213 0.07808237 0.009475164 -0.108203135 -0.1465093 0.1994672 0.04433256 -0.17848708
-0.19099025 -0.25044373 0.10606656 -0.102489285 -0.20165725 -0.14585428 0.20977563 0.08207966
-0.073236465 0.12695149 0.096700944 -0.18351002 -0.10111925 0.18837222 0.1454913 0.10219767
0.24809991 0.1434176 0.20259736 0.27582848 0.19142453 0.009570136 0.0847366 -0.10704098
-0.17541304 -0.22973533 -0.1358433 -0.1194603 -0.16733733 -0.13526043 0.06252379 -0.006411886
0.018444788 0.25925243 0.2640861 0.083420195 0.054295547 0.14578746 0.09284718 0.0013975516
00000000: 4473 733c 538a 283e d3bf 783e b484 d4bd
00000010: a9ab 663c 0d4b 8a3e b2c0 753e 47f8 42bd
00000020: 5000 b4bd edba 143e cac7 52bd c37b d33d
00000030: e23e 3fbe 2b86 1b3e dc39 90be 6d17 433e
00000040: b65a 093e 99eb 463e c582 7d3e 24f2 89bd
00000050: 2211 823e 3e52 19bb 6510 c6bd 6033 643e
00000060: 186b 41bc 796a 603c 102b 59be 321f a43d
00000070: 99f0 5bbe 5fe2 6c3d 3f57 adbc ea7f 3fbe
00000080: 7319 97bd fc24 2cbe 1066 82be bfd9 40bd
00000090: f4eb 13be c2c9 093e 9019 b43d 3c14 643e
000000a0: ee27 62be 19e9 77be b69f 97bd 0981 b63d
000000b0: 9990 27be 15a3 063d 71a0 84be b9c7 0f3e
000000c0: c015 a7bd 7646 59bc 87fb 29be bdba 86be
000000d0: 328f a5bd 96bc 03be 5add 15be 0e49 053d
000000e0: 2e50 9cbd 7f29 94bd ae77 853d 3774 ee3d
000000f0: 953e 5fbc c814 8a3e e848 28be 5c5e 8d3e
00000100: 6030 913e 0407 7bbd 24e7 253e 8c0d 753e
00000110: 2464 393e 750c 6ebd b964 2c3e 1b65 0d3e
00000120: 1105 cb3c 0455 163d 6fbd 26be 910d 683d
00000130: ad12 b83d 2194 a9bd c5d6 d43d c9b6 83be
00000140: d812 83be 843c 903e 7faf 493e 7aa0 913c
00000150: bd66 013e 3b0d 07be 2509 5dbe 1386 6bbe
00000160: fb7f 14be aeb1 b9bd 18f2 b23d 6017 263e
00000170: 3721 56be e0cf d2bd 650e 8abc 16bd 793e
00000180: f741 56be 7607 8e3d 1d5f 843e 2416 6c3e
00000190: f6ec 75be 0b25 4dbe c8eb 4bbe 20e5 e83d
000001a0: 5d76 a53c 75fc 113e 9fc5 29be ab37 32be
000001b0: 9dbb 97b8 7622 01bd 21ca 0fbc 105e 45be
000001c0: 4df9 5dbe 1d3e a2bd 8784 173e 0795 233d
000001d0: 5c6c 883d 14a9 ebbd e3b7 4c3e 4193 373e
000001e0: 57c5 e0bc b713 a13d 6faa 163e b8c2 2bbe
000001f0: 5756 043e 2a89 4dbe 32ee 3abd d32c 52be
00000200: 9c4f 67bd df49 8abe dd11 50be 1540 b33d
00000210: 8b53 60be 5050 fc3d b088 5dbc f420 20be
00000220: 3e5c 31bd 5dff f23d 9c38 0bbe 7354 aebc
00000230: 7d72 62be c449 03be 207b cebd f014 12be
00000240: c69e 28be 5ba4 6a3d 1185 fbbd b8ca 1e3e
00000250: 5713 fb3c 7fb9 4d3e dc72 e2bd 2bda 623e
00000260: 848d 943d d086 cb3d 1930 64be fc96 00bd
00000270: be61 0bbe 5705 513d df3e 193e dd6e 0a3c
00000280: 3efa 243e 0040 0cbe c1ad db3c 50a4 c33b
00000290: b908 593e 2636 26bd 3bcf d43d 5803 3b3d
000002a0: 9c02 ad3d aac7 f2bd 58fe f33d 9fbc 913d
000002b0: d74f 6c3c cdd7 37be b2f5 fdbd 9b62 ebbd
000002c0: b8f0 823e 43fb b73d be51 803d d2ec 5a3e
000002d0: cfcf 06be 0ab3 0a3e 6822 723e 74f9 a63d
000002e0: 987d 7ebe db6c 82be 548c 7abe b5ce 85be
000002f0: c03d 573d 7421 07be add0 19be 932d 90be
00000300: 5dc7 d43d 020c 6f3e 0d4a 563e a820 38bd
00000310: bada b0bd 13d6 b9bc 6806 78be 666d 0abe
00000320: da0c 23be 0a6a 343d 0d45 cd3d 1c67 443e
00000330: 6e0d 01bd 54f3 453e c89a 80bd ee85 4d3e
00000340: 857b 373e a6e9 9f3d b83d 1b3c 9b99 ddbd
00000350: 8906 16be 2141 4c3e 0f96 353d 51c5 36be
00000360: f392 43be 293a 80be 6d39 d93d e7e5 d1bd
00000370: 3d7f 4ebe d35a 15be 6ccf 563e 6119 a83d
00000380: 00fd 95bd 92ff 013e 250b c63d 0dea 3bbe
00000390: 9c17 cfbd a6e4 403e acfb 143e 034d d13d
000003a0: e70d 7e3e 10dc 123e af75 4f3e 6439 8d3e
000003b0: cb04 443e 0fcc 1c3c 628a ad3d 4d38 dbbd
000003c0: 7a9f 33be bd3f 6bbe 821a 0bbe 9aa7 f4bd
000003d0: 7a5a 2bbe b681 0abe 790c 803d cc1a d2bb
000003e0: 8619 973c bcbc 843e 4b36 873e 35d8 aa3d
000003f0: 0265 5e3d 4f49 153e aa26 be3d 0d2e b73a

blocks.1.1.bias f4 [16]
-0.092894614 -0.10020204 -0.1518709 -0.22437409 -0.0807455 0.2028057 -0.06154612 0.02507564
0.1996655 -0.042022064 0.17122585 0.19407584 0.1598215 -0.27065966 -0.079047054 0.21896246
00000000: 883f bebd ba36 cdbd 0c84 1bbe 52c2 65be
00000010: e65d a5bd 4cac 4f3e c917 7cbd 6e6b cd3c
00000020: 1d75 4c3e 541f 2cbd d455 2f3e d1bb 463e
00000030: 3fa8 233e e793 8abe 6ce3 a1bd b237 603e

blocks.2.1.weight f4 [16, 16, 1]
0.025846133 0.053812705 0.27467605 -0.023916757 -0.031198626 0.15227282 0.08267367 -0.20893306
0.1615853 0.008559054 -0.064592026 -0.016689705 0.14016224 -0.23750092 -0.18053558 -0.0983223
-0.05864908 -0.06687082 -0.10411525 0.09204063 0.10673293 0.05132953 -0.19754536 0.19221376
-0.2823812 -0.03455751 0.04999056 0.11498548 -0.2241059 -0.27685297 -0.17204604 0.06449035
-0.134971 0.14637887 0.25474575 -0.06540494 -0.16268033 -0.01726501 -0.0041378047 -0.15929662
-0.053828657 0.17543896 -0.21034952 0.06916996 -0.30396235 0.04573086 -0.11072262 -0.041322883
0.17930813 0.1077513 -0.14011696 -0.18386887 0.040218618 0.1296161 -0.048493627 0.0263324
0.20767856 -0.10155274 0.14721832 -0.07943721 0.1281889 0.0035565835 0.098955065 0.1343047
0.22393854 0.20902699 0.022895265 0.16266683 0.10757415 -0.044369716 -0.09538779 0.063708805
-0.14332207 -0.08915948 0.13731422 0.12413065 -0.12076021 0.05443216 -0.11565008 0.13407257
0.17974141 0.044739377 0.17739992 0.048440557 -0.018584449 0.13926044 0.17345558 -0.18880814
0.20218067 -0.048113044 0.07319317 0.024899594 0.10558946 0.0019347381 -0.111015625 0.24650976
0.2259313 0.04006402 -0.15637727 0.14471637 0.16760537 -0.24009933 0.15496185 -0.0327204
0.2605122 -0.15862699 0.26267734 0.028528048 0.022173522 0.24589519 -0.080076076 0.03476534
-0.10210801 -0.2765535 -0.0987717 0.19037995 -0.27670243 0.29237136 -0.04247732 -0.23059267
-0.077446654 0.114049576 0.078956604 -0.1466551 0.09495244 0.17579883 -0.09455879 -0.16622208
0.2238053 0.11327472 0.22924715 0.10321033 -0.14175557 -0.09238075 0.10065569 -0.15304933
-0.062297706 -0.030301733 -0.031073464 0.19174698 -0.1471506 0.039334405 0.17555343 -0.2462172
0.010364675 0.08787081 -0.07514282 -0.14324059 -0.17063446 -0.14530021 0.27986777 -0.033806738
-0.15755159 -0.0387365 0.067499444 0.13300432 -0.17816257 0.06780795 -0.13981715 -0.114840165
0.12187423 -0.22084138 0.027869694 0.11054799 -0.18154548 -0.134187 0.012404649 -0.08319609
-0.07734444 0.20849177 0.12295208 0.18445013 0.13273002 -0.25923538 0.07230686 -0.020411363
0.037388958 -0.08004692 -0.12470407 0.12110047 0.19393219 0.19034168 0.108755805 -0.23142144
0.17112549 0.25727648 -0.26027617 0.08807307 0.18587784 -0.008511446 -0.047714897 -0.28018045
-0.18559967 -0.19815187 0.037953112 0.061168153 0.136399 0.017476795 0.19026743 0.10130171
-0.07596093 -0.10085455 0.20138542 0.033859123 -0.22412778 0.13925579 0.1789154 0.2012603
0.014711602 -0.21113586 0.025019495 -0.04351741 -0.0407249 0.1840755 -0.033375107 -0.2583392
-0.0446528 -0.1807424 -0.042391893 0.26407757 0.027011758 -0.26237854 -0.050439928 0.1727921
-0.041898318 0.15200756 -0.19807334 -0.21132475 0.26090124 -0.16879031 -0.19597267 0.08413976
0.0156554 0.09937246 0.054051343 -1.6194244e-06 0.27092385 0.17589727 0.038807932 0.057581637
0.16383927 0.26639906 -0.032103986 0.17622727 0.23128529 -0.15870588 -0.24827395 -0.11242167
0.16596085 -0.21594618 0.10001538 -0.26514754 -0.087463215 0.024705147 0.15577812 0.10982293
00000000: 45bb d33c b66a 5c3d 57a2 8c3e 13ed c3bc
00000010: 4394 ffbc 68ed 1b3e d050 a93d 8cf2 55be
00000020: 9e76 253e 463b 0c3c d348 84bd d9b8 88bc
00000030: b186 0f3e 7133 73be 52de 38be 345d c9bd
00000040: 053a 70bd 92f3 88bd 603a d5bd cc7f bc3d
00000050: cb96 da3d ea3e 523d 5549 4abe afd3 443e
00000060: 4594 90be 2d8c 0dbd e7c2 4c3d 827d eb3d
00000070: 047c 65be acbf 8dbe d62c 30be 8413 843d
00000080: d635 0abe 58e4 153e 096e 823e 06f3 85bd
00000090: ac95 26be 5a6f 8dbc 6c96 87bb a71e 23be
000000a0: 707b 5cbd 45a6 333e dd65 57be fba8 8d3d
000000b0: f4a0 9bbe 4850 3b3d 8ac2 e2bd 2f42 29bd
000000c0: 8d9c 373e b7ac dc3d d27a 0fbe 1f48 3cbe
000000d0: 47bc 243d 15ba 043e 41a1 46bd 0cb7 d73c
000000e0: b0a9 543e e2fa cfbd 66c0 163e faaf a2bd
000000f0: f343 033e 9215 693b f4a8 ca3d 2c87 093e
00000100: 2550 653e 2c0b 563e da8e bb3c 2292 263e
00000110: d64f dc3d 05bd 35bd ac5a c3bd c379 823d
00000120: 05c3 12be 3f99 b6bd 199c 0c3e 3638 fe3d
00000130: 2151 f7bd 42f4 5e3d f3d9 ecbd 524a 093e
00000140: 220e 383e a340 373d 53a8 353e 9b69 463d
00000150: 6a3e 98bc 4a9a 0e3e 579e 313e ec56 41be
00000160: 7308 4f3e 2f12 45bd 4de6 953d 3cfa cb3c
00000170: 493f d83d 0a97 fd3a 295c e3bd 0e6d 7c3e
00000180: 895a 673e 2b1a 243d 5d21 20be 8730 143e
00000190: bea0 2b3e 99dc 75be 52ae 1e3e d305 06bd
000001a0: db61 853e 1d6f 22be a57d 863e a7b3 e93c
000001b0: 3fa5 b53c f3cb 7b3e edfe a3bd 1a66 0e3d
000001c0: 011e d1bd 6c98 8dbe d148 cabd f6f2 423e
000001d0: f1ab 8dbe b3b1 953e b3fc 2dbd 7c20 6cbe
000001e0: 5a9c 9ebd d392 e93d 00b4 a13d c12c 16be
000001f0: 6d76 c23d 9c04 343e 0aa8 c1bd 1f36 2abe
00000200: 372d 653e 94fc e73d c4bf 6a3e f05f d33d
00000210: 5f28 11be 1e32 bdbd 9224 ce3d f7b8 1cbe
00000220: e12b 7fbd 573b f8bc c78d febc 5259 443e
00000230: a6ae 16be 1d1d 213d 47c4 333e 5d20 7cbe
00000240: 99d0 293c 9cf5 b33d 7be4 99bd a9ad 12be
00000250: cdba 2ebe 94c9 14be d44a 8f3e ef78 0abd
00000260: 3455 21be 2aaa 1ebd 263d 8a3d 4932 083e
00000270: 4070 36be e5de 8a3d 3a2c 0fbe 5231 ebbd
00000280: 3299 f93d 3e24 62be fc4e e43c fc66 e23d
00000290: 0fe7 39be 5168 09be de3c 4b3c b662 aabd
000002a0: c366 9ebd de7e 553e 4dce fb3d 7fe0 3c3e
000002b0: 61ea 073e 80ba 84be 9e15 943d bb35 a7bc
000002c0: 2a25 193d a4ef a3bd d964 ffbd 8603 f83d
000002d0: 2996 463e eee8 423e 5dbb de3d bef9 6cbe
000002e0: 853b 2f3e beb9 833e eb42 85be a75f b43d
000002f0: c356 3e3e 9873 0bbc b270 43bd d073 8fbe
00000300: d70d 3ebe 53e8 4abe b974 1b3d 758b 7a3d
00000310: 2eac 0b3e 7f2b 8f3c 77d5 423e 4577 cf3d
00000320: 6791 9bbd d58c cebd fb37 4e3e ddaf 0a3d
00000330: c181 65be 1299 0e3e 9935 373e 2e17 4e3e
00000340: ee08 713c 0034 58be aff5 cc3c 503f 32bd
00000350: 27cf 26bd 4a7e 3c3e 56b4 08bd 0945 84be
00000360: dbe5 36bd 8914 39be 1fa3 2dbd 2d35 873e
00000370: c347 dd3c 7b56 86be 199a 4ebd 6af0 303e
00000380: 929d 2bbd dfa7 1b3e bdd3 4abe 8465 58be
00000390: d994 853e 5ed7 2cbe 0fad 48be 7751 ac3d
000003a0: c13f 803c ca83 cb3d f164 5d3d 005b d9b5
000003b0: 88b6 8a3e 6a1e 343e 11f5 1e3d b9da 6b3d
000003c0: 7bc5 273e 7565 883e 787f 03bd ec74 343e
000003d0: 0dd6 6c3e cb83 22be 873b 7ebe 553d e6bd
000003e0: a4f1 293e ff20 5dbe ddd4 cc3d 6bc1 87be
000003f0: ea1f b3bd 7362 ca3c 4d84 1f3e d8ea e03d

blocks.2.1.bias f4 [16]
-0.046804477 -0.16263735 -0.10530787 -0.104768895 0.1500839 -0.036273155 -0.13040519 0.11637137
-0.15526608 -0.031540953 0.10591678 0.07145252 -0.038051195 -0.033331715 0.12048422 0.1730497
00000000: 0db6 3fbd 688a 26be a7ab d7bd 1391 d6bd
00000010: 98af 193e 2993 14bd f088 05be 1d54 ee3d
00000020: 12fe 1ebe 1631 01bd e6ea d83d b355 923d
00000030: 92db 1bbd d686 08bd 6ec0 f63d f133 313e

blocks.3.1.weight f4 [16, 16, 1]
0.010986389 0.18631823 -0.27237898 0.024868518 0.12797108 -0.09683319 0.22591612 -0.14982423
0.114085615 0.09093805 -0.14913051 -0.2730755 -0.1198774 0.06791273 -0.17331588 0.005269703
0.18705635 -0.18470715 0.044364236 0.23493692 -0.011437542 0.27443415 0.02668152 0.0047538327
-0.005918999 -0.1771601 -0.092817955 -0.2977533 -0.079776324 -0.22565639 0.15728225 -0.2624626
0.1161114 -0.20860983 0.008608317 0.31192046 -0.13033997 0.2893955 0.21465737 0.25868967
0.1835273 0.07509176 0.15418808 -0.22280179 0.32507795 0.021285426 0.01787694 -0.009699619
0.1454482 0.26366976 -0.13062483 -0.117901884 0.10380987 -0.18697178 -0.14770351 0.22134933
0.12766626 -0.26796976 0.07359245 -0.20685627 -0.082244895 -0.05382301 0.26147315 -0.08102311
-0.10735913 -0.08807205 -0.22141995 -0.16758864 -0.10794512 0.23581637 0.051047243 0.22773466
0.098887615 0.27320647 0.14432994 -0.18134287 0.14126845 -0.261927 -0.058249313 -0.23236088
0.058263287 -0.21632987 0.020390138 0.21646483 0.11058385 -0.008674198 -0.11478683 -0.15248077
-0.2513596 -0.26398763 -0.0642242 -0.20593354 -0.21571766 0.26499072 -0.1609205 -0.008056522
-0.09041665 0.10632321 0.23829147 -0.1092569 -0.062625274 0.23037802 -0.22465444 -0.08826304
-0.26917326 0.12755318 0.16628434 -0.009074442 -0.06788277 0.03143968 -0.08331881 -0.19264646
-0.10210189 -0.11670718 -0.05427076 -0.0029284926 0.0904292 0.22660796 -0.13812238 0.19447258
-0.108769335 -0.12737322 -0.06866002 -0.220891 0.1276076 0.090259455 -0.24898691 -0.25564855
-0.16509716 -0.24813591 -0.2739862 0.28942823 -0.27386892 0.17457452 0.22195597 -0.018108705
0.10079027 0.22666384 0.25965732 -0.15719397 0.04794989 -0.025874263 -0.00015111685 -0.2906211
0.2004428 -0.042944502 0.15904577 0.17410626 0.1926282 -0.1705909 0.09631981 -0.08294858
0.22953752 -0.03723123 0.2672009 -0.03389496 -0.059075534 0.13557982 0.14661536 -0.26648727
-0.15426223 -0.045092717 0.049349576 -0.06357455 -0.19679707 0.04571485 0.050421376 0.0011015701
-0.22563131 0.11158822 0.24667852 -0.26884028 -0.053084705 -0.24232939 -0.23791733 0.10256238
-0.21695201 0.08607496 -0.21927166 -0.08464634 -0.17310134 0.1477476 0.00961685 -0.18752117
0.2027923 0.11012387 0.05466579 0.13339792 0.044795156 0.1394749 -0.13219099 -0.067349344
0.0105780605 -0.03969561 -0.13807128 -0.16406995 -0.22583356 0.06790247 -0.22307451 -0.053932
-0.0032962689 -0.1415348 0.03709011 -0.0971543 -0.025357757 0.16026168 -0.058977064 -0.086432815
0.007814604 -0.15222122 -0.16231604 0.16943446 -0.050579038 -0.23126882 0.20512661 -0.07359914
-0.050219 -0.193317 -0.08090341 -0.1274681 0.12819248 -0.08072216 -0.0074250335 0.049077548
-0.23030682 -0.06959058 0.15736036 0.027779391 0.20251772 0.133082 0.18432659 0.124312386
0.15699507 -0.09856848 0.031197771 -0.021993836 -0.16131504 0.18232511 0.1465453 0.05951704
-0.102322794 0.14205067 0.0741005 0.06623057 0.033539373 -0.18416521 -0.26749018 -0.23275477
-0.078195184 0.12302478 -0.15395145 0.2648117 0.037370984 -0.005783851 0.04751813 -0.09243223
00000000: 4100 343c 35ca 3e3e 4275 8bbe 10b9 cb3c
00000010: da0a 033e 7b50 c6bd 8e56 673e 866b 19be
00000020: b8a5 e93d ba3d ba3d abb5 18be 8dd0 8bbe
00000030: 4882 f5bd d415 8b3d b879 31be 79ad ac3b
00000040: b38b 3f3e df23 3dbe 46b7 353d 4e93 703e
00000050: 8764 3bbc a282 8c3e 3493 da3c 0ac6 9b3b
00000060: 2af4 c1bb 7569 35be 5717 bebd 1f73 98be
00000070: c561 a3bd 7812 67be 990e 213e 7f61 86be
00000080: d0cb ed3d d19d 55be e609 0d3c 0ab4 9f3e
00000090: d777 05be a62b 943e 24cf 5b3e f972 843e
000000a0: 95ee 3b3e b5c9 993d 7be3 1d3e 2726 64be
000000b0: 9e70 a63e c65e ae3c a972 923c 27eb 1ebc
000000c0: 5ff0 143e b9ff 863e 84c2 05be 8b76 f1bd
000000d0: 459a d43d 8875 3fbe 973f 17be 66a9 623e
000000e0: f2ba 023e 5533 89be a3b7 963d 21d2 53be
000000f0: 0370 a8bd 8475 5cbd cfdf 853e 72ef a5bd
00000100: 1bdf dbbd 1e5f b4bd e9bb 62be 5b9c 2bbe
00000110: 5512 ddbd d979 713e ea16 513d 4633 693e
00000120: 9785 ca3d b8e1 8b3e 3acb 133e f2b1 39be
00000130: ada8 103e 4c1b 86be d596 6ebd 03f0 6dbe
00000140: 7ca5 6e3d 9485 5dbe 3809 a73c f5a8 5d3e
00000150: c979 e23d 391e 0ebc 5c15 ebbd eb23 1cbe
00000160: 35b2 80be 6329 87be fa87 83bd 3ee0 52be
00000170: 17e5 5cbe ddac 873e 58c8 24be 81ff 03bc
00000180: 5d2c b9bd fcbf d93d ae02 743e 15c2 dfbd
00000190: ae41 80bd 37e8 6b3e d00b 66be 41c3 b4bd
000001a0: 14d1 89be 4d9d 023e 7146 2a3e f8ac 14bc
000001b0: 1f06 8bbd e5c6 003d 0da3 aabd 1d45 45be
000001c0: cc1a d1bd 2d04 efbd 044b 5ebd f4eb 3fbb
000001d0: f232 b93d eb0b 683e f46f 0dbe d223 473e
000001e0: 75c2 debd 206e 02be a09d 8cbd 4031 62be
000001f0: 91ab 023e f3d9 b83d 6df6 7ebe 5ee4 82be
00000200: 3b0f 29be 5717 7ebe eb47 8cbe f02f 943e
00000210: 8c38 8cbe aac3 323e 6d48 633e b558 94bc
00000220: 216b ce3d 911a 683e cef1 843e 75f7 20be
00000230: 1b67 443d 43f6 d3bc 1f75 1eb9 4acc 94be
00000240: e140 4d3e 93e6 2fbd e5dc 223e e948 323e
00000250: 5440 453e 62af 2ebe 5243 c53d f2e0 a9bd
00000260: e20b 6b3e c67f 18bd 8ece 883e 71d5 0abd
00000270: 30f9 71bd 70d5 0a3e 5622 163e 0571 88be
00000280: ebf6 1dbe 24b3 38bd c822 4a3d 6033 82bd
00000290: 2c85 49be 7f3f 3b3d a586 4e3d 8f62 903a
000002a0: e50b 67be 5d88 e43d 4b99 7c3e 6fa5 89be
000002b0: 596f 59bd 3225 78be 9aa0 73be 3a0c d23d
000002c0: ab28 5ebe 1248 b03d c088 60be 0f5b adbd
000002d0: 7a41 31be 264b 173e fe8f 1d3c 8d05 40be
000002e0: c9a8 4f3e a088 e13d 3ce9 5f3d 7799 083e
000002f0: 207b 373d 82d2 0e3e 135d 07be 74ee 89bd
00000300: 9a4f 2d3c dd97 22bd 8f62 0dbe f401 28be
00000310: ea40 67be 7310 8b3d a56d 64be cde7 5cbd
00000320: 3706 58bb 80ee 10be cdeb 173d d5f8 c6bd
00000330: 12bb cfbc a31b 243e ef91 71bd b003 b1bd
00000340: d308 003c e1df 1bbe 2d36 26be 3a80 2d3e
00000350: f72b 4fbd bcd1 6cbe b60c 523e 25bb 96bd
00000360: 70b2 4dbd e4f4 45be b0b0 a5bd ff86 02be
00000370: e444 033e a951 a5bd b24d f3bb 8a05 493d
00000380: 8dd5 6bbe 8285 8ebd 1323 213e 9b91 e33c
00000390: ce60 4f3e a646 083e 1cc0 3c3e 7e97 fe3d
000003a0: 51c3 203e 45de c9bd 7892 ff3c 6b2c b4bc
000003b0: c52f 25be 6fb3 3a3e f90f 163e 24c8 733d
000003c0: 9d8e d1bd bb75 113e 01c2 973d e5a3 873d
000003d0: 9560 093d ce95 3cbe 79f4 88be 4457 6ebe
000003e0: cc24 a0bd 6af4 fb3d 73a5 1dbe 6695 873e
000003f0: 5112 193d 7586 bdbb 5fa2 423d 1c4d bdbd

blocks.3.1.bias f4 [16]
0.09231236 -0.15595062 0.0505688 0.19170518 -0.12137634 -0.12560499 -0.06775526 0.17557229
-0.18046314 -0.032634366 -0.045973632 -0.26246288 -0.14287776 -0.25033146 -0.15520051 0.042255037
00000000: 430e bd3d 85b1 1fbe 3b21 4f3d 5d4e 443e
00000010: 2994 f8bd 989e 00be 45c3 8abd 39c9 333e
00000020: 54cb 38be 9dab 05bd d94e 3cbd 8961 86be
00000030: 8c4e 12be 722b 80be e2ec 1ebe 9e13 2d3d

blocks.4.1.weight f4 [16, 16, 1]
-0.023884691 -0.15830004 -0.047088522 0.22266778 -0.03979135 -0.07940458 -0.11624036 0.11924922
-0.20239046 -0.108091146 -0.24558546 -0.04242211 -0.0781877 -0.023514401 0.07076298 0.2749529
-0.17468017 0.27468893 -0.24625598 -0.00881694 -0.08984948 0.025951399 0.033400875 -0.008515051
-0.1902023 -0.031585142 -0.2570534 0.15919323 0.2704423 -0.047821272 -0.22824763 0.1414967
-0.2895734 0.33015475 -0.3149311 0.22556616 0.036821328 0.03154204 -0.21083118 -0.31572363
-0.22289401 0.3504743 -0.24500436 -0.007800858 0.2794852 -0.20846598 -0.099143796 0.32428434
0.16516401 0.03521922 0.12919097 -0.09573745 0.07562727 -0.0037457903 0.20319048 0.07604196
0.17511356 -0.1159396 -0.021997588 -0.13450997 0.10223112 0.27025965 0.099345125 -0.24366182
0.14187002 0.12743221 -0.11298584 -0.15194383 -0.21547428 -0.06818014 -0.221475 -0.1878156
0.20599237 0.22953995 0.0710193 0.0007381358 0.012757256 -0.1362835 0.024174266 -0.0424483
0.21162917 0.15558589 0.12393946 -0.10711001 0.13599883 0.19952513 0.21799952 -0.19489364
0.11414491 0.0024953107 0.13335457 -0.22422405 -0.25698483 0.12929784 0.19703053 0.13756688
-0.20017135 0.08068193 -0.060038876 -0.13843082 0.15291993 -0.019410871 0.13319609 0.06670255
0.23051944 0.000702231 0.047460865 -0.24496019 0.039481092 0.24919723 0.19290397 -0.1353643
-0.26074827 0.18428689 0.009062593 -0.0021033504 -0.054698482 0.096171044 -0.04430893 0.018312592
0.057971165 0.27170065 0.108888075 -0.041412808 0.23887767 -0.21413943 -0.058061447 -0.025868174
0.10762173 0.20450018 -0.12777261 -0.15885198 -0.028906591 -0.16998038 -0.17017025 -0.1632348
-0.007260589 0.12704244 -0.047964342 0.24780254 0.26342717 -0.2626258 0.03605826 -0.06405094
0.044183202 0.041460708 0.122621715 -0.14768209 0.19044065 0.057259355 0.02868197 -0.18652007
0.030341553 -0.03153464 0.1569422 0.25136554 -0.167204 0.067347996 -0.23112479 0.06468872
-0.20299916 0.19405054 -0.17672312 -0.051652133 -0.24011768 -0.14469473 -0.2692339 0.11567441
-0.012193665 -0.19422592 0.21530001 0.054945033 0.03496015 0.14929718 -0.165856 0.18519829
0.18293336 -0.10736242 -0.04559129 0.18105397 0.056953527 0.11698116 0.01078947 0.071814395
0.15419558 0.24767552 0.15447833 0.23906603 -0.026805764 0.10128568 0.07469927 -0.06691778
0.240618 0.1594112 0.2559571 -0.022565458 -0.05205728 0.018763373 -0.031995725 -0.14943476
-0.04806492 -0.19372095 0.09490958 0.15727487 0.090683654 0.15658313 -0.21443431 0.0554766
0.0024179213 0.20138608 -0.20513362 0.2424292 0.17107238 -0.28717276 0.113979094 -0.20154363
-0.26051486 0.25315195 -0.2726281 0.18182775 0.2117315 -0.0155375395 -0.04493344 -0.042299844
-0.16011278 0.10166742 -0.1500897 -0.24767235 0.25039437 0.23311202 0.08488388 -0.1209847
0.2747119 0.06040053 -0.0045630597 0.15182264 0.06987402 0.25385228 0.16056779 -0.26343685
0.24478883 -0.11044513 -0.16784017 -0.19900641 0.009467787 0.08713933 -0.2279729 0.18352604
0.17396276 -0.18087345 0.14603285 -0.21361445 -0.14530593 0.23765302 -0.092284895 0.12534681
00000000: d4a9 c3bc 6819 22be e5df 40bd 0603 643e
00000010: 41fc 22bd de9e a2bd 6d0f eebd ef38 f43d
00000020: 723f 4fbe e45e ddbd c17a 7bbe cec2 2dbd
00000030: df20 a0bd 46a1 c0bc 2eec 903d a0c6 8c3e
00000040: 5cdf 32be 07a4 8c3e 872a 7cbe ed74 10bc
00000050: 0103 b8bd 0798 d43c 5bcf 083d b682 0bbc
00000060: 64c4 42be 6c5f 01bd 819c 83be 8d03 233e
00000070: 6a77 8a3e 3de0 43bd bfb9 69be 83e4 103e
00000080: f742 94be 0b0a a93e a63e a1be d1fa 663e
00000090: f6d1 163d 3a32 013d 21e4 57be 87a6 a1be
000000a0: 543e 64be 5e71 b33e 6ce2 7abe 579e ffbb
000000b0: af18 8f3e 1b78 55be e70b cbbd 9908 a63e
000000c0: c120 293e 0742 103d a34a 043e ff11 c4bd
000000d0: 78e2 9a3d ef7b 75bb 2a11 503e e3bb 9b3d
000000e0: f850 333e be71 edbd 4934 b4bc fbbc 09be
000000f0: 8d5e d13d 795f 8a3e 7575 cb3d 7c82 79be
00000100: 6046 113e 977d 023e 1f65 e7bd 2a97 1bbe
00000110: 4aa5 5cbe 07a2 8bbd 58ca 62be bc52 40be
00000120: aaef 523e 850c 6b3e 9172 913d 747f 413a
00000130: cf03 513c e78d 0bbe 1c09 c63c 45de 2dbd
00000140: 51b5 583e e851 1f3e f9d3 fd3d 7e5c dbbd
00000150: 4743 0b3e 5150 4c3e 443b 5f3e 3392 47be
00000160: cec4 e93d 5e88 233b 1a8e 083e fd9a 65be
00000170: 8493 83be a766 043e 5fc2 493e 55de 0c3e
00000180: b8f9 4cbe 913c a53d 53eb 75bd cfc0 0dbe
00000190: 0b97 1c3e 8c03 9fbc 8e64 083e 599b 883d
000001a0: 4a0d 6c3e ed15 383a 5366 423d d8d6 7abe
000001b0: edb6 213d 8f2d 7f3e 9e88 453e f09c 0abe
000001c0: cc80 85be b4b5 3c3e 457b 143c 5dd8 09bb
000001d0: 840b 60bd 53f5 c43d 487d 35bd 4a04 963c
000001e0: 2c73 6d3d 591c 8b3e b600 df3d 7aa0 29bd
000001f0: 599c 743e 5e47 5bbe d7d1 6dbd 7ee9 d3bc
00000200: c868 dc3d 7f68 513e d3d6 02be 18aa 22be
00000210: 84cd ecbc 560f 2ebe 1c41 2ebe 0627 27be
00000220: 3cea edbb 6a17 023e 4276 44bd f3bf 7d3e
00000230: eddf 863e e476 86be d3b1 133d 242d 83bd
00000240: 72f9 343d b4d2 293d 1821 fb3d f939 17be
00000250: e002 433e c988 6a3d 73f6 ea3c 1eff 3ebe
00000260: d98e f83c 772a 01bd 75b5 203e fcb2 803e
00000270: 8637 2bbe bfed 893d faab 6cbe 857b 843d
00000280: 03df 4fbe 2fb5 463e e8f6 34be 3091 53bd
00000290: 69e1 75be db2a 14be 07d9 89be b4e6 ec3d
000002a0: f0c7 47bc 29e3 46be 9b77 5c3e 0b0e 613d
000002b0: 6032 0f3d 5ce1 183e 28d6 29be 9fa4 3d3e
000002c0: e252 3b3e d4e0 dbbd efbd 3abd 3666 393e
000002d0: 1a48 693d d293 ef3d 51c6 303c 6d13 933d
000002e0: 72e5 1d3e a79e 7d3e 912f 1e3e bacd 743e
000002f0: c397 dbbc de6e cf3d eefb 983d 300c 89bd
00000300: 9164 763e b13c 233e cf0c 833e 32db b8bc
00000310: 043a 55bd a5b5 993c f30d 03bd 6d05 19be
00000320: b9df 44bd c95e 46be f45f c23d aa0c 213e
00000330: 5ab8 b93d 5457 203e ab94 5bbe 6e3b 633d
00000340: fd75 1e3b 2738 4e3e 8c0e 52be 5c3f 783e
00000350: 992d 2f3e 4f08 93be df6d e93d 7461 4ebe
00000360: 3462 85be 229d 813e e995 8bbe 0e31 3a3e
00000370: 24d0 583e 2a91 7ebc 200c 38bd 9a42 2dbd
00000380: 9bf4 23be 0237 d03d 1db1 19be d29d 7dbe
00000390: b133 803e ebb4 6e3e 9ad7 ad3d d4c6 f7bd
000003a0: 0aa7 8c3e 8c66 773d b885 95bb 6577 1b3e
000003b0: 1c1a 8f3d edf8 813e e26b 243e 32e1 86be
000003c0: eca9 7a3e 0e31 e2bd 4bde 2bbe 56c8 4bbe
000003d0: c71e 1b3c 1b76 b23d ba71 69be 40ee 3b3e
000003e0: 4b23 323e e436 39be a389 153e bfbd 5abe
000003f0: 14cb 14be 505b 733e ddff bcbd ea5a 003e

blocks.4.1.bias f4 [16]
0.15899655 0.15406354 0.1383693 0.23916796 -0.25511792 -0.13972837 0.27741778 -0.16894275
0.104545586 -0.053077694 0.07995685 -0.02287531 -0.08768778 -0.01061363 -0.091221444 -0.09875156
00000000: fecf 223e d5c2 1d3e afb0 0d3e 72e8 743e
00000010: d19e 82be f414 0fbe b409 8e3e 54ff 2cbe
00000020: ff1b d63d ff67 59bd 6bc0 a33d 0165 bbbc
00000030: a795 b3bd cae4 2dbc 4fd2 babd 423e cabd

blocks.5.1.weight f4 [16, 16, 1]
0.048868068 0.23385142 0.16751565 0.04090789 -0.06794851 -0.19624613 -0.20650752 0.07424077
-0.21228848 0.1787981 -0.059984397 -0.17925432 -0.031677537 0.22205526 0.047997665 0.030157426
0.22223254 0.24281824 -0.13466854 -0.06457539 0.09609522 0.18907712 -0.17025945 0.05948445
-0.11589946 0.2016537 -0.04244042 0.13892847 0.2421386 -0.21477365 0.29970616 0.05830418
-0.0967285 0.28267744 -0.29041535 -0.27571708 -0.10606636 0.036585107 0.25754964 -0.23173663
-0.12031421 0.08142081 0.22496684 0.11203988 0.06338574 -0.25577328 -0.1518967 0.16132566
0.037614763 -0.097261585 0.0050594686 0.24768128 -0.217448 -0.026216531 0.01719432 -0.042635053
-0.14112194 0.08395521 -0.08815583 0.11264373 -0.11221759 0.08153869 0.03393194 0.07250529
0.11386096 -0.23910046 -0.21029161 0.05716013 -0.2150901 -0.10928405 0.004965658 0.0118461875
0.24396047 -0.20234162 -0.23551631 0.050119635 0.29005432 0.17840597 -0.10990065 0.00289372
0.0065382253 0.11934456 0.0061488054 -0.12574878 -0.17986065 -0.017032836 -0.11376556 -0.16280243
-0.10875587 -0.09560341 -0.045401514 -0.2462515 0.12317226 -0.05813013 -0.17667004 -0.12643896
-0.19657059 -0.15326932 -0.22857627 0.113658145 0.042805884 0.1932267 -0.1804802 0.025074033
0.22451653 -0.055751264 0.11342505 -0.160288 -0.16590938 0.08554802 -0.16010869 0.016288431
0.29114717 0.2844105 -0.16827995 -0.1965195 -0.043847524 0.15162191 0.08952014 0.064816095
0.024502737 -0.04830896 0.09764467 0.008889829 0.29339167 -0.06910384 -0.18068114 0.14579909
0.09745737 0.2921763 0.12652533 -0.28096968 0.14011893 0.10507227 -0.13097844 -0.019062098
-0.1873731 -0.1349657 -0.17242843 -0.17459899 -0.18792014 0.062699504 0.15219595 0.21773317
-0.16352905 0.12897739 -0.16710144 -0.08340284 0.266279 0.19803677 0.13574722 -0.10114843
0.17693658 -0.06638037 -0.043778762 0.1765108 -0.042757418 -0.15800461 -0.115264304 0.22111607
0.032685053 0.050508834 -0.26151934 -0.15607595 0.22461736 0.06286656 0.060909342 -0.12076502
0.026188048 0.014631441 0.046706185 0.11775698 -0.018199343 0.10970812 -0.05414743 -0.026093163
0.07773749 0.18877183 0.052933656 -0.122665726 -0.17783615 0.06965691 0.2462869 -0.04159186
-0.23655 -0.27579263 0.18274598 0.19641045 0.3001694 -0.22519341 0.13225427 0.1946734
-0.10683126 0.07626248 -0.03254837 -0.00359802 0.009196188 0.14302194 -0.021513239 0.10573748
0.05081152 0.17229027 0.1610335 -0.16818504 -0.18437071 0.26021966 -0.12744519 -0.08989026
-0.039097704 0.17684089 0.1022217 -0.2820444 0.18880251 0.24921782 -0.08118863 -0.0036047492
0.18381786 0.14295445 0.076483086 0.20501336 0.09565674 0.056968793 0.10774282 0.22494651
-0.032851808 0.22316243 0.055447794 0.046453208 -0.18428662 -0.15977399 -0.05112274 0.19634628
0.10235206 0.024651848 0.0764653 0.10726665 -0.015326388 0.12958081 -0.17645077 -0.23461683
0.19538547 -0.18419728 0.24144685 0.05651217 0.10406025 0.08620778 0.08639626 -0.07325409
-0.15739076 0.1472048 0.11335496 -0.12469583 -0.24464273 0.12020173 -0.10588693 -0.15938646
00000000: e229 483d bf76 6f3e 3989 2b3e 088f 273d
00000010: 9728 8bbd bff4 48be b576 53be 8b0b 983d
00000020: 2762 59be d916 373e 33b2 75bd 728e 37be
00000030: 4ec0 01bd 7462 633e 3399 443d b50c f73c
00000040: ed90 633e 58a5 783e 8de6 09be 1a40 84bd
00000050: 92cd c43d 6f9d 413e 7e58 2ebe f7a5 733d
00000060: b25c edbd 4f7e 4e3e 01d6 2dbd 4443 0e3e
00000070: 2ef3 773e a0ed 5bbe 1673 993e 5dd0 6e3d
00000080: 9819 c6bd 19bb 903e 52b1 94be ca2a 8dbe
00000090: 5239 d9bd 44da 153d 8cdd 833e 5e4c 6dbe
000000a0: 4c67 f6bd f4bf a63d b55d 663e 2a75 e53d
000000b0: 62d0 813d b7f4 82be cf8a 1bbe 8e32 253e
000000c0: f011 1a3d 1531 c7bd e6c9 a53b 29a0 7d3e
000000d0: b0aa 5ebe 0dc4 d6bc 1adb 8c3c 18a2 2ebd
000000e0: 4582 10be b6f0 ab3d 0b8b b4bd c2b1 e63d
000000f0: 56d2 e5bd c2fd a63d 38fc 0a3d a77d 943d
00000100: ef2f e93d c0d6 74be af56 57be be20 6a3d
00000110: 9440 5cbe 51d0 dfbd f5b6 a23b 8316 423c
00000120: c6d0 793e a432 4fbe 302b 71be 3f4a 4d3d
00000130: 0082 943e 0eb0 363e 9813 e1bd 91a4 3d3b
00000140: 9c3e d63b ec6a f43d eb7b c93b 4ac4 00be
00000150: 642d 38be 7288 8bbc ebfd e8bd aeb5 26be
00000160: 66bb debd b8cb c3bd f0f6 39bd 5a29 7cbe
00000170: bd41 fc3d dc19 6ebd fee8 34be 3779 01be
00000180: cd49 49be a2f2 1cbe e60f 6abe 9ac5 e83d
00000190: 3955 2f3d 38dd 453e cdcf 38be 0f68 cd3c
000001a0: a9e7 653e 705b 64bd 654b e83d 8a22 24be
000001b0: 26e4 29be cd33 af3d 88f3 23be 516f 853c
000001c0: 3e11 953e 419e 913e 9451 2cbe 683c 49be
000001d0: 7699 33bd c642 1b3e 5656 b73d 4dbe 843d
000001e0: f7b9 c83c 9edf 45bd eef9 c73d a5a6 113c
000001f0: 6f37 963e 5086 8dbd 7a04 39be 5b4c 153e
00000200: bb97 c73d 2298 953e db8f 013e 42db 8fbe
00000210: 567b 0f3e 2130 d73d 361f 06be 1e28 9cbc
00000220: bcde 3fbe 7334 0abe 1491 30be 14ca 32be
00000230: 236e 40be 9968 803d 41d9 1b3e 72f5 5e3e
00000240: 2974 27be a612 043e a41c 2bbe 1ccf aabd
00000250: b955 883e 27ca 4a3e 5201 0b3e e826 cfbd
00000260: dd2e 353e 6ef2 87bd 5c51 33bd 3fbf 343e
00000270: 6722 2fbd f6cb 21be b10f ecbd 406c 623e
00000280: c3e0 053d 5ae2 4e3d dde5 85be 60d2 1fbe
00000290: 1802 663e 2fc0 803d 137c 793d a753 f7bd
000002a0: 5188 d63c b6b8 6f3c fc4e 3f3d 922a f13d
000002b0: ca16 95bc a7ae e03d b2c9 5dbd 54c1 d5bc
000002c0: d534 9f3d 674d 413e f6d0 583d 2b38 fbbd
000002d0: ae1a 36be 48a8 8e3d a232 7c3e 3a5c 2abd
000002e0: 2a3a 72be b134 8dbe c321 3b3e d21f 493e
000002f0: ceaf 993e 1a99 66be aa6d 073e 7758 473e
00000300: 59ca dabd 812f 9c3d 7151 05bd c2cc 6bbb
00000310: 9cab 163c 5874 123e 883c b0bc e48c d83d
00000320: be1f 503d dc6c 303e f7e5 243e b338 2cbe
00000330: adcb 3cbe 833b 853e fe80 02be 6218 b8bd
00000340: ea24 20bd c715 353e 9c59 d13d 2068 90be
00000350: 7255 413e f532 7f3e 3946 a6bd a83d 6cbb
00000360: c03a 3c3e a762 123e 2aa3 9c3d 06ef 513e
00000370: aee7 c33d 1c58 693d 45a8 dc3d 6158 663e
00000380: 9e8f 06bd b184 643e 3a1d 633d b845 3e3d
00000390: a2b5 3cbe cb9b 23be 1466 51bd 000f 493e
000003a0: f59d d13d acf2 c93c d799 9c3d 9eae db3d
000003b0: 881b 7bbc d5b0 043e 83af 34be 653f 70be
000003c0: 2113 483e 369e 3cbe d83d 773e 4e79 673d
000003d0: 8a1d d53d b48d b03d 86f0 b03d 3e06 96bd
000003e0: 0b2b 21be dbbc 163e a526 e83d 8760 ffbd
000003f0: a083 7abe 532c f63d 3fdb d8bd 3436 23be

blocks.5.1.bias f4 [16]
-0.05385747 0.07016963 -0.23428692 -0.0589215 -0.08577839 0.2258344 -0.035571195 0.12655853
-0.27739918 0.17115279 0.10511903 0.17459443 -0.118101306 0.20408228 0.14868096 0.26123598
00000000: a799 5cbd 18b5 8f3d e9e8 6fbe ac57 71bd
00000010: 95ac afbd 2241 673e 1ab3 11bd 8f98 013e
00000020: 4407 8ebe ad42 2f3e a548 d73d e2c8 323e
00000030: 19df f1bd f2fa 503e d23f 183e b9c0 853e

project.0.weight f4 [8, 16, 1]
0.091385834 -0.043817993 -0.009811354 0.21638638 -0.070152156 0.14814396 0.1448447 -0.15510896
-0.07628678 -0.2321825 0.0704486 -0.23324472 -0.18836218 0.11463727 0.08025753 0.19726996
-0.23918526 0.122744046 -0.19756311 -0.027711183 -0.23792312 0.066890165 0.122920685 0.055496063
-0.19584316 0.18784869 0.24582915 -0.070367366 -0.089568056 0.012118086 0.23854113 0.14458463
-0.011391432 -0.22092623 -0.07324296 -0.23577182 -0.15978543 0.18518107 0.19525366 -0.16898195
-0.17655072 0.10259894 0.11164183 -0.3203814 0.02526414 -0.13087718 -0.14469212 0.122646645
0.17794518 -0.07874998 0.23474854 -0.31297284 -0.024947487 -0.12907436 -0.025863392 0.063030496
0.1351994 0.09161843 0.11851944 0.10519041 0.0839859 0.021343691 -0.23421668 0.083188914
-0.05147371 0.12026865 0.16131404 -0.070773534 0.112626456 -0.016656827 -0.13100274 0.20846626
-0.023297207 0.25550014 0.15833335 0.13921042 0.026534818 0.08908636 -0.28635836 -0.11431432
-0.19906223 -0.10201462 0.052997593 -0.1851005 -0.046591118 0.22749856 0.20861843 0.19814953
0.14493181 -0.12431686 -0.19383655 -0.11969341 0.017637469 -0.2971683 0.19787525 -0.0090473415
-0.0115931025 -0.11870267 -0.10177172 0.1390343 -0.16419372 0.2559551 0.018529942 -0.13639662
-0.20535116 -0.20643224 0.01780095 0.13239701 0.24174184 0.0907149 0.2584376 0.2211573
-0.14268135 0.050438087 0.20412733 -0.15114146 -0.0074436376 -0.04135972 -0.0017418488 0.088156134
-0.12165761 0.15892635 0.029959554 -0.21800683 0.22743651 -0.25072885 0.04857271 0.25591764
00000000: 7f28 bb3d 7f7a 33bd cdbf 20bc 6494 5d3e
00000010: efab 8fbd 0db3 173e 2b52 143e e2d4 1ebe
00000020: 3e3c 9cbd 40c1 6dbe 5b47 903d b4d7 6ebe
00000030: 04e2 40be f2c6 ea3d 0f5e a43d 2301 4a3e
00000040: fbec 74be 3b61 fb3d fc4d 4abe 9002 e3bc
00000050: 1ea2 73be b6fd 883d d7bd fb3d d74f 633d
00000060: 1c8b 48be 685b 403e a3ba 7b3e c41c 90bd
00000070: 756f b7bd f08a 463c 2044 743e fe0d 143e
00000080: 21a3 3abc 7c3a 62be 6800 96bd 2b6e 71be
00000090: cb9e 23be 1ba0 3d3e 93f0 473e 9b09 2dbe
000000a0: b6c9 34be 651f d23d 79a4 e43d 0809 a4be
000000b0: bef6 ce3c ab04 06be 2c2a 14be 2a2e fb3d
000000c0: 4337 363e ab47 a1bd ec61 703e fa3d a0be
000000d0: ac5e ccbc 122c 04be 77df d3bc 2216 813d
000000e0: b671 0a3e 72a2 bb3d 52ba f23d 126e d73d
000000f0: cd00 ac3d f7d8 ae3c 7fd6 6fbe f35e aa3d
00000100: 19d6 52bd 694f f63d 822f 253e b7f1 90bd
00000110: b3a8 e63d e673 88bc 9525 06be 2e78 553e
00000120: c9d9 bebc ead0 823e 2322 223e 2d8d 0e3e
00000130: 8c5f d93c e972 b63d 909d 92be a01d eabd
00000140: f8d6 4bbe 0bed d0bd 0114 593d fc8a 3dbe
00000150: 54d6 3ebd 62f5 683e 12a0 553e b6e7 4a3e
00000160: 0169 143e d799 febd 177d 46be d221 f5bd
00000170: 747c 903c 7226 98be cf9f 4a3e 4d3b 14bc
00000180: fff0 3dbc 631a f3bd b16d d0bd 025f 0e3e
00000190: 6622 28be 8c0c 833e 1bcc 973c 8eab 0bbe
000001a0: 9347 52be f962 53be 4cd3 913c 1593 073e
000001b0: 2c8b 773e bcc8 b93d ef51 843e 0f77 623e
000001c0: 0f1b 12be 2b98 4e3d c106 513e d4c4 1abe
000001d0: c2e9 f3bb cf68 29bd bf4e e4ba 348b b43d
000001e0: a027 f9bd 97bd 223e bd6d f53c 2f3d 5fbe
000001f0: 1ee5 683e 885f 80be 2ef4 463d a307 833e

project.0.bias f4 [8]
-0.101499274 0.084307075 -0.05248847 -0.22864299 0.16084358 -0.165994 -0.05293609 -0.19006883
00000000: dade cfbd 30a9 ac3d 26fe 56bd 6321 6abe
00000010: 2eb4 243e 55fa 29be 83d3 58bd 67a1 42be

project.3.weight f4 [3, 8, 1]
0.18547337 -0.031547464 -0.23511194 0.12539081 -0.08869561 0.118398055 0.17404222 -0.022840237
-0.3125572 0.07831236 -0.2818099 -0.011777024 0.21317185 -0.15440322 0.17128517 0.2600595
0.0048557958 0.24808289 0.3356571 -0.35461167 -0.2676106 0.09425649 0.17972918 0.20884025
00000000: bbec 3d3e ea37 01bd 2fc1 70be 7366 003e
00000010: 0ba6 b5bd ae7a f23d 2038 323e 731b bbbc
00000020: 7f07 a0be 3b62 a03d 6349 90be 6bf4 40bc
00000030: b949 5a3e e11b 1ebe 6165 2f3e 8526 853e
00000040: 5e1d 9f3b 7109 7e3e 3fdb ab3e a98f b5be
00000050: 4204 89be 8c09 c13d ed0a 383e 38da 553e

project.3.bias f4 [3]
0.12829818 0.158203 0.07313376
00000000: 9960 033e f8ff 213e 27c7 953d
