checkpoints/dong_fno_inverse.pth (torch, 114378 bytes, 18 tensors)

lift.weight f4 [16, 4, 1]
0	0x3d262ce7	0.040570166
1	0x3c9cf036	0.01915751
2	0x3dc6a5c4	0.09699586
3	0x3ece8e24	0.4034282
4	0x3eee0a7b	0.4649237
5	0xbed70dce	-0.4200272
6	0xbdf12314	-0.11774269
7	0xbe55f7af	-0.20895265
8	0xbe4a5f4c	-0.19762915
9	0xbe95a144	-0.29224598
10	0x3e9fbc68	0.3119843
11	0x3f02e189	0.5112539
12	0xbebedace	-0.3727631
13	0x3d8d4e21	0.068996675
14	0xbec00fa4	-0.37511933
15	0x3e961946	0.29316157
16	0xbdbffda0	-0.09374547
17	0x3f155083	0.58325976
18	0x3ef7b962	0.48383623
19	0xbd758406	-0.05994036
20	0x3eb72d98	0.35776973
21	0xbcdd3906	-0.02700473
22	0xbe9eebf9	-0.31039408
23	0xbe0e1be8	-0.13877833
24	0x3ef7017b	0.48243317
25	0x3d8fb0f4	0.07016173
26	0xbebe6a01	-0.3719025
27	0xbe1230c2	-0.14276412
28	0xbbed464c	-0.007241046
29	0x3ec16586	0.3777277
30	0x3e82aa1c	0.25520408
31	0xbee0773c	-0.4384097
32	0xbe51307f	-0.20428656
33	0x3e2794a4	0.16365296
34	0x3e8f7c66	0.28024596
35	0xbeab16c1	-0.33415797
36	0xbe2038cb	-0.15646665
37	0xbb0f5b86	-0.002187462
38	0xbe9ffb38	-0.31246352
39	0x3ec18a22	0.378007
40	0x3ea60681	0.32426837
41	0xbf2428cf	-0.6412477
42	0xbe031bbe	-0.12803552
43	0xbea2cc04	-0.31796277
44	0x3ed314eb	0.41226897
45	0xbca33ad1	-0.019925507
46	0x3f032ce3	0.51240367
47	0xbee74050	-0.45166254
48	0x3e13f66f	0.14449476
49	0xbc22109c	-0.009891655
50	0xbcdf03fc	-0.02722358
51	0xbb94a5ec	-0.004536381
52	0x3edf5df1	0.4362636
53	0xbea9ba85	-0.33150116
54	0x3e9157a0	0.28387165
55	0xbee4dbf0	-0.4469905
56	0x3e8b0591	0.27152684
57	0x3e2ec2e0	0.17066526
58	0xbd83fe37	-0.06444972
59	0xbdaaf24e	-0.08346997
60	0x3e81021f	0.2519693
61	0x3e6bb822	0.2301946
62	0xbda339c6	-0.07970004
63	0xbe0c3155	-0.13690694

lift.bias f4 [16]
0	0x3ee2acf2	0.44272572
1	0xbb6bbc85	-0.003597052
2	0x3e15251e	0.1456494
3	0xbe3b2e28	-0.18279326
4	0xbe02cee7	-0.1277424
5	0x3d8368cb	0.06416472
6	0x3eb1519c	0.34632576
7	0xbe9f9171	-0.3116565
8	0x3e98be1e	0.29832548
9	0xbef40824	-0.4766246
10	0x3e3e7750	0.18600202
11	0x3ed723f4	0.42019618
12	0x3dee3970	0.11632049
13	0x3ee992e5	0.45619884
14	0xbcbf6cc9	-0.023367302
15	0xbe3ba647	-0.18325149

blocks.0.1.weight f4 [16, 16, 1]
0	0xbdf5291e	-0.11970733
1	0xbe38cbb2	-0.18046454
2	0xbe373e62	-0.17894891
3	0xbe5ce881	-0.21573068
4	0x3ddf3367	0.10898476
5	0x3dc142cb	0.09436568
6	0xbd4150e0	-0.04719627
7	0xbd0e4324	-0.034732
8	0x3e824b35	0.25448003
9	0xbc940bcb	-0.01807203
10	0xbc2d0ebd	-0.010562596
11	0x3e13f4b0	0.1444881
12	0x3d8a1412	0.06742109
13	0xbd464e3e	-0.04841446
14	0xbe3e2a07	-0.1857072
15	0xbe1607ac	-0.14651364
16	0xbcd459b3	-0.025921678
17	0x3d429c45	0.04751231
18	0xbd2cef98	-0.042220682
19	0xbe09ccac	-0.13456982
20	0x3e48a1f4	0.1959303
21	0x3dcf0be6	0.10109691
22	0xbdb08be3	-0.08620431
23	0x3da7278b	0.08161839
24	0xbd715925	-0.058922905
25	0xbe8b6961	-0.27228835
26	0xbde66b86	-0.11250977
27	0xbdc697fb	-0.09696957
28	0xbcb9610c	-0.022629283
29	0xbe5b8e97	-0.21441112
30	0x3cbfea2d	0.023427093
31	0xbe200045	-0.15625103
32	0xbe383ab3	-0.17991142
33	0x3c7c499e	0.015398411
34	0xbdc788a3	-0.09742858
35	0xbe0a98d0	-0.13534856
36	0xbdeeb60c	-0.116558164
37	0x3e67ac63	0.22624354
38	0x3d0e1be5	0.03469457
39	0x3e4f3890	0.2023642
40	0x3e3b01d2	0.18262413
41	0x3cb33981	0.021878006
42	0x3e543511	0.20723368
43	0xbe531397	-0.20612942
44	0xbbb71a81	-0.0055878763
45	0x3da325ad	0.079661705
46	0xbe773364	-0.24140698
47	0xbb9507b0	-0.0045480356
48	0xbe0c64f8	-0.13710392
49	0xbe0db07d	-0.13836856
50	0xbd053b90	-0.032527506
51	0xbe56e738	-0.2098664
52	0x3e10186e	0.14071819
53	0x3d7bd1e1	0.061479453
54	0xbd6d9c06	-0.058010124
55	0x3da81039	0.08206219
56	0x3d50def3	0.05099387
57	0xbbba9fbc	-0.0056953114
58	0xbddbeb85	-0.10738281
59	0xbd7a9ab9	-0.06118271
60	0xbe476203	-0.19470982
61	0xbd78a66f	-0.0607056
62	0xbe547b6c	-0.20750207
63	0x3e61a6c6	0.22036275
64	0x3d5f2b76	0.054484807
65	0xbe390b53	-0.18070726
66	0x3db8e62d	0.090282775
67	0x3e90604a	0.28198463
68	0x3d676500	0.056492805
69	0xbb8b4e44	-0.0042512733
70	0xbc39f3e4	-0.011349652
71	0xbe0cf9ac	-0.13767117
72	0x3c8d452b	0.017244896
73	0x3e763610	0.2404406
74	0xbdf92585	-0.121653594
75	0x3c4a1d59	0.012336099
76	0x3e4d4f15	0.20049699
77	0xbe7bdfd5	-0.24597104
78	0x3e2f5002	0.17120364
79	0xbe0cf1b8	-0.13764083
80	0xbea5913f	-0.32337376
81	0x3e51ec45	0.20500286
82	0xbe59f825	-0.21286066
83	0xbcb99c2a	-0.022657473
84	0xbdc90f4a	-0.09817369
85	0xbdb2f0bf	-0.08737325
86	0xbcfd8592	-0.03094748
87	0xbd85d049	-0.06533868
88	0xbb69dd03	-0.0035684712
89	0xbe2b2fb2	-0.16717413
90	0xbe986fad	-0.29772702
91	0xbdab250a	-0.08356674
92	0xbdee8467	-0.116463475
93	0x3e3e5a14	0.1858905
94	0x3e938eb3	0.28819808
95	0xbdd2e33a	-0.10297246
96	0xbe1d0941	-0.15335561
97	0xbc090eba	-0.0083653275
98	0x3b7282d0	0.003700424
99	0xbcb2f588	-0.021845594
100	0x3e78ab98	0.24284208
101	0x3e272d3b	0.16325848
102	0xbe9053ff	-0.28189084
103	0x3e05b773	0.13058262
104	0x3e813eda	0.25243264
105	0x3e51b128	0.20477736
106	0x3ddb52cb	0.10709151
107	0xbe6d559d	-0.2317719
108	0xbe8251b9	-0.25452974
109	0x3e3d1196	0.1846374
110	0xbe1b2a73	-0.15152912
111	0xbcbd734d	-0.023126269
112	0xbdfd8a43	-0.12379887
113	0x3e0ad1d4	0.13556606
114	0x3e6be2f0	0.23035789
115	0xbcfe91e9	-0.031075435
116	0x3e870103	0.2636796
117	0x3e14a1ad	0.145148
118	0x3d7e108a	0.06202749
119	0xbc3795dc	-0.011205163
120	0x3e041cfc	0.12901682
121	0x3e46cb01	0.19413377
122	0xbe388725	-0.18020304
123	0xbe58ec6f	-0.21183942
124	0xbe5ff9ae	-0.21872589
125	0x3cfc4eec	0.030799352
126	0xbdced40d	-0.10099039
127	0xbda26d0d	-0.07930956
128	0xbdf51c0a	-0.11968239
129	0x3e15fca7	0.1464716
130	0xbe234e54	-0.15947849
131	0x3e4f6339	0.20252694
132	0x3dbc5812	0.091964856
133	0x3e85dc64	0.26144707
134	0x3e92e31c	0.28688896
135	0xbe1a2cca	-0.15056148
136	0xbde586ed	-0.11207376
137	0x3e0fc694	0.14040595
138	0xbd4391bd	-0.04774641
139	0x3d9fa784	0.07795623
140	0x3e2d6e62	0.16936639
141	0x3de4557a	0.11149116
142	0x3e373cec	0.17894334
143	0xbdbf7d73	-0.093500994
144	0x3e437a32	0.19089583
145	0xbd876282	-0.06610586
146	0x3e7eb1f5	0.24872573
147	0xbe22b860	-0.15890646
148	0x3db80559	0.08985395
149	0x3dbf21ef	0.09332644
150	0xbe105411	-0.14094569
151	0xbe82f167	-0.255748
152	0x3e5c5ef3	0.21520595
153	0x3e5796c5	0.21053608
154	0xbe0e5a55	-0.13901646
155	0xbcdefa6c	-0.02721902
156	0xbe14fe18	-0.14550054
157	0x3b98c20c	0.004661804
158	0xbd2da156	-0.04239019
159	0xbd876476	-0.06610958
160	0xbe61957a	-0.22029677
161	0xbcefea96	-0.029286664
162	0x3e5dfda5	0.21678789
163	0x3c1f17d5	0.009710272
164	0xbd820902	-0.06349374
165	0x3cbf88ae	0.023380604
166	0x3bf4ff0a	0.007476692
167	0xbde0580e	-0.10954295
168	0x3e1bbd47	0.15208922
169	0xbd8139b7	-0.06309836
170	0x3d5977ae	0.05309265
171	0x3dd17f92	0.1022941
172	0xbdd61e35	-0.1045498
173	0x3d159066	0.036514662
174	0xbde6d690	-0.11271393
175	0x3c087fe8	0.0083312765
176	0x3e306d86	0.1722928
177	0x3e6fd764	0.23422009
178	0x3e1ab1ac	0.15106839
179	0x3ca865e5	0.0205564
180	0x3e77df86	0.24206361
181	0xbe17dc38	-0.148301
182	0xbe0f3e69	-0.13988651
183	0xbdac8629	-0.084240265
184	0xbd35e86b	-0.044411104
185	0xbe3f8f17	-0.18706928
186	0xba6cbe24	-0.00090310187
187	0xbdb21aad	-0.08696494
188	0x3e44c50b	0.19215791
189	0xbe4cdf77	-0.2000712
190	0x3dce4251	0.100712426
191	0x3c98995d	0.018627817
192	0xbdc1fac4	-0.09471658
193	0xbd1b4a86	-0.037912868
194	0xbe04e885	-0.12979324
195	0xbdc07d5b	-0.0939891
196	0xbe73d057	-0.23809944
197	0xbe19b5ea	-0.15010801
198	0xbe6c27ec	-0.23062104
199	0xbd907c50	-0.07054961
200	0xbe880d41	-0.26572612
201	0xbd90d5e8	-0.070720494
202	0xbe38c2a1	-0.18042995
203	0x3cd21315	0.025643865
204	0x3d8af765	0.06785468
205	0x3e411efe	0.18859479
206	0xbe76e946	-0.24112424
207	0x3cbf84ad	0.023378694
208	0xbe7118bf	-0.23544596
209	0x3e3a66e4	0.18203312
210	0x3cdcabcf	0.026937393
211	0xbb151b20	-0.0022751763
212	0x3e5f0fea	0.21783414
213	0x3e8b3aba	0.27193242
214	0xbe34438e	-0.17603895
215	0x3dca3c38	0.09874767
216	0xbe1ce21f	-0.15320633
217	0xbe5fcff5	-0.21856673
218	0xbe1a11ad	-0.15045805
219	0x3c8e5445	0.017374167
220	0x3d1f550c	0.038899466
221	0xbe154776	-0.14578041
222	0x3cf31668	0.02967377
223	0x3e1f2d18	0.15544546
224	0x3e265406	0.1624299
225	0x3e3d8cdc	0.18510765
226	0xbd9d3886	-0.076767966
227	0x3e8a3f2d	0.27001324
228	0xbd5d69bb	-0.05405591
229	0x3e7f2783	0.24917416
230	0x3d85248f	0.065011136
231	0x3e20991f	0.15683411
232	0xbde3ccc2	-0.11123039
233	0xbd4ed7a7	-0.05049863
234	0xbe817809	-0.25286892
235	0xbe8fc536	-0.28080148
236	0xbe7317b3	-0.2373951
237	0x3ce6f643	0.028193599
238	0x3de14cda	0.110009864
239	0xbd4b59b3	-0.04964609
240	0xbe2f6b00	-0.17130661
241	0xbd6a8530	-0.057255924
242	0x3e3f7c0d	0.18699665
243	0x3e6e5c9b	0.23277514
244	0x3e4a5c89	0.19761862
245	0xbd0bdfc0	-0.03414893
246	0xbe440aae	-0.19144699
247	0xbe6a146e	-0.22859356
248	0x3e3e43f4	0.1858061
249	0xbe89982a	-0.26873904
250	0xbda4303c	-0.080170125
251	0xbe86d0e6	-0.26331252
252	0xbe2e5ba0	-0.1702714
253	0x3dd40758	0.10352963
254	0x3ad6ab1e	0.0016377901
255	0xbdac643a	-0.08417554

blocks.0.1.bias f4 [16]
0	0xbe66b6c6	-0.2253066
1	0x3e64c048	0.22338974
2	0x3e4d5c3d	0.20054717
3	0xbe82d53b	-0.25553307
4	0x3c43bfde	0.0119476
5	0x3de82aa4	0.11336258
6	0x3e4fc756	0.20290884
7	0xbe2683b3	-0.16261177
8	0xbd6c826a	-0.05774156
9	0x3e37ff41	0.17968465
10	0x3dadf4d6	0.084939644
11	0x3e794529	0.24342789
12	0x3d9b6fb1	0.07589663
13	0x3d676c63	0.05649985
14	0xbe5782bc	-0.21045965
15	0x3dfb1986	0.122607276

blocks.1.1.weight f4 [16, 16, 1]
0	0xbd85e117	-0.06537073
1	0x3c4b9528	0.012425698
2	0x3d5fceca	0.05464057
3	0xbdb8627f	-0.09003162
4	0x3ddba193	0.10724177
5	0x3d516c58	0.051128715
6	0x3ddec795	0.10877911
7	0x3e30f5e0	0.17281294
8	0x3e4ddac7	0.20102988
9	0x3d27b5ce	0.040944867
10	0x3e6b955c	0.23006195
11	0xbdd56f4e	-0.1042162
12	0x3cbb98e0	0.022900045
13	0x3e0e6414	0.13905364
14	0x3e097eb4	0.1342724
15	0x3e364bd1	0.17802359
16	0xbe4c9e96	-0.1998237
17	0x3e07e6c5	0.13271625
18	0x3e521e69	0.20519413
19	0xbe913804	-0.2836305
20	0x3e845317	0.25844643
21	0x3e59b59c	0.21260685
22	0xbe86d8c8	-0.26337266
23	0xbe32b8db	-0.1745333
24	0x3e3b006e	0.18261883
25	0x3ded5263	0.1158798
26	0x3b910d9e	0.004426672
27	0x3d590b15	0.052989084
28	0xbdf528ba	-0.119706586
29	0xbdae1a01	-0.085010536
30	0x3e3a0b34	0.18168336
31	0xbe312d4c	-0.17302436
32	0xbe6d005b	-0.23144667
33	0xbc9a6248	-0.018845692
34	0x3de22a77	0.11043256
35	0x3e66e6fc	0.22549051
36	0x3cc84d44	0.024450906
37	0xbc5412d9	-0.012943947
38	0xbcd1532e	-0.025552358
39	0x3e2fa96b	0.17154472
40	0x3e5a9c87	0.21348773
41	0x3e85d5e3	0.26139745
42	0xbe258526	-0.16164073
43	0xbdc8cfec	-0.09805283
44	0x3e27829c	0.16358417
45	0xbcb150c7	-0.021644963
46	0xbe17fc61	-0.14842369
47	0xbd809706	-0.062788054
48	0xbd851bce	-0.06499444
49	0x3de34209	0.110965796
50	0x3da932ef	0.08261668
51	0xbe0fbd01	-0.14036943
52	0xbbc5eb5d	-0.0060400204
53	0x3e5abdaa	0.21361414
54	0x3d857efb	0.0651836
55	0xbdd9e3c4	-0.10639146
56	0xbda1fea2	-0.079098955
57	0x3da3cfd8	0.079986274
58	0x3df0fecf	0.11767351
59	0xbde680f1	-0.11255062
60	0x3e80781d	0.2509164
61	0xbe058469	-0.13038792
62	0x3e513ce6	0.20433387
63	0xbe18708b	-0.14886682
64	0xbdaab437	-0.083351545
65	0xbe1f2e5e	-0.15545031
66	0x3d991d5e	0.074763045
67	0xbdceb11f	-0.10092377
68	0xbe87915f	-0.26478097
69	0xbe5a3ba9	-0.21311821
70	0xbe22e491	-0.15907504
71	0x3d0eee73	0.03489537
72	0xbe74c721	-0.23904087
73	0x3e0f4be0	0.13993788
74	0x3e6c815c	0.23096222
75	0xbe18133d	-0.14851089
76	0xbe7f8fcd	-0.249572
77	0xbe2c7792	-0.16842487
78	0xbe8eaa37	-0.2786424
79	0xbcd9c323	-0.026582306
80	0x3e37226b	0.17884223
81	0x3e2847e6	0.16433677
82	0x3df9459a	0.121714786
83	0xbe42d62a	-0.1902701
84	0xbcd781f3	-0.026307082
85	0x3dc039ad	0.09386001
86	0xbcecbf03	-0.028899675
87	0x3e01e730	0.12685847
88	0xbe20f6e2	-0.15719178
89	0x3d017973	0.031609964
90	0x3e58ea25	0.21183069
91	0x3df4c35e	0.11951326
92	0xbdaf16e0	-0.08549285
93	0xbe51e164	-0.20496136
94	0xbe53e72e	-0.20693657
95	0xbe75aa26	-0.23990688
96	0xbe6e16cd	-0.23250885
97	0x3e4e6967	0.20157395
98	0x3c93f421	0.018060746
99	0xbe5e8182	-0.21729091
100	0x3c6b8de7	0.014377094
101	0x3d43c936	0.04779931
102	0x3de8ca7d	0.113667466
103	0xbd808b54	-0.06276575
104	0xbe5a4347	-0.21314727
105	0x3bfee8cd	0.007779217
106	0xbe4c38c1	-0.19943525
107	0x3e086375	0.1331919
108	0xbd2579a2	-0.0403992
109	0xbdf0a406	-0.11750035
110	0x3bd36558	0.00645129
111	0xbe50a706	-0.20376214
112	0x3d06ba08	0.032892257
113	0x3e6c864b	0.23098104
114	0x3df68a01	0.12038041
115	0x3e0f97e3	0.14022784
116	0xbe8f1de5	-0.27952495
117	0xbe60be69	-0.21947636
118	0xbe7cac17	-0.24675022
119	0xbe4acf4a	-0.19805637
120	0x3d6545b6	0.055974685
121	0x3d2cd9f9	0.042200062
122	0xbe32231b	-0.17396204
123	0xbddbfc7a	-0.107415155
124	0xbe902907	-0.281563
125	0x3d37f813	0.044914316
126	0x3dccb1d6	0.09994857
127	0x3cc933a6	0.02456076
128	0xbc88def2	-0.016707871
129	0x3e5f934c	0.21833533
130	0x3dbb3af8	0.09142107
131	0x3daff927	0.08592444
132	0x3e22fa6e	0.15915844
133	0xbddfb120	-0.10922456
134	0xbe258ccb	-0.1616699
135	0xbe5b5a73	-0.21421222
136	0xbcbd2a8c	-0.023091577
137	0xbe90d39c	-0.28286445
138	0x3be45ebe	0.006969302
139	0x3e6129d6	0.21988615
140	0x3e693253	0.22773103
141	0x3b31c921	0.0027127939
142	0x3e900ad2	0.28133255
143	0xbe0ed553	-0.13948564
144	0xbe46ca50	-0.19413114
145	0x3adb0b60	0.0016711764
146	0x3db594b9	0.08866257
147	0x3d8d4d9e	0.0689957
148	0xbe3597a9	-0.17733635
149	0x3e66913d	0.22516342
150	0x3d23a015	0.039947588
151	0x3e7f3303	0.24921803
152	0x3da986f8	0.08277696
153	0xbe52a33a	-0.20570078
154	0xbd253dbd	-0.04034208
155	0xbe689c3f	-0.22715853
156	0xbe78709b	-0.24261706
157	0xbd8b33ec	-0.06797013
158	0xbe2a7f2e	-0.16650078
159	0x3e64c112	0.22339275
160	0x3d7b78fc	0.061394677
161	0xbe5d78fb	-0.21628182
162	0x3e2a7d73	0.16649418
163	0xbda1ba97	-0.07896917
164	0xbe3023f6	-0.17201218
165	0xbe63a161	-0.2222953
166	0xbe221a51	-0.15830351
167	0xbd115c0b	-0.03548817
168	0x3e0ff2f9	0.1405753
169	0x3e3fb0e5	0.18719824
170	0x3e657d7e	0.22411153
171	0x3e3325c7	0.1749488
172	0xbb2d5fce	-0.002645481
173	0x3d031de1	0.032010917
174	0xbe86541e	-0.2623605
175	0xbe2cd50a	-0.16878143
176	0xbdd10926	-0.10206823
177	0xbc17b5ac	-0.009259623
178	0xbe2f89a9	-0.17142357
179	0x3d75cb11	0.060008112
180	0xbd05f999	-0.032708738
181	0xbb7fb88a	-0.0039019906
182	0x3e05af1c	0.1305508
183	0x3e18ab43	0.14909081
184	0x3d819f4e	0.06329213
185	0x3e4534a2	0.19258359
186	0x3cfa387a	0.030544508
187	0x3d18e65b	0.03732906
188	0xbc19a6e8	-0.009378172
189	0xbe0bb4c6	-0.13643178
190	0x3d03e5e5	0.032201666
191	0xbdddf768	-0.108382046
192	0xbe78b593	-0.24288015
193	0xbe353842	-0.17697242
194	0xbd82b482	-0.063820854
195	0xbe1a6163	-0.15076213
196	0x3db4e94e	0.08833562
197	0x3e0be7b6	0.1366261
198	0xbe52dc86	-0.20591936
199	0xbd758994	-0.059945658
200	0x3e3bbe55	0.18334325
201	0x3e7788e3	0.24173312
202	0x3e526eba	0.20550051
203	0x3e41ac91	0.18913485
204	0xbe20add3	-0.15691309
205	0x3dbcbd6b	0.09215816
206	0xbe2f7235	-0.1713341
207	0x3dde7541	0.10862208
208	0x3e624ceb	0.22099654
209	0x3e246ae3	0.16056399
210	0x3e76f9d7	0.24118744
211	0x3e23a4fc	0.15980905
212	0xbe643769	-0.22286762
213	0xbde84137	-0.11340564
214	0xbcc300bb	-0.02380406
215	0x3e8989c4	0.2686292
216	0xbe28f597	-0.16499935
217	0xbd175f4e	-0.036956124
218	0x3db39bf5	0.08769981
219	0xbc0c4a89	-0.008562692
220	0xbdc19050	-0.094513535
221	0x3e2df71a	0.16988793
222	0xbde8810b	-0.11352738
223	0xbc89f6f3	-0.016841387
224	0x3e689369	0.22712483
225	0xbe7a3da8	-0.24437582
226	0x3e7ee7cc	0.24893111
227	0xbe35a75a	-0.17739621
228	0xbbc95716	-0.0061444147
229	0xbd6916c2	-0.05690647
230	0xbe86733b	-0.2625979
231	0x3c53d48b	0.012929092
232	0xbe29cc3d	-0.16581817
233	0x3d60facf	0.05492669
234	0x3e9111d2	0.28333908
235	0x3d188691	0.037237708
236	0xbe88e3c8	-0.26736283
237	0xbe0efe39	-0.13964166
238	0x3cf365ee	0.02971169
239	0x3dec63a0	0.115424395
240	0xbe404c67	-0.18779145
241	0x3e0a8274	0.13526326
242	0x3d960196	0.07324521
243	0xbe0631ba	-0.13104907
244	0x3e1ebd9b	0.15502016
245	0x3d973389	0.073828764
246	0xbe4a5de0	-0.19762373
247	0x3e593336	0.21210942
248	0xbdb2c524	-0.08729008
249	0x3d816017	0.06317156
250	0x3e67b63a	0.22628108
251	0xbe030d1c	-0.1279797
252	0x3e05c844	0.13064677
253	0x3be0e2e2	0.006862984
254	0xbe81a000	-0.25317383
255	0x3dcdb50e	0.10044299

blocks.1.1.bias f4 [16]
0	0xbcfe5deb	-0.031050643
1	0x3ca938f1	0.020657035
2	0x3d7135f8	0.05888936
3	0x3e468942	0.19388297
4	0xbbc3c84b	-0.0059748045
5	0x3dc124e2	0.09430863
6	0x3cf74550	0.030184418
7	0x3cb0ee1a	0.02159791
8	0xbd880950	-0.06642401
9	0xbdad09f4	-0.08449164
10	0xbd0d0544	-0.03442885
11	0x3d36d95f	0.044640895
12	0xbe175e82	-0.14782146
13	0xbd0633a7	-0.032764103
14	0x3da2d392	0.0795051
15	0x3e8783fb	0.2646788

blocks.2.1.weight f4 [16, 16, 1]
0	0x3e0730f7	0.13202272
1	0x3d10c5b5	0.035344798
2	0xbe593359	-0.21210994
3	0x3de40bbb	0.1113505
4	0xbd54923c	-0.051897272
5	0xbe03f006	-0.1288453
6	0x3c5a1785	0.013311272
7	0xbdaf0c40	-0.085472584
8	0x3cdf8234	0.027283765
9	0xbe38aadd	-0.18033929
10	0xbe83f216	-0.25770634
11	0xbe730bbf	-0.2373495
12	0x3e673f34	0.22582704
13	0xbd87329a	-0.06601448
14	0xbe0755d1	-0.1321633
15	0x3d00319d	0.031297315
16	0xbc871eaf	-0.016494123
17	0x3c9f0131	0.019409748
18	0xbe3ff8f9	-0.1874732
19	0x3dd7bec5	0.10534433
20	0x3dac1008	0.08401495
21	0xbe744296	-0.23853526
22	0xbe3ebf4b	-0.1862766
23	0x3d9680cd	0.073487855
24	0xbe7bab55	-0.24577077
25	0x3e567761	0.20943977
26	0x3e55a7ed	0.2086484
27	0x3dc2acb4	0.09505597
28	0xbe49b4b1	-0.19697835
29	0xbd6639c3	-0.05620743
30	0x3ce5f19e	0.028069314
31	0xbe48eba6	-0.19621143
32	0xbc79f066	-0.015255069
33	0x3e5e00fc	0.21680063
34	0xbe6714fa	-0.22566596
35	0xbe073e67	-0.13207398
36	0x3c11de35	0.008903076
37	0xbd12ab72	-0.035808034
38	0xbd350cd0	-0.044201672
39	0x3dfb2ca6	0.122643754
40	0x3dd25c03	0.10271456
41	0xbdda6b4d	-0.10664997
42	0x3e3b7e65	0.18309934
43	0xbd2691ce	-0.040666394
44	0x3d22ab6a	0.039714254
45	0x3e465617	0.19368778
46	0xbc320c96	-0.0108672585
47	0xbc7e9e1d	-0.015540627
48	0xbdf85040	-0.121246815
49	0x3e758a3c	0.23978513
50	0x3e5179ab	0.20456569
51	0x3e6762b8	0.22596252
52	0x3db88dab	0.09011396
53	0xbc408855	-0.011751254
54	0x3d2dd9ac	0.042443916
55	0x3e3a6489	0.18202414
56	0x3e563307	0.20917903
57	0xbce1c5ec	-0.027560197
58	0x3e1cc390	0.15308976
59	0xbcb9423e	-0.022614595
60	0x3da2f777	0.079573564
61	0x3e2b12ea	0.16706434
62	0xbdc2336c	-0.09482464
63	0x3d1db72e	0.038504772
64	0xbe072b41	-0.13200094
65	0x3dd96d1b	0.10616513
66	0xbe62abf9	-0.22135915
67	0xbb82dfa4	-0.003993945
68	0xbdff7401	-0.12473298
69	0x3e585391	0.21125628
70	0xbe07153d	-0.13191696
71	0xbe755c72	-0.23961046
72	0x3d3e2307	0.046420123
73	0xbe3137f5	-0.17306502
74	0xbca67588	-0.020319715
75	0x3ba9444d	0.005165613
76	0x3e06842f	0.13136362
77	0x3d10ee1c	0.03538333
78	0xbda23f52	-0.07922234
79	0x3ddfe6d1	0.109326966
80	0x3de87d90	0.11352074
81	0xbdc95b55	-0.09831873
82	0xbd8ad714	-0.06779304
83	0x3e4258b8	0.18979156
84	0xbe6161ee	-0.22010013
85	0x3df0bfe2	0.11755349
86	0xbe14d08e	-0.14532682
87	0xbe20d2aa	-0.15705362
88	0xbea31758	-0.31853747
89	0x3e905aed	0.2819437
90	0x3e9c1777	0.30486652
91	0xbdfb14bc	-0.12259814
92	0xbe554cbc	-0.20830053
93	0xbd7d868a	-0.061895885
94	0xbd0a3247	-0.033739354
95	0xbd6ee073	-0.05831952
96	0xbd867778	-0.065657556
97	0xbe175e27	-0.1478201
98	0x3dd4f690	0.103985906
99	0xbe4c70d8	-0.19964921
100	0xbe7f8c96	-0.24955973
101	0x3de7b97a	0.11314674
102	0x3c0c8dca	0.008578727
103	0xbdc7db4c	-0.097586244
104	0x3e253ca0	0.16136408
105	0x3e0ec1b2	0.13941076
106	0x3d83d14a	0.06436403
107	0xbc997b27	-0.018735481
108	0xbcfea91f	-0.031086503
109	0xbd568000	-0.052368164
110	0xbe4fa2a3	-0.20276885
111	0xbe335755	-0.17513783
112	0xbe535d64	-0.20641094
113	0xbe73c91f	-0.2380719
114	0xbe31a9b4	-0.17349893
115	0x3e5d53e8	0.21614039
116	0x3dd83623	0.10557201
117	0xbe184c73	-0.14872913
118	0xbe08995a	-0.13339749
119	0xbe801073	-0.2501255
120	0x3e1c436a	0.15260091
121	0xbd9c7174	-0.07638827
122	0x3e655550	0.22395825
123	0xbe725501	-0.23665239
124	0xbe546a42	-0.20743659
125	0xbd95b1f4	-0.073093325
126	0x3e3f2b29	0.18668808
127	0x3d948887	0.07252603
128	0xbe2a3e6b	-0.16625373
129	0x3e3d40cf	0.18481754
130	0x3d3c9fb7	0.046050753
131	0x3cc4df1e	0.024032172
132	0xbe0c9013	-0.13726835
133	0x3e295937	0.16537939
134	0x3e5340b7	0.20630156
135	0x3e7d458a	0.24733558
136	0xbdcffc84	-0.101555854
137	0x3e975d03	0.2956315
138	0x3e3474dc	0.17622703
139	0x3de49086	0.11160378
140	0xbdebf09f	-0.11520504
141	0xbd8fb6db	-0.07017299
142	0x3e310b25	0.17289408
143	0x3cf5fc6f	0.030027596
144	0x3d339b53	0.0438493
145	0xbe12c13e	-0.14331529
146	0xbe754e89	-0.2395574
147	0x3d8009fb	0.062519036
148	0xbe8c0eb3	-0.27354965
149	0x3e49ac17	0.19694553
150	0x3e1bc76c	0.15212792
151	0x3e3f7da1	0.18700267
152	0x3e01588c	0.12631434
153	0x3e180a46	0.14847669
154	0x3e554fb4	0.20831186
155	0xbdb34b98	-0.08754653
156	0x3b2735c7	0.0025514232
157	0xbe6cd6e8	-0.23128855
158	0x3d30718f	0.043077048
159	0x3e8a0a96	0.269612
160	0xbe2896a1	-0.1646371
161	0x3e39911a	0.18121758
162	0xbcbf3256	-0.023339432
163	0xbe80584e	-0.2506737
164	0x3d4b035f	0.04956376
165	0xbe866173	-0.26246223
166	0x3e3bb0d9	0.18329181
167	0xbe3dc74e	-0.1853306
168	0x3e2bff0e	0.16796514
169	0xbd169e51	-0.036772076
170	0xbdafcaf8	-0.08583635
171	0x3da6a26a	0.08136447
172	0xbd9a3c4a	-0.075310305
173	0xbde30403	-0.110847495
174	0xbe7f89dd	-0.24954934
175	0x3e055168	0.13019335
176	0xbdf3f97c	-0.1191282
177	0xbe414e4c	-0.18877524
178	0x3d9d1ce5	0.07671527
179	0xbc7830c0	-0.015148342
180	0xbe213434	-0.1574257
181	0xbe34cf0b	-0.17657106
182	0xbd40ba3e	-0.047052614
183	0xbe3fe1f8	-0.18738544
184	0x3e2f69c4	0.1713019
185	0xbd5ad25b	-0.053423267
186	0xbe7b7188	-0.24555027
187	0xbe15fb2c	-0.14646596
188	0xbe75d161	-0.24005653
189	0x3e293f8d	0.16528149
190	0xbe575655	-0.21029027
191	0xbb9ef082	-0.004850448
192	0x3e4e1ee7	0.20128976
193	0x3e92b496	0.286534
194	0xbdd85e44	-0.10564855
195	0x3b8be029	0.0042686653
196	0xbe272612	-0.16323116
197	0xbcbb63da	-0.022874761
198	0xbce051f0	-0.02738282
199	0x3e78e12a	0.24304643
200	0x3e37ebba	0.17961016
201	0xbdb77bde	-0.08959173
202	0x3e2d3990	0.1691649
203	0x3e24fa60	0.16111135
204	0xbe29767e	-0.16549107
205	0x3e880a8b	0.26570544
206	0xbe6a8a2c	-0.22904271
207	0xbe62fa34	-0.22165757
208	0xbc192c84	-0.009348992
209	0xbdc77c6d	-0.09740529
210	0xbd8fb3ea	-0.07016738
211	0x3ab4d467	0.0013796211
212	0xbab14ffb	-0.0013527864
213	0xbdae458d	-0.085093595
214	0x3d97c8c4	0.0741134
215	0x3dddc7f1	0.108291514
216	0x3e0bdbb7	0.13658033
217	0x3e4f9107	0.20270167
218	0xbd61e34f	-0.05514842
219	0x3cae6c36	0.021291833
220	0x3e202d25	0.15642221
221	0xbe5b3675	-0.21407492
222	0xbde06dfa	-0.10958476
223	0x3e0ba04a	0.13635364
224	0xbe021a3d	-0.12705322
225	0xbe630631	-0.2217033
226	0xbd982bfe	-0.07430266
227	0xbe0c7ef0	-0.13720298
228	0xbe903b69	-0.28170326
229	0xbe4b729d	-0.1986794
230	0xbccdd7e8	-0.025127366
231	0xbe15c18f	-0.14624618
232	0xbd705acb	-0.058680337
233	0xbe85decb	-0.2614654
234	0x3ccf43fa	0.025300968
235	0x3da493c6	0.08035998
236	0xbe332d73	-0.17497806
237	0x3e4f325d	0.20234056
238	0xbd6d506f	-0.057938036
239	0x3e10499b	0.14090578
240	0xbe63aa8f	-0.22233032
241	0x3e4b1fdf	0.19836377
242	0xbde6abf6	-0.11263268
243	0x3bfe1cad	0.0077548833
244	0xbe4c5620	-0.19954729
245	0xbe6c639b	-0.23084871
246	0x3e77958b	0.2417814
247	0xbe70ae65	-0.23504026
248	0x3d624455	0.055240948
249	0x3ce01900	0.02735567
250	0x3dd14044	0.10217336
251	0xbe481c4e	-0.19542047
252	0x3dd886da	0.10572596
253	0x3d85988a	0.06523235
254	0xbdefaa3c	-0.117023915
255	0x3db03b66	0.08605079

blocks.2.1.bias f4 [16]
0	0x3d598325	0.053103585
1	0x3ce44c13	0.027868306
2	0x3e210c37	0.15727316
3	0xbe007a95	-0.12546761
4	0xbe18d71a	-0.14925805
5	0x3e400d82	0.18755153
6	0x3dce32d2	0.10068287
7	0xbe5c9b8a	-0.21543708
8	0x3e2a687c	0.1664142
9	0x3d8dfc69	0.06932909
10	0xbc95b6ad	-0.018275583
11	0x3e3ecfb5	0.18633921
12	0xbe81c2bf	-0.25343892
13	0xbd8fec24	-0.07027462
14	0x3e492b49	0.19645418
15	0xbd643505	-0.055714626

blocks.3.1.weight f4 [16, 16, 1]
0	0x3dd30841	0.10304309
1	0x3d7c1dd0	0.06155187
2	0x3c6017ca	0.013677547
3	0x3e20b558	0.15694177
4	0x3dd504f0	0.104013324
5	0x3e1d2aca	0.15348354
6	0xbe6527c1	-0.22378446
7	0xbe56e79b	-0.20986788
8	0x3e71f302	0.23627856
9	0xbe44cd43	-0.19218926
10	0x3e728526	0.23683605
11	0xbe649198	-0.22321165
12	0x3e452cd0	0.19255376
13	0xbda338ad	-0.079697944
14	0xbdc10aa1	-0.094258554
15	0xbcf9c49f	-0.030489264
16	0x3d41ef81	0.04734755
17	0xbe53a361	-0.20667793
18	0xbded7ee8	-0.11596471
19	0x3ca335a1	0.019923033
20	0x3e0ea9d5	0.13931973
21	0x3e537d62	0.20653298
22	0x3e4a876e	0.19778225
23	0x3db7b12f	0.08969342
24	0x3e029458	0.12751901
25	0xbdb1911a	-0.08670254
26	0xbd98c856	-0.07460086
27	0x3e0b86dd	0.13625665
28	0x3e43c605	0.19118507
29	0xbe04244a	-0.12904468
30	0xbe1f6eee	-0.1556966
31	0x3e2102dc	0.15723747
32	0x3e178507	0.1479684
33	0xbda48910	-0.08033955
34	0xbe6c485a	-0.23074475
35	0x3e5f9989	0.21835913
36	0x3e14041d	0.14454694
37	0xbdce1460	-0.1006248
38	0x3d23cad6	0.03998836
39	0xbad5d812	-0.0016315004
40	0xbcc7243f	-0.024309276
41	0x3e1143f9	0.14186086
42	0xbcf6174c	-0.030040406
43	0x3d8fc671	0.070202716
44	0xbdca38f3	-0.098741435
45	0xbe654b3f	-0.22391985
46	0x3e6a1cc0	0.2286253
47	0xbe4b88cb	-0.19876401
48	0xbe7c6ee5	-0.24651678
49	0xbe9c4800	-0.30523682
50	0x3c98af62	0.018638317
51	0xbe7791f4	-0.2417677
52	0x3e110b78	0.14164531
53	0xbe1afdb5	-0.15135844
54	0xbd002aac	-0.031290695
55	0xbdcc0884	-0.09962562
56	0x3e90d181	0.2828484
57	0x3e0da813	0.13833646
58	0x3e979668	0.29606938
59	0xbe803266	-0.2503845
60	0x3dea7225	0.114475526
61	0x3e40b848	0.18820298
62	0xbe9166b0	-0.28398657
63	0x3dbc51f6	0.0919532
64	0x3e3cce91	0.18438174
65	0x3d7cc23c	0.061708674
66	0x3dc958b2	0.098313704
67	0x3e3d7b39	0.18504037
68	0x3e6a7ac4	0.22898394
69	0x3e353cd8	0.17698991
70	0xbe053f91	-0.1301253
71	0x3cc2bd7f	0.023772
72	0xbe745de5	-0.23863943
73	0x3dbb57c6	0.09147601
74	0x3d0f9c93	0.03506143
75	0x3d700533	0.05859871
76	0xbdeda4fd	-0.11603735
77	0xbd3826ad	-0.04495876
78	0x3df7c36c	0.12097821
79	0xbb1313ad	-0.0022442148
80	0xbe048b6c	-0.1294381
81	0xbe180654	-0.14846164
82	0x3d94b19a	0.07260437
83	0xbe6f9d68	-0.2339989
84	0x3d1264f0	0.035740793
85	0x3e2a8ddc	0.16655678
86	0x3e8d722e	0.27626175
87	0x3e4186c4	0.18899065
88	0xbe3d953d	-0.18513961
89	0xbdeb2193	-0.11481013
90	0x3e88afa0	0.2669649
91	0xbdbac1b3	-0.091189764
92	0xbdff44b6	-0.124642774
93	0xbe675d69	-0.22594227
94	0xbde6ac94	-0.112633854
95	0xbe2e9f44	-0.17052943
96	0xbda05b16	-0.07829873
97	0x3e5584ea	0.20851484
98	0xbd05c95d	-0.032662738
99	0xbd60fd9e	-0.05492937
100	0x3e213cfe	0.15745923
101	0xbd879b37	-0.06621402
102	0xbd85b15e	-0.06527971
103	0xbb33a545	-0.002741174
104	0xbd60dcd9	-0.054898117
105	0x3e2e86ea	0.17043653
106	0x3b83ce51	0.0040223976
107	0xbd7149ea	-0.05890838
108	0xbe514ac5	-0.20438679
109	0x3d2bbeaa	0.04192988
110	0xbd07f4c0	-0.033192396
111	0xbdc7fb57	-0.09764736
112	0x3e86b0c2	0.2630673
113	0x3e8b73c0	0.27236748
114	0x3e240821	0.16018726
115	0xbca635c3	-0.020289307
116	0xbd8c3d47	-0.06847625
117	0x3e08c216	0.13355288
118	0xbe8b51d0	-0.27210855
119	0xbe1d5606	-0.15364847
120	0xbe132eec	-0.14373368
121	0xbd9f86fc	-0.07789418
122	0xbe8cb851	-0.27484372
123	0xbaecec89	-0.0018075864
124	0xbd5da6f7	-0.05411431
125	0x3d3ac86b	0.04560129
126	0xbd37c266	-0.044863127
127	0xbe4301a1	-0.1904359
128	0xbe9a26c6	-0.30107707
129	0xbe88eecf	-0.26744696
130	0x3ded5190	0.115878224
131	0xbe65e2cc	-0.22449797
132	0xbc9e214b	-0.019302985
133	0xbe9bca78	-0.3042791
134	0xbd6d0051	-0.05786163
135	0x3c6da320	0.014504224
136	0xbd61f649	-0.055166516
137	0xbe4f607f	-0.20251654
138	0xbe2e37fb	-0.17013542
139	0xbe7236eb	-0.23653762
140	0x3e5a93af	0.213454
141	0x3d9cdba7	0.07659083
142	0x3e28867f	0.16457556
143	0xbe4bbd5d	-0.19896455
144	0x3e4d857b	0.2007045
145	0x3e120772	0.14260653
146	0xbdceb642	-0.10093357
147	0x3e89dfa9	0.26928452
148	0x3d8d6db1	0.069056876
149	0x3e8b38bb	0.2719172
150	0xba08a4d3	-0.0005212549
151	0xbe5c012f	-0.21484827
152	0x3e43d9d8	0.1912607
153	0xbdd4deb4	-0.1039404
154	0x3dde6606	0.10859303
155	0x3e7e0a37	0.24808584
156	0xbe1e39b3	-0.15451698
157	0xbe6e4ca2	-0.2327142
158	0x3e8e53c0	0.2779827
159	0xb9ca1ffc	-0.00038552273
160	0x3e234e39	0.15947808
161	0x3d267ef8	0.04064843
162	0xbe2ffb00	-0.17185593
163	0xbe3f4270	-0.18677688
164	0xbde7fda5	-0.11327676
165	0x3e5bfbeb	0.21482818
166	0xbe6977d0	-0.22799611
167	0x3db2e5c6	0.08735232
168	0x3d932cfe	0.07186316
169	0xbc05ec8b	-0.008174072
170	0xbe8847cc	-0.26617277
171	0x3e8a8055	0.27051035
172	0x3e0669bf	0.13126276
173	0xbd91d230	-0.07120168
174	0x3d8177c5	0.06321672
175	0xbd7ab231	-0.061205093
176	0x3e0d946f	0.13826154
177	0xbe28e95c	-0.1649527
178	0x3e2ee240	0.17078495
179	0x3dd3b5a8	0.103373826
180	0x3e2a09e5	0.16605337
181	0x3d189481	0.037251
182	0xbce34749	-0.027743952
183	0x3c8458b0	0.01615557
184	0x3e0517d8	0.12997377
185	0xbe4ff95a	-0.20309964
186	0xbe20d26d	-0.15705271
187	0xbe383af8	-0.17991245
188	0x3cac1ba3	0.021009272
189	0x3c6c278d	0.0144137265
190	0xbe329c78	-0.174425
191	0x3dbea3e3	0.09308603
192	0xbe5cf5df	-0.21578167
193	0xbde5952f	-0.11210095
194	0xbe7a7e98	-0.24462354
195	0xbe49bec9	-0.19701685
196	0xbe0f0a20	-0.13968706
197	0x3d979b75	0.07402698
198	0xbe4d4815	-0.20047028
199	0x3d5b17c0	0.053489447
200	0x3e8a8e73	0.27061805
201	0xbd9af825	-0.07566861
202	0x3e6c89cb	0.23099439
203	0xbce09760	-0.027415931
204	0x3e47b62f	0.19503091
205	0xbdb52aa2	-0.08846022
206	0x3e32f04d	0.1747448
207	0xbe32a497	-0.17445599
208	0x3e67c5d0	0.22634053
209	0x3e82445f	0.25442788
210	0x3cc7058b	0.024294635
211	0x3e89e005	0.26928726
212	0x3e540df3	0.20708446
213	0xbdb14a8e	-0.08656798
214	0xbe2d1f5a	-0.16906491
215	0xbd998164	-0.074953824
216	0xbd46f711	-0.048575465
217	0xbc99cb7c	-0.018773787
218	0x3dcdb852	0.10044922
219	0xbccb857a	-0.02484392
220	0x3dbead0b	0.09310349
221	0xbe5d1cb4	-0.2159298
222	0x3d9b2692	0.07575716
223	0xbc4a83f1	-0.012360559
224	0xbe5d3265	-0.21601255
225	0x3db7173e	0.0893998
226	0x3bff2514	0.0077864025
227	0x3e8f47d4	0.27984488
228	0xbe6421c1	-0.22278501
229	0x3d9226c0	0.07136297
230	0xbd8844aa	-0.06653722
231	0xbdafb820	-0.08580041
232	0xbdf14f08	-0.11782652
233	0xbdac9e07	-0.08428579
234	0x3dff13f5	0.124549784
235	0x3e4ddb6c	0.20103234
236	0x3e25cbe6	0.16191062
237	0xbb42084d	-0.0029606998
238	0x3e38a23b	0.18030636
239	0x3d134c8d	0.035961676
240	0xbdfc85f5	-0.12330238
241	0x3ce83d81	0.02834964
242	0xbd8806cc	-0.066419214
243	0xbe3acf6a	-0.18243185
244	0x3e88f26d	0.26747456
245	0x3e57c690	0.2107184
246	0x3e54e8f8	0.20791996
247	0x3e63745b	0.22212355
248	0x3b2f20c7	0.0026722418
249	0x3e6ec9ff	0.23319243
250	0xbe65b08c	-0.22430629
251	0x3d567a85	0.052362937
252	0xbe7d1063	-0.24713282
253	0x3e319c31	0.17344739
254	0x3c12afac	0.008953016
255	0x3daeaf31	0.08529509

blocks.3.1.bias f4 [16]
0	0xbe3e05a1	-0.18556835
1	0xbd1287a4	-0.03577389
2	0x3e4042f0	0.18775535
3	0x3d1b8300	0.03796673
4	0x3e825e73	0.25462684
5	0xbe4795c0	-0.19490719
6	0xbc06e0ed	-0.008232337
7	0xbb186749	-0.0023254922
8	0xbd242679	-0.040075753
9	0x3e11894e	0.14212534
10	0xbda5b886	-0.08091836
11	0xbe49c550	-0.19704175
12	0x3e25e262	0.1619964
13	0x3e1d81b6	0.15381512
14	0x3e0c0337	0.13673101
15	0x3d5421e0	0.05179012

blocks.4.1.weight f4 [16, 16, 1]
0	0xbe47849d	-0.19484182
1	0x3dd3c2b2	0.103398696
2	0x3de70355	0.112799324
3	0xbd945226	-0.07242231
4	0xbe66c5f0	-0.22536445
5	0xbe850b92	-0.2598539
6	0x3dc61ac6	0.096730754
7	0xbe6eb4b5	-0.23311122
8	0x3e16c9bf	0.14725398
9	0xbe379922	-0.1792951
10	0xbe7ae618	-0.24501836
11	0xbe28c267	-0.16480409
12	0xbde8af0d	-0.11361513
13	0x3ddd874b	0.10816821
14	0xbd038867	-0.032112505
15	0xbd50d3fc	-0.050983414
16	0xbe93d367	-0.28872225
17	0x3e1a3c50	0.1506207
18	0x3e26dd32	0.16295317
19	0xbcf1f06b	-0.029533586
20	0xbc1b1a50	-0.009466723
21	0x3e22306c	0.15838784
22	0xbe8d702d	-0.27624646
23	0x3df4fd52	0.119623795
24	0xbd48851c	-0.048955068
25	0xbe1eb1b7	-0.1549748
26	0xbe004120	-0.12524843
27	0xbe151c92	-0.1456168
28	0xbe4d4345	-0.20045193
29	0x3e23d261	0.15998222
30	0x3e00bc15	0.12571748
31	0xbe3c6dbc	-0.18401235
32	0x3e8bea9e	0.27327436
33	0x3d370184	0.04467918
34	0xbe2d862c	-0.16945714
35	0x3e5d9e5b	0.21642439
36	0xbde1f677	-0.110333376
37	0xbe5d2091	-0.21594454
38	0x3c2668ee	0.010156853
39	0xbc81f969	-0.015865998
40	0x3ddf758c	0.10911092
41	0x3acb118c	0.00154929
42	0xbca6821b	-0.020325711
43	0x3bf904dd	0.0075994567
44	0x3dbcf5a3	0.09226539
45	0xb87dd6c0	-6.0519902e-05
46	0x3c26a003	0.010169986
47	0x3e31f941	0.17380239
48	0x3caee197	0.021347804
49	0x3d6c53bd	0.057697047
50	0xbe64af6d	-0.22332545
51	0xbe21834b	-0.1577274
52	0x3e0e4760	0.13894415
53	0xbcb836db	-0.022487095
54	0xbe1f6032	-0.1556404
55	0xbc3a5303	-0.011372331
56	0x3dfa88fc	0.12233159
57	0x3a7f7f14	0.0009746414
58	0x3e381540	0.17976856
59	0xbda16a92	-0.07881655
60	0xbe5ad484	-0.21370131
61	0xbdb47ce8	-0.088128865
62	0x3e74f672	0.23922136
63	0x3e7ddb93	0.24790792
64	0x3e609002	0.21929935
65	0x3e0f0550	0.1396687
66	0xbd3ff122	-0.04686082
67	0x3dff1a23	0.12456157
68	0x3e5d0121	0.21582462
69	0xbe6434b6	-0.22285733
70	0x3e718f98	0.23589933
71	0xbe053660	-0.13009024
72	0x3d5ff805	0.05467989
73	0x3cb32add	0.021871025
74	0xbdc9be20	-0.098507166
75	0xba34262f	-0.0006872145
76	0x3e049135	0.12946017
77	0xbe215486	-0.157549
78	0x3c3b6729	0.0114381695
79	0x3e3b996f	0.18320249
80	0x3e2cfc86	0.16893205
81	0x3d79d7aa	0.06099669
82	0x3e91aae0	0.2845068
83	0xbd03a015	-0.032135088
84	0xbe740162	-0.23828653
85	0xbcc283b1	-0.023744436
86	0x3e6652ae	0.22492477
87	0x3e8a27e7	0.26983568
88	0xbdcaacf6	-0.09896271
89	0xbe38b763	-0.18038706
90	0x3de3aead	0.11117301
91	0x3e8a3bd0	0.26998758
92	0x3e92bfe9	0.2866204
93	0x3e818fbd	0.25304976
94	0xbe65095d	-0.22366853
95	0xbe1d8b35	-0.15385135
96	0x3da41e60	0.08013606
97	0xbdbfef92	-0.09371866
98	0xbe0f38d4	-0.13986522
99	0xbe0c0a5c	-0.13675827
100	0x3e8a0a62	0.26961046
101	0x3ada2e3f	0.0016645862
102	0xbe4db345	-0.20087917
103	0xbe84ab48	-0.25911927
104	0x3be3ba9b	0.0069497353
105	0xbd1ea778	-0.03873393
106	0x3d7a9c3d	0.061184157
107	0x3e24a1ae	0.16077301
108	0xbe226446	-0.15858564
109	0x3e06595e	0.13120028
110	0x3e2dc25b	0.16968672
111	0xbe85c337	-0.261255
112	0x3dfb1314	0.12259498
113	0x3cf4d36f	0.029885976
114	0xbccab82c	-0.024746023
115	0x3d98f2ac	0.07468161
116	0xbe5c5e8b	-0.2152044
117	0x3d174eeb	0.036940496
118	0x3e58bbfd	0.21165462
119	0x3e321a18	0.17392766
120	0x3cb5b840	0.022182584
121	0xbdbea8ae	-0.09309517
122	0x3df5875b	0.11988708
123	0xbc126d06	-0.008937126
124	0xbe315852	-0.17318848
125	0x3e435c49	0.19078173
126	0x3d1a6e0e	0.037702613
127	0xbddec183	-0.10876753
128	0x3d877e3d	0.06615875
129	0xbe76a2e4	-0.24085575
130	0x3dd55537	0.10416644
131	0x3e6c836f	0.23097013
132	0x3d815066	0.06314163
133	0xbe3cc19a	-0.18433228
134	0x3df22c66	0.118248746
135	0x3e8be5b3	0.27323684
136	0xbda389b8	-0.07985252
137	0x3e7f5e83	0.24938397
138	0x3e0f1f61	0.13976814
139	0x3e765343	0.240552
140	0xbd1fcd8a	-0.039014377
141	0x3e80ad64	0.25132287
142	0x3d81a3d0	0.06330073
143	0xbe3d2521	-0.18471195
144	0xbe1cd52f	-0.15315698
145	0xbe0fd14c	-0.14044684
146	0xbddbc2b4	-0.10730496
147	0xbdd78f6a	-0.10525401
148	0xbe665f52	-0.224973
149	0x3e502eaf	0.20330308
150	0xbbc1691e	-0.0059024235
151	0xbd75b795	-0.05998953
152	0x3cb5f512	0.022211585
153	0xbd7166e9	-0.058936033
154	0x3d6ba345	0.057528753
155	0x3e16b365	0.14716871
156	0x3d93f480	0.07224369
157	0xbdacf9d5	-0.08446089
158	0x3dd85ec7	0.10564952
159	0xbdb1c8a0	-0.08680844
160	0xbe615119	-0.22003593
161	0x3df3536d	0.118811466
162	0xbe2fdb96	-0.17173609
163	0x3ad5ba06	0.001630605
164	0xbe53ca9a	-0.20682755
165	0xbce10ff0	-0.02747342
166	0xbe0d8c22	-0.13822988
167	0x3e1ef255	0.1552213
168	0x3d896f86	0.067107245
169	0xbd6756f8	-0.056479424
170	0xbd83224e	-0.064030275
171	0xbd5dcfc4	-0.05415322
172	0xbe717bd8	-0.23582399
173	0x3e4afea2	0.19823697
174	0x3e4a13a5	0.19734056
175	0xbd94c51c	-0.07264158
176	0x3d573e8d	0.052549887
177	0x3e5f8787	0.21829043
178	0xbda54e9a	-0.08071633
179	0x3e842de0	0.2581625
180	0xbe12d5c7	-0.14339362
181	0xbe4698d8	-0.19394243
182	0x3e1aca8b	0.15116327
183	0x3b893464	0.0041871537
184	0xbd86fa93	-0.06590762
185	0xbe21f135	-0.1581467
186	0xbe82014e	-0.2539162
187	0xbe7cd5e3	-0.24690966
188	0xbe581ef8	-0.21105564
189	0xbe4c23f7	-0.19935594
190	0x3d97c1a9	0.074099846
191	0xbd79e064	-0.06100501
192	0xbe9018a5	-0.28143802
193	0x3d99a78e	0.07502662
194	0x3bf79733	0.007555866
195	0xbe2e037f	-0.16993521
196	0x3c8b1fe5	0.016982982
197	0xbbb0485d	-0.00537972
198	0xbd0aa6e1	-0.033850554
199	0xbd481263	-0.04884566
200	0x3e8a2259	0.2697933
201	0x3e3c1c74	0.18370229
202	0xbddc6864	-0.107620984
203	0x3daa128a	0.08304317
204	0x3ddd9abd	0.108205296
205	0x3e5b6ce5	0.21428259
206	0x3dd1ff0e	0.10253726
207	0x3e4e2890	0.20132661
208	0xbcb6a092	-0.022293363
209	0xbd946ad8	-0.07246941
210	0xbe7cb0fd	-0.2467689
211	0x3cbb5847	0.022869242
212	0x3dd4d91a	0.10392971
213	0x3e36092f	0.17776941
214	0xbd1b7180	-0.03795004
215	0xbda4efba	-0.08053537
216	0xbe319627	-0.17342435
217	0x3e624122	0.22095159
218	0xbdb2c002	-0.08728029
219	0xbe324f3e	-0.17413041
220	0xbda4a95b	-0.080401145
221	0x3e753b74	0.23948461
222	0xbe69943a	-0.2281045
223	0xbe751075	-0.23932059
224	0x3e67d476	0.22639641
225	0xbc8c7f35	-0.0171505
226	0x3d9f7b17	0.077871494
227	0xbe45381d	-0.19259687
228	0x3e15fc6a	0.1464707
229	0x3dab01ed	0.08349977
230	0x3e2e374a	0.17013279
231	0xbe6d5a47	-0.2317897
232	0xbe32ce94	-0.17461616
233	0x3e3e7e45	0.18602856
234	0xbdd72ba1	-0.105063684
235	0xbdf28c54	-0.11843172
236	0xbe6e1645	-0.23250683
237	0xbe431337	-0.19050299
238	0xbe217b2b	-0.15769641
239	0xbdc4e463	-0.09613874
240	0x3ca5995d	0.02021473
241	0x3e8008c3	0.25006685
242	0xbd9bb3a4	-0.07602623
243	0xbdb58f0f	-0.08865177
244	0x3de3f5ae	0.11130844
245	0xbd129095	-0.035782415
246	0x3c841d33	0.016127205
247	0xbe2bc97a	-0.16776076
248	0xbe70bbff	-0.23509215
249	0x3db656b1	0.08903254
250	0x3c7893cc	0.015171956
251	0xbd2eb8f0	-0.04265684
252	0x3dd973b2	0.1061777
253	0x3db77519	0.089578815
254	0xbcbc17be	-0.02296054
255	0xbe414f6e	-0.18877956

blocks.4.1.bias f4 [16]
0	0x3e21d6ff	0.15804671
1	0x3b35881d	0.0027699538
2	0xbd4fd041	-0.050735716
3	0xbe6e8eb5	-0.23296626
4	0x3e42a469	0.1900803
5	0xbd1fbdc9	-0.038999353
6	0xbe427baf	-0.18992494
7	0xbe0afcd5	-0.1357301
8	0xbe2fb4df	-0.1715884
9	0xbe05884c	-0.13040274
10	0x3c18930e	0.009312404
11	0x3e71f58b	0.23628823
12	0x3e2e0f20	0.16997957
13	0x3de50562	0.11182667
14	0xbc7d025e	-0.015442459
15	0x3b907834	0.0044088606

blocks.5.1.weight f4 [16, 16, 1]
0	0x3e64d044	0.22345072
1	0x3e7a8c39	0.24467553
2	0xbdef726a	-0.116917446
3	0x3e178393	0.14796285
4	0xbe6dfc25	-0.23240717
5	0x3d2b7a19	0.04186449
6	0x3bbff7c8	0.0058583952
7	0x3e408c61	0.1880355
8	0x3e2dfa3a	0.16989985
9	0xbdeffdc1	-0.117183216
10	0xbb959412	-0.0045647705
11	0x3e15d72a	0.1463286
12	0xbe0b3d04	-0.13597494
13	0xbde11788	-0.10990816
14	0x3da0a430	0.07843816
15	0xbe19d698	-0.15023267
16	0x3e2d95e1	0.16951706
17	0x3d7b869a	0.061407663
18	0x3e58596c	0.21127862
19	0xbdf6138d	-0.12015448
20	0xbd841894	-0.064500004
21	0xbe14351c	-0.14473385
22	0x3e57d792	0.21078327
23	0xbe013778	-0.12618816
24	0xbdd42d8d	-0.103602506
25	0x3dc5eb7a	0.09664054
26	0x3df5f1ff	0.12009048
27	0xbe078c4c	-0.13237113
28	0xbd9f2948	-0.07771546
29	0xbe2b80c8	-0.16748345
30	0x3e698430	0.22804332
31	0x3e579c16	0.21055636
32	0x3dc9e3b8	0.09857887
33	0xbd5199a9	-0.051171932
34	0x3d65b55b	0.056081157
35	0xbdf33732	-0.11875762
36	0x3d180055	0.03710969
37	0x3dc94613	0.09827819
38	0xbd7a3be1	-0.06109226
39	0x3e3ca2d5	0.1842149
40	0x3e887a23	0.26655683
41	0x3d656005	0.055999774
42	0xbdc1f7a5	-0.094710626
43	0xbe2c5943	-0.16830926
44	0x3d2bdaf3	0.041956853
45	0x3d564495	0.0523115
46	0x3e2a044a	0.16603199
47	0x3e35cae0	0.17753172
48	0xbe202c48	-0.15641892
49	0xbe7b2df9	-0.24529256
50	0xbd9feb6a	-0.078085735
51	0xbb099d16	-0.0020998172
52	0x3e91e20d	0.28492776
53	0xbe468922	-0.1938825
54	0x3e53397c	0.20627397
55	0xbd91df56	-0.07122676
56	0xbe8a8e94	-0.27061903
57	0x3d5cd2d7	0.05391201
58	0xbe258b7e	-0.16166493
59	0xbe004544	-0.12526423
60	0x3e23ba48	0.1598903
61	0xbdd3d0a2	-0.10342528
62	0xbce5e4bb	-0.028063169
63	0x3e8288d4	0.25495017
64	0xbe239e1e	-0.15978286
65	0x3e54101b	0.20709269
66	0xbd41201a	-0.047149755
67	0x3e192b72	0.1495798
68	0xbdcd524c	-0.100254625
69	0x3d2841a3	0.04107822
70	0xbe004fee	-0.12530491
71	0x3de794e0	0.113076925
72	0x3e2f8ada	0.17142811
73	0xbddd77b9	-0.10813851
74	0xbe476a87	-0.1947423
75	0x3e04a1d0	0.12952352
76	0xbdea7c94	-0.11449543
77	0x3e3d29e4	0.18473011
78	0x3da77070	0.081757426
79	0x3e445e6d	0.19176646
80	0xbde1f473	-0.11032953
81	0x3dadd55f	0.08487963
82	0xbd6b4e9e	-0.057448022
83	0xbe97e7e3	-0.29669103
84	0xbea1decd	-0.31615296
85	0x3a9a406b	0.0011768466
86	0xbd668c4c	-0.05628614
87	0xbe2ebdec	-0.17064637
88	0xbe22fe0b	-0.15917222
89	0x3e8393e9	0.25698784
90	0xbe328f95	-0.17437585
91	0x3e6279e6	0.22116813
92	0x3e6236e6	0.22091255
93	0xbdbe86ae	-0.09303032
94	0x3eaaa31a	0.33327562
95	0xbe377b7f	-0.17918204
96	0xbe8ff0d4	-0.28113425
97	0xbe8755cb	-0.26432642
98	0x3e1965e2	0.14980271
99	0x3e79d93f	0.24399279
100	0xbdc38c6d	-0.095482685
101	0xbe257e93	-0.16161565
102	0xbe563bfb	-0.20921318
103	0x3d6309bf	0.055429216
104	0xbd7a65b9	-0.061132167
105	0xbe2af74f	-0.16695903
106	0x3c1ee16c	0.009697299
107	0x3e42c001	0.19018556
108	0x3e34cda6	0.17656574
109	0x3e254568	0.16139758
110	0x3e168ab5	0.1470135
111	0xbe5eafd5	-0.21746762
112	0x3e57ca45	0.21073253
113	0x3cee307b	0.029075852
114	0xbe1da47f	-0.15394782
115	0x3c7bb421	0.01536277
116	0x3d9201cc	0.07129249
117	0x3c3b2acc	0.011423778
118	0x3d9871ff	0.07443618
119	0xbe296591	-0.16542651
120	0xbe3c4fa1	-0.18389751
121	0xbd6e4a43	-0.05817629
122	0x3e875a0d	0.2643589
123	0x3e592197	0.2120422
124	0xbe4687e3	-0.19387774
125	0xbdf940d7	-0.1217057
126	0x3d3b37a7	0.04570737
127	0xbe184250	-0.14869046
128	0xbd33d88a	-0.04390768
129	0xbd9d0072	-0.076661006
130	0x3cdc2ffa	0.026878346
131	0xbe5b4149	-0.21411623
132	0x3e32496d	0.17410822
133	0x3c3a0469	0.0113535905
134	0x3ea97a25	0.33101
135	0x3df2ffe0	0.118652105
136	0x3c66cb8a	0.014086613
137	0x3e22a885	0.15884598
138	0xbde44f2b	-0.111479126
139	0x3e5a1e17	0.21300541
140	0xbd2be463	-0.041965853
141	0x3e4b8d8b	0.19878213
142	0x3dc90117	0.09814661
143	0x3e4cdfd9	0.20007266
144	0x3cbed868	0.02329655
145	0x3df1fc27	0.11815672
146	0x3e7d1abe	0.24717233
147	0xbe0255a5	-0.12727983
148	0x3df2ed30	0.11861646
149	0xbe2b28b6	-0.16714749
150	0x3de672fb	0.112523995
151	0x3dfdf8d3	0.12400975
152	0x3e38df87	0.18054019
153	0xbe78ab1c	-0.24284023
154	0xbc94d621	-0.01816851
155	0xbe5020ce	-0.20325014
156	0xbe827fc4	-0.25488102
157	0x3daa4cde	0.083154425
158	0xbdc1e142	-0.09466793
159	0xbe357185	-0.17719086
160	0xbd5abdd7	-0.0534037
161	0xbe041af8	-0.12900913
162	0xbe07aeb7	-0.13250242
163	0x3e58eee6	0.21184883
164	0xbdfd9b2f	-0.123831145
165	0xbcd93e96	-0.026519101
166	0x3dbaea1a	0.091266826
167	0x3e328986	0.17435274
168	0x3e6a5e2b	0.22887485
169	0xbe572572	-0.21010378
170	0x3dab1c50	0.083550096
171	0xbe450b7b	-0.1924266
172	0xbe085422	-0.13313344
173	0xbe4eae65	-0.20183714
174	0x3e1b9dc3	0.151969
175	0x3daa9fa6	0.08331232
176	0xbe397442	-0.18110755
177	0xbe8168e7	-0.25275347
178	0x3dfa6abe	0.12227391
179	0xbd8416ea	-0.06449683
180	0xbdb81791	-0.0898887
181	0x3c50481b	0.012712504
182	0x3dec9924	0.11552647
183	0x3cb59763	0.022166913
184	0x3e829fa5	0.25512424
185	0x3d483bc9	0.04888514
186	0x3ca705ea	0.020388562
187	0xbbb29656	-0.0054500503
188	0xbd439e28	-0.04775825
189	0x3e6b0549	0.22951235
190	0xbe51441c	-0.20436138
191	0xbe1fce7b	-0.1560611
192	0xbdea04e6	-0.114267156
193	0xbda275b0	-0.07932603
194	0xbd2a6af3	-0.0416059
195	0x3e453eab	0.19262187
196	0x3e433c95	0.19066079
197	0xbe739a05	-0.23789223
198	0x3e81c71f	0.2534723
199	0x3db63c0b	0.08898171
200	0x3db8cca9	0.09023411
201	0x3e022188	0.12708104
202	0xbdd55722	-0.1041701
203	0xbde23429	-0.11045105
204	0xbde7f261	-0.11325527
205	0x3e43b630	0.19112468
206	0xbe5c7f3c	-0.21532911
207	0x3e8f7499	0.28018644
208	0xbd216483	-0.039402496
209	0xbe6b39f9	-0.22971334
210	0x3e80bf23	0.25145826
211	0x3e84c41e	0.25930876
212	0xbdb947b0	-0.090468764
213	0xbd4a633c	-0.049411044
214	0xbcf24af5	-0.029576758
215	0x3e79b3b6	0.2438496
216	0xbdfa0f3a	-0.122099355
217	0x3dfeae79	0.12435622
218	0xbc3e03ca	-0.011597583
219	0x3cd31f5e	0.025771793
220	0x3e021e9d	0.1270699
221	0xbdafe355	-0.08588282
222	0x3e7d0170	0.2470758
223	0x3d87e353	0.066351555
224	0xbe0baeb0	-0.13640857
225	0x3c2a6dab	0.010402123
226	0x3e591a2e	0.21201393
227	0xbe2164e8	-0.15761149
228	0x3e64642f	0.22303842
229	0x3e857bc4	0.26070988
230	0x3d181d4f	0.037137326
231	0x3e18de63	0.14928584
232	0xbe1b0812	-0.15139797
233	0xbe5bea5d	-0.21476121
234	0x3ddcaf7e	0.1077566
235	0xbe648690	-0.22316957
236	0x3b192a5c	0.0023371195
237	0x3d0655db	0.032796722
238	0xbd99a8ec	-0.075029224
239	0x3cc41f86	0.023940813
240	0xbe7536ed	-0.23946734
241	0xbdeef82a	-0.11668427
242	0x3e064d41	0.13115408
243	0x3e6495fb	0.22322838
244	0x3dbaad1b	0.091150485
245	0x3ded0c32	0.11574592
246	0xbe8049c9	-0.25056294
247	0x3e326f45	0.17425258
248	0xbd49a480	-0.049229145
249	0xbe23e43d	-0.16005035
250	0x3d27e66e	0.04099124
251	0xbe853cf0	-0.26023054
252	0x3e3ddc9e	0.1854119
253	0x3d022bb0	0.031779945
254	0xbe821da7	-0.25413248
255	0xbe685a5a	-0.22690716

blocks.5.1.bias f4 [16]
0	0x3d392328	0.045199543
1	0x3d8569cc	0.0651432
2	0xbe26d37d	-0.16291614
3	0xbe3e76ba	-0.18599978
4	0x3d5c3468	0.053760916
5	0xbe16b6ed	-0.14718218
6	0x3e72b3a8	0.23701346
7	0x3e7c8f87	0.24664126
8	0xbd980d56	-0.07424419
9	0x3d9c760a	0.07639702
10	0x3e8f7992	0.28022438
11	0x3e5c018c	0.21484965
12	0x3da747d3	0.08167996
13	0x3e12c204	0.14331824
14	0x3e3878d1	0.18014838
15	0x3cbf7109	0.023369329

project.0.weight f4 [8, 16, 1]
0	0xbe103be5	-0.14085348
1	0xbde32ad1	-0.11092151
2	0xbd875027	-0.06607085
3	0xbe091e9c	-0.13390583
4	0xbdf424db	-0.11921092
5	0xbe2835f4	-0.16426831
6	0x3e473218	0.19452703
7	0x3dcd2124	0.10016087
8	0xbd17a87b	-0.03702591
9	0x3e313074	0.1730364
10	0xbc8dc3cd	-0.01730528
11	0xbe019e29	-0.1265799
12	0xbe543a4e	-0.20725366
13	0xbdc91b87	-0.098197035
14	0xbd908eda	-0.07058497
15	0xbe372176	-0.17883858
16	0xbe732b3f	-0.23746966
17	0xbd5a9b26	-0.053370617
18	0x3e1265aa	0.14296594
19	0xbcb4cb43	-0.022069579
20	0xbd8ceed0	-0.06881487
21	0x3e5a495c	0.21317047
22	0x3dc60376	0.09668629
23	0x3e784acf	0.24247287
24	0x3d493183	0.049119484
25	0x3d39398f	0.045220908
26	0x3d3dad75	0.046308
27	0xbe7f4c4e	-0.24931452
28	0xbe939bdb	-0.28829846
29	0x3d0b7ff5	0.034057576
30	0x3c8e51f2	0.017373059
31	0x3e0ae37c	0.13563341
32	0x3e272308	0.16321957
33	0xbe376fb6	-0.17913708
34	0x3e6137f4	0.21994
35	0x3de967b7	0.11396735
36	0xbdf6cc30	-0.120506644
37	0xbe06dadd	-0.13169427
38	0x3c049ab7	0.0080935275
39	0xbcb9af0b	-0.022666475
40	0xbe7c3ff1	-0.24633767
41	0xbe136abb	-0.14396183
42	0xbd54f633	-0.051992606
43	0x3ccda67d	0.025103802
44	0xbe0e9c35	-0.13926776
45	0x3d9c440d	0.07630167
46	0x3e40d56f	0.18831418
47	0x3e628890	0.22122407
48	0x3d3248b9	0.043526385
49	0x3d5a1b98	0.05324897
50	0x3d28fee3	0.041258704
51	0x3dd20c98	0.10256308
52	0xbe7bc088	-0.24585164
53	0xbd8ad29d	-0.067784525
54	0x3c38ba03	0.011274817
55	0xbe74da8d	-0.23911496
56	0x3d96db21	0.07366014
57	0xbd097fd4	-0.033569172
58	0x3d5b323f	0.053514715
59	0x3df50fef	0.1196593
60	0x3ddac386	0.106818244
61	0xbe4ac612	-0.1980212
62	0xbcaec4d2	-0.021334086
63	0xbd822272	-0.06354226
64	0xbe7d2357	-0.24720512
65	0xbdcdb620	-0.10044503
66	0xbdb9b88e	-0.09068404
67	0xbb0ce4e2	-0.002149873
68	0xbd28cc66	-0.041210555
69	0xbae35f82	-0.0017347189
70	0xbd90af3e	-0.07064675
71	0x3c05bd0f	0.008162751
72	0x3d5226e8	0.051306635
73	0xbe54da77	-0.20786463
74	0xbe0b3874	-0.13595754
75	0x3e28c12c	0.16479939
76	0xbd6f28de	-0.058388583
77	0xbd3946c4	-0.045233503
78	0xbdf0ecd5	-0.11763922
79	0x3c3a72d5	0.011379917
80	0x3dc55990	0.09636223
81	0x3d2f360b	0.04277615
82	0x3e1e3de6	0.154533
83	0x3cb0dc6b	0.021589478
84	0xbcdb841d	-0.026796395
85	0xbd02c631	-0.03192729
86	0x3df24424	0.11829403
87	0x3e45d3a2	0.19319013
88	0x3cccb34c	0.02498784
89	0xbe460630	-0.19338298
90	0xbe0d1125	-0.13776071
91	0x3e78afd0	0.24285817
92	0x3e7b7435	0.24556048
93	0xbd8e2474	-0.06940547
94	0x3c607bea	0.013701418
95	0x3e6ca11a	0.2310833
96	0xbe4a73de	-0.19770762
97	0xbd8a4680	-0.06751728
98	0xbcd01d6a	-0.02540465
99	0xbe86aa65	-0.26301876
100	0x3e6a95f5	0.22908767
101	0xbe3c78c6	-0.18405446
102	0x3e3b09a7	0.18265401
103	0x3e0cbe34	0.13744432
104	0xbdcb2c85	-0.09920601
105	0x3d42423f	0.04742646
106	0x3dda803b	0.10668989
107	0x3e6a7cbc	0.22899145
108	0xbe0b4504	-0.13600546
109	0x3d78194e	0.060571007
110	0x3d8c428f	0.068486325
111	0x3e7c8047	0.24658309
112	0xbc556d52	-0.013026552
113	0xbe0c5339	-0.13703622
114	0x3c915a5f	0.017743288
115	0x3def3e7b	0.11681839
116	0xbcb227d2	-0.021747503
117	0x3e0e6b92	0.13908222
118	0xbd779626	-0.060445927
119	0xbe80d40a	-0.25161773
120	0x3e5c2e24	0.21501976
121	0xbde595d5	-0.11210219
122	0x3e15fb87	0.14646731
123	0x3e7a5882	0.24447826
124	0x3e7ec3d4	0.2487939
125	0xbd4de755	-0.050269444
126	0x3dc50c78	0.09621519
127	0xbcb8c9bb	-0.02255713

project.0.bias f4 [8]
0	0x3dd52294	0.10406986
1	0x3dbea4e9	0.09308798
2	0xbe544518	-0.20729482
3	0xbd14c8d2	-0.03632433
4	0xbddd18eb	-0.10795768
5	0x3df03d40	0.117304325
6	0x3df80f80	0.121123314
7	0x3deaf83e	0.1147313

project.3.weight f4 [3, 8, 1]
0	0x3e8de725	0.27715412
1	0x3d91622b	0.07098802
2	0x3e8eb78e	0.27874416
3	0xbddd1350	-0.10794699
4	0x3ebeee4b	0.37291178
5	0xbd2a7f40	-0.04162526
6	0x3e89916a	0.26868755
7	0x3e95d5a0	0.29264545
8	0xbecb95c0	-0.39762688
9	0x3e1e5579	0.15462293
10	0x3df3d77c	0.11906335
11	0x3e892066	0.2678253
12	0x3e05f8c1	0.13083173
13	0xbdcb7201	-0.09933854
14	0xbd4d7261	-0.05015791
15	0x3eb8321e	0.35975736
16	0x3ce55c51	0.027998121
17	0xbebcfb5a	-0.36910516
18	0x3e40aef9	0.18816747
19	0xbe9a021c	-0.30079734
20	0xbe690d3d	-0.22758956
21	0x3e196e14	0.14983398
22	0x3ec42e0c	0.3831638
23	0xbe1cca3c	-0.15311521

project.3.bias f4 [3]
0	0x3c5bae8c	0.013408314
1	0x3e6a73d5	0.22895749
2	0x3c65ef10	0.014034048
