checkpoints/dong_fno_inverse.pth (torch, 114378 bytes, 18 tensors)

lift.weight f4 [16, 4, 1]
-0.54981655 -0.9437635 0.2166484 0.003932211 0.15048274 0.07640106 -0.1598307 0.2708515
0.60396725 1.0292487 0.47409853 0.2798244 -0.501164 -1.2094326 0.18036039 0.21745507
-0.091973886 1.5611488 0.23772189 0.29824743 -0.45518342 0.5558837 -0.29990324 0.23997438
0.012314845 2.08707 -0.38634372 0.028448697 -0.5446424 0.17386784 -0.17655624 0.14284669
0.42143106 1.8592806 -0.3689144 -0.19894236 -0.25803638 -1.0452261 0.05041838 0.22587648
-0.22511135 2.1974735 -0.27750218 0.2654631 -0.15432334 -0.1050075 0.09211182 -0.50673443
0.03951149 1.2890887 0.20376985 0.193634 -0.44309172 -1.5434343 -0.353992 0.12646759
-0.28053367 -0.6191646 -0.08925986 0.3388387 -0.4886134 0.4140625 0.3245493 0.26125515
00000000: c7c0 0cbf 7c9a 71bf 14d9 5d3e c7d9 803b
00000010: 2618 1a3e 2978 9c3d a9aa 23be 0cad 8a3e
00000020: 999d 1a3f 6cbe 833f 0bbd f23e 2545 8f3e
00000030: 494c 00bf b0ce 9abf 65b0 383e 8bac 5e3e
00000040: ce5c bcbd b9d3 c73f 5e6d 733e e3b3 983e
00000050: cd0d e9be 654e 0e3f eb8c 99be d8bb 753e
00000060: 34c4 493c 8e92 0540 d8ce c5be 3e0d e93c
00000070: af6d 0bbf 690a 323e 29cb 34be 6746 123e
00000080: d0c5 d73e e8fc ed3f 59e2 bcbe 8cb7 4bbe
00000090: 581d 84be f8c9 85bf 8183 4e3d 2a4c 673e
000000a0: 9783 66be 68a3 0c40 c414 8ebe c8ea 873e
000000b0: f006 1ebe 2c0e d7bd 1fa5 bc3d 59b9 01bf
000000c0: cdd6 213d dc00 a53f 0ba9 503e fe47 463e
000000d0: ebdc e2be 418f c5bf 703e b5be b880 013e
000000e0: 1ca2 8fbe 9281 1ebf e0cd b6bd 447c ad3e
000000f0: 892b fabe 0000 d43e 532b a63e 3cc3 853e

lift.bias f4 [16]
0.0054280693 -0.08977066 -0.08562324 0.27990797 0.43940854 0.47742826 -0.3428474 -0.20875856
-0.015657296 -0.4001181 -0.4233721 -0.023424057 0.06822604 0.1975324 -0.1323104 0.2491919
00000000: f2dd b13b aed9 b7bd 3d5b afbd 1950 8f3e
00000010: 28fa e03e 7a71 f43e b289 afbe cec4 55be
00000020: bb43 80bc 48dc ccbe 3ac4 d8be cfe3 bfbc
00000030: 18ba 8b3d ef45 4a3e 617c 07be 292c 7f3e

blocks.0.1.weight f4 [16, 16, 1]
-0.21398182 0.22703978 -0.2604952 -0.064702846 0.025991961 0.012205479 -0.31674743 -0.11169849
0.15381475 -0.10878919 -0.4002749 -0.05506658 -0.16102217 -0.25089803 -0.3776071 -0.17192228
0.29280493 -0.21768112 0.39728174 -0.12591253 0.08075212 0.15649286 0.07226217 0.18976828
-0.008939309 -0.27506474 0.117427275 -0.26231024 -0.05106695 -0.18535861 0.110582046 0.04701506
0.010221882 0.029424883 -0.0014122976 0.29232636 -0.15380037 0.1844428 0.013044049 -0.18598354
0.1439553 0.16297123 0.15175511 0.14610074 -0.14321043 -0.11561883 -0.051890887 0.09821217
0.09441273 0.0029100878 0.25740582 -0.14762044 0.1140393 -0.09564897 0.21885091 0.10168441
0.12739356 0.076968744 -0.31656542 -0.15930466 0.010135838 0.18161099 0.08275651 0.090043776
-0.21194236 0.19809678 -0.1728972 -0.14544119 -0.010349488 -0.23546953 -0.03310293 0.16805299
0.20196743 -0.13053781 0.021804005 0.07685264 0.16231567 0.084749095 0.14904726 -0.25441173
0.12933403 -0.09967156 -0.29503837 0.34912586 0.017678073 -0.0893126 0.0018987344 0.21520463
-0.11764646 0.12466683 -0.0780529 -0.15693982 0.23746528 -0.19993332 0.1457337 -0.06677155
-0.16940929 0.07532657 -0.24399824 0.08913743 -0.14181137 0.019454842 -0.22897734 -0.04630729
-0.004820335 -0.13852398 -0.1465805 0.26794866 0.15380815 -0.08007781 -0.2810683 0.18678673
-0.08566641 0.22326654 -0.16629769 0.38743028 -0.22738092 0.21270077 0.09393034 -0.28152803
0.050941017 0.34168407 -0.1666381 0.35902297 0.2143121 0.15312783 -0.15243807 0.1404944
-0.24079414 -0.16783516 0.09952132 -0.02008999 0.010623256 -0.014775563 0.08333567 0.12023623
0.21248254 0.1874527 0.057160094 -0.2964659 -0.0744667 0.15114014 0.13439587 0.2429099
-0.10108528 -0.22519466 -0.17776087 0.1913971 -0.21629842 -0.0522719 0.04888051 -0.118298106
0.0010539657 -0.04566894 -0.008958568 0.06609256 -0.051696025 -0.07342075 0.09985132 0.17094782
-0.19366452 0.16350019 -0.3076535 0.33103362 -0.118870184 0.36204818 -0.23476613 -0.10051293
0.00082528475 0.2971254 -0.018417189 0.25043088 0.18410732 -0.03534021 -0.22749014 0.18691932
0.12312913 -0.069036625 0.24584089 -0.29145342 -0.10474247 -0.09093034 0.05895052 -0.06607393
0.032356434 -0.14003949 -0.12983054 0.12057308 -0.12319541 0.1807273 0.15692344 -0.20634206
-0.0051219068 0.09125647 0.32865334 -0.21745853 -0.16591032 -0.123899445 0.41103393 -0.12370067
-0.2730172 -0.281229 -0.01667305 -0.33697733 0.066344246 -0.11855267 0.15249579 -0.12852304
-0.36792767 0.3398802 -0.4971241 0.38388753 -0.061945293 0.20415449 -0.22295628 -0.22951953
0.24607053 0.40812007 -0.010645657 0.1436583 0.33810377 -0.2163274 -0.386397 -0.0022977756
0.043249723 -0.109882504 -0.10660036 0.27365768 -0.15410183 -0.10523475 0.24814525 -0.24749073
-0.12159217 -0.22413564 0.037353165 -0.26707762 -0.021932634 -0.15938264 0.060973413 -0.15935026
-0.07039154 -0.030650849 -0.1810286 0.15692401 -0.038488787 0.22767703 -0.21708974 -0.096071474
-0.048622683 -0.054296818 -0.0020671822 0.17707582 -0.089989625 0.2220515 0.12871541 0.21509755
00000000: 0d1e 5bbe 1e7d 683e a05f 85be ed82 84bd
00000010: 18ed d43c 7df9 473c b82c a2be 2ec2 e4bd
00000020: 9d81 1d3e decc debd d5f0 ccbe 7f8d 61bd
00000030: ffe2 24be b575 80be b855 c1be 650c 30be
00000040: 87ea 953e cde7 5ebe 8368 cb3e 37ef 00be
00000050: 5e61 a53d aa3f 203e 30fe 933d 9e52 423e
00000060: 2e76 12bc 49d5 8cbe b67d f03d 874d 86be
00000070: 942b 51bd a6ce 3dbe d778 e23d dd92 403d
00000080: ae79 273c 740c f13c d81c b9ba cdab 953e
00000090: d87d 1dbe 93de 3c3e b5b6 553c 7872 3ebe
000000a0: 0569 133e eee1 263e b165 1b3e 6f9b 153e
000000b0: c1a5 12be 91c9 ecbd 8a8b 54bd 7623 c93d
000000c0: 765b c13d 2cb7 3e3b b2ca 833e d029 17be
000000d0: 708d e93d 9be3 c3bd 741a 603e ea3f d03d
000000e0: 7573 023e caa1 9d3d dd14 a2be c320 23be
000000f0: c910 263c 3bf8 393e 3f7c a93d df68 b83d
00000100: 6b07 59be e2d9 4a3e f70b 31be 89ee 14be
00000110: e690 29bc ed1e 71be f096 07bd 1516 2c3e
00000120: 8dd0 4e3e b4ab 05be 509e b23c eb64 9d3d
00000130: 1436 263e ef90 ad3d d89f 183e 4142 82be
00000140: 2470 043e 9a20 ccbd 450f 97be a0c0 b23e
00000150: 9bd1 903c 86e9 b6bd f4de f83a 9a5e 5c3e
00000160: a1f0 f0bd 5351 ff3d 33da 9fbd d5b4 20be
00000170: 192a 733e 52bb 4cbe 373b 153e 86bf 88bd
00000180: a179 2dbe d144 9a3d adda 79be af8d b63d
00000190: 0037 11be c35f 9f3c 0979 6abe b7ac 3dbd
000001a0: e7f3 9dbb 3bd9 0dbe 3319 16be 9130 893e
000001b0: e27f 1d3e d6ff a3bd 2fe8 8fbe 0545 3f3e
000001c0: df71 afbd fc9f 643e f149 2abe 435d c63e
000001d0: 8bd6 68be 3bce 593e 8d5e c03d 7124 90be
000001e0: 87a7 503d 37f1 ae3e 2ea3 2abe dcd1 b73e
000001f0: a274 5b3e 8bcd 1c3e ba18 1cbe c4dd 0f3e
00000200: bd92 76be fbdc 2bbe d5d1 cb3d c393 a4bc
00000210: 2a0d 2e3c 3415 72bc e4ab aa3d 6a3e f63d
00000220: 0695 593e 9af3 3f3e b420 6a3d 61ca 97be
00000230: ff81 98bd 7bc4 1a3e 129f 093e 5fbd 783e
00000240: cd05 cfbd 6e99 66be f206 36be 9afd 433e
00000250: 557d 5dbe 0f1b 56bd ee36 483d 4746 f2bd
00000260: 3825 8a3a 5b0f 3bbd f5c6 12bc 895b 873d
00000270: 36bf 53bd 9e5d 96bd d97e cc3d f20c 2f3e
00000280: fe4f 46be 986c 273e c284 9dbe 3d7d a93e
00000290: 3672 f3bd 615e b93e 8866 70be b9d9 cdbd
000002a0: ec57 583a d220 983e a5df 96bc 7a38 803e
000002b0: a186 3c3e e5c0 10bd 2df3 68be c767 3f3e
000002c0: 202b fc3d 1363 8dbd b7bd 7b3e 6239 95be
000002d0: 3883 d6bd b039 babd 1a76 713d c551 87bd
000002e0: 2e88 043d 8366 0fbe 4cf2 04be 05ef f63d
000002f0: e04d fcbd 9410 393e 8ab0 203e 554b 53be
00000300: abd5 a7bb ace4 ba3d 4045 a83e 73ad 5ebe
00000310: 65e4 29be febe fdbd 0a73 d23e c756 fdbd
00000320: e9c8 8bbe 3ffd 8fbe ec95 88bc 4b88 acbe
00000330: 7edf 873d becb f2bd db27 1c3e 8b9b 03be
00000340: 0461 bcbe c704 ae3e 0d87 febe e88c c43e
00000350: 59ba 7dbd e00d 513e a74e 64be 2b07 6bbe
00000360: eaf9 7b3e 1df5 d03e 1f6b 2ebc 291b 133e
00000370: f01b ad3e ee84 5dbe d4d5 c5be 4796 16bb
00000380: 9f26 313d 140a e1bd 4a51 dabd dc1c 8c3e
00000390: dfcc 1dbe 5185 d7bd ca19 7e3e 366e 7dbe
000003a0: 5105 f9bd d083 65be a2ff 183d 66be 88be
000003b0: 11ac b3bc 3435 23be 42bf 793d b72c 23be
000003c0: 7129 90bd 7d17 fbbc 905f 39be b0b0 203e
000003d0: 6ba6 1dbd 2b24 693e c64c 5ebe 1fc1 c4bd
000003e0: 9428 47bd 5766 5ebd 9079 07bb 5d53 353e
000003f0: 7b4c b8bd 7861 633e f9cd 033e 8842 5c3e

blocks.0.1.bias f4 [16]
-0.13683479 0.1364039 0.21333636 -0.09459351 -0.1061219 0.06513065 -0.07774217 0.124966264
-0.06704366 -0.21396397 0.073352024 -0.042934924 0.08614407 -0.046531897 0.021174481 0.090322904
00000000: 6b1e 0cbe 77ad 0b3e d974 5a3e 3eba c1bd
00000010: 7056 d9bd 3863 853d 4937 9fbd 50ee ff3d
00000020: 304e 89bd 5f19 5bbe 9639 963d 88dc 2fbd
00000030: 4d6c b03d 3b98 3ebd 1b76 ad3c 37fb b83d

blocks.1.1.weight f4 [16, 16, 1]
0.3273745 -0.097430624 -0.14454883 0.0022344883 -0.05784756 -0.051807314 -0.042718753 0.25262374
-0.27641675 0.3099677 -0.0708638 -0.24310938 0.03366036 0.19214015 0.21194778 0.076900326
0.11418179 -0.23655097 -0.03090436 -0.22933705 -0.13295846 0.13336572 -0.1905903 -0.18058032
0.22061288 0.15484238 0.2921611 0.3277821 0.33810034 -0.24801713 -0.004113181 0.18670881
-0.021840438 -0.12310001 0.1093096 0.037603043 0.03929617 -0.05302986 -0.19924457 0.0052608764
0.15380459 -0.24175926 -0.012511854 -0.09627478 0.15280432 0.03786562 0.05167359 -0.08972009
0.2764861 -0.0026519054 0.042021405 0.3225931 -0.122885756 -0.12627594 0.22480722 0.1912642
0.11256938 0.3795589 -0.27170402 -0.12555484 -0.2859731 0.035843484 -0.29629847 0.28045335
-0.042011626 -0.17707917 -0.025367614 -0.13475636 0.030879883 -0.20738588 0.16735005 0.095123425
0.16677418 -0.075713925 -0.19574997 0.21207061 -0.21341069 0.16456737 0.18297517 -0.24433902
0.24964829 0.19114658 -0.023108141 -0.03465912 0.0154042775 0.115389295 -0.016889455 -0.18654154
0.017984446 0.086718656 -0.049626485 -0.25109738 0.016462946 0.21209446 0.11447486 -0.23828293
0.0958705 -0.06590428 -0.13849571 0.07339037 -0.003082581 -0.23818408 0.18223909 -0.056305718
0.30740213 -0.045682553 -0.20155165 0.045265332 0.07427717 -0.084972635 0.13007298 -0.02369662
0.22508013 0.101124525 -0.005454233 0.2104632 -0.099393405 0.14074267 0.12158453 0.074401826
-0.11269687 0.22052382 -0.21447024 -0.2698109 -0.09876742 0.103368476 -0.13917682 -0.053291563
-0.30840638 -0.15154737 0.14309935 -0.06831159 0.20514993 -0.14129235 0.08774762 -0.05499424
0.18892106 -0.17515554 -0.010331652 0.26589665 0.25303298 -0.05500314 -0.12684995 -0.07722838
-0.108686425 0.11764847 -0.019646473 0.10480494 -0.10373397 -0.2519534 0.22571649 0.13505515
0.17217794 -0.24984191 -0.17475788 0.06215244 -0.07025861 -0.21550672 -0.1002707 0.06604884
-0.020467972 -0.2547155 -0.28478742 0.13839716 -0.23945317 0.2724741 0.04114791 0.29428533
0.20550133 -0.26424876 0.19755581 -0.036267247 -0.052137896 -0.0036862022 0.35842586 -0.14719287
-0.28302348 -0.036270984 0.25882933 -0.19042945 0.085471556 0.006574643 0.19445623 -0.069230825
-0.1788037 -0.060293358 -0.033386942 0.12855661 0.06353142 0.07715458 -0.1330851 -0.114655055
-0.11778088 0.20199364 0.0062541505 -0.26058865 0.18045868 -0.018987628 -0.25055397 -0.25680393
0.24371813 0.12071529 0.2554267 0.3196167 0.24892613 -0.040903114 -0.034933068 0.21587114
0.3275178 0.042724945 -0.23731267 0.031110482 -0.20594642 0.15876621 0.13673607 0.30657312
0.005787497 0.23375835 -0.30953953 -0.16731077 -0.115522854 0.17241712 0.21997565 -0.3617216
-0.07171383 -0.20146443 0.34371474 -0.10584692 0.25076535 -0.025468146 0.06409212 -0.093094304
0.14477845 0.09674954 -0.1654619 -0.20266403 0.266446 0.16407965 0.08697035 0.11662453
-0.14047508 -0.06447017 -0.17950475 -0.19202836 -0.14629388 0.17029889 0.2285852 0.14492111
0.09278782 0.3051712 -0.06554172 -0.016964486 -0.083796725 -0.089724615 0.104547895 -0.017944053
00000000: a19d a73e b589 c7bd 9c04 14be 7e70 123b
00000010: 90f1 6cbd e833 54bd dcf9 2ebd e657 813e
00000020: 7f86 8dbe 16b4 9e3e 0a21 91bd aaf1 78be
00000030: 72df 093d 63c0 443e d708 593e eb7d 9d3d
00000040: 24d8 e93d 6b3a 72be 242b fdbc 55d7 6abe
00000050: 4326 08be 0691 083e 1b2a 43be 0cea 38be
00000060: 58e8 613e 008f 1e3e 2496 953e 0ed3 a73e
00000070: 7d1b ad3e 34f8 7dbe ddc7 86bb 9830 3f3e
00000080: b8ea b2bc dc1b fcbd b6dd df3d a605 1a3d
00000090: 05f5 203d d735 59bd c506 4cbe 6e63 ac3b
000000a0: f37e 1d3e bd8f 77be 85fe 4cbc b62b c5bd
000000b0: bc78 1c3e fb18 1b3d b0a7 533d 2bbf b7bd
000000c0: 968f 8d3e 97cb 2dbb a31e 2c3d ec2a a53e
000000d0: 87ab fbbd 7b4e 01be dd33 663e c3da 433e
000000e0: c68a e63d 8b55 c23e ca1c 8bbe 7391 00be
000000f0: 116b 92be 9ed0 123d 6fb4 97be 9597 8f3e
00000100: 6214 2cbd 3e54 35be becf cfbc 92fd 09be
00000110: cff7 fc3c f75c 54be d05d 2b3e 12d0 c23d
00000120: dac6 2a3e e70f 9bbd ae72 48be 0a29 593e
00000130: 5588 5abe 5984 283e d85d 3b3e 0234 7abe
00000140: cda3 7f3e eebb 433e 494d bdbc b9f6 0dbd
00000150: 3962 7c3c 3951 ec3d c15b 8abc bf04 3fbe
00000160: 1e54 933c 8d99 b13d 2445 4bbd d68f 80be
00000170: 4ddd 863c 4a2f 593e cc71 ea3d 7100 74be
00000180: c157 c43d d3f8 86bd d2d1 0dbe b14d 963d
00000190: 2105 4abb 87e6 73be e29c 3a3e d3a0 66bd
000001a0: d063 9d3e a11d 3bbd 8e63 4ebe 2468 393d
000001b0: a11e 983d 2206 aebd da31 053e 6a1f c2bc
000001c0: 687b 663e 601a cf3d 6cb9 b2bb aa83 573e
000001d0: c58e cbbd d91e 103e 4f01 f93d fc5f 983d
000001e0: 9ecd e6bd ffd0 613e 169e 5bbe a724 8abe
000001f0: 9346 cabd dab2 d33d 5e84 0ebe 4148 5abd
00000200: 71e7 9dbe 3c2f 1bbe a388 123e f2e6 8bbd
00000210: d312 523e f1ae 10be 06b5 b33d a441 61bd
00000220: 8674 413e f95b 33be 1746 29bc 9b23 883e
00000230: 8a8d 813e f94a 61bd f4e4 01be ea29 9ebd
00000240: fd96 debd aef1 f03d a4f1 a0bc f9a3 d63d
00000250: 7a72 d4bd 0900 81be 3922 673e e64b 0a3e
00000260: 6a4f 303e 8fd6 7fbe bbf3 32be 8f93 7e3d
00000270: bfe3 8fbd cbad 5cbe ba5a cdbd 9d44 873d
00000280: 73ac a7bc 126a 82be a8cf 91be fcb7 0d3e
00000290: 3633 75be ba81 8b3e b68a 283d 91ac 963e
000002a0: f16e 523e 9d4b 87be 124c 4a3e f78c 14bd
000002b0: 8c8e 55bd 3694 71bb 9883 b73e bab9 16be
000002c0: 74e8 90be e290 14bd 4785 843e f0ff 42be
000002d0: b60b af3d 1a70 d73b 891f 473e e4c8 8dbd
000002e0: 5118 37be 2bf6 76bd bfc0 08bd 58a4 033e
000002f0: c31c 823d 3803 9e3d 7647 08be 45d0 eabd
00000300: 1a37 f1bd 6cd7 4e3e 9eef cc3b e06b 85be
00000310: 29ca 383e f18b 9bbc 9c48 80be ce7b 83be
00000320: 3f91 793e 9439 f73d 4ac7 823e cda4 a33e
00000330: 7ee6 7e3e 068a 27bd fa15 0fbd 530d 5d3e
00000340: 6ab0 a73e 5a00 2f3d 1802 73be 69db fe3c
00000350: 9ee3 52be 9c93 223e 8a04 0c3e 27f7 9c3e
00000360: 0ba5 bd3b 595e 6f3e f77b 9ebe 8453 2bbe
00000370: 3f97 ecbd 1d8e 303e 4c41 613e 9333 b9be
00000380: b3de 92bd b14c 4ebe 61fb af3e 45c6 d8bd
00000390: 5164 803e 93a2 d0bc bb42 833d 3aa8 bebd
000003a0: cd40 143e 9f24 c63d d86e 29be 2987 4fbe
000003b0: 9c6b 883e 7f04 283e 831d b23d d7d8 ee3d
000003c0: b3d8 0fbe f008 84bd 18d0 37be 15a3 44be
000003d0: 10ce 15be d562 2e3e 3d12 6a3e 3366 143e
000003e0: 8a07 be3d 663f 9c3e bd3a 86bd 1bf9 8abc
000003f0: 9e9d abbd 8ac1 b7bd 351d d63d 68ff 92bc

blocks.1.1.bias f4 [16]
0.028449832 -0.17105193 0.1020021 -0.078554496 -0.14295398 0.15439077 -0.09072824 0.23056692
0.09297175 -0.2871092 0.045469396 -0.30404612 -0.20403843 0.17153502 -0.18185876 -0.17133811
00000000: 9f0f e93c 3d28 2fbe 7ae6 d03d 2ee1 a0bd
00000010: 8762 12be 9d18 1e3e bacf b9bd bc19 6c3e
00000020: f967 be3d faff 92be 1e3e 3a3d efab 9bbe
00000030: 73ef 50be e0a6 2f3e 2f39 3abe 4273 2fbe

blocks.2.1.weight f4 [16, 16, 1]
0.03597245 -0.100180335 -0.20223917 0.24108514 -0.07630535 0.11125055 -0.261093 -0.13920951
0.03764296 -0.047701135 0.27139103 -0.025471376 -0.2525204 -0.089719355 -0.15991798 0.21030553
-0.3072509 0.014443631 0.20289952 0.22159852 -0.1799558 -0.14270356 0.23712446 0.099529415
0.015942715 -0.13070576 0.050813735 0.23896897 0.29508135 -0.010688454 -0.073138 -0.25076863
0.11290774 0.10667458 -0.10245471 0.1479454 0.016043723 -0.0047676326 -0.20164081 -0.09399073
-0.014807219 -0.2132643 -0.072970636 0.102262296 -0.16886732 0.054134857 -0.10246239 0.038390137
-0.14122185 -0.2107144 0.23485175 -0.26668847 -0.05401148 0.13669482 0.10887483 -0.07706007
0.27556172 -0.045699235 -0.111956075 -0.16341954 -0.029434117 0.1400042 0.16868904 -0.20538008
-0.061632853 -0.13841048 -0.16304009 0.20892106 -0.039560772 -0.11195822 0.105094984 0.04605553
-0.21395496 0.12434686 0.26594156 -0.17936999 -0.15006584 -0.18456116 -0.055355817 0.1581619
0.13601853 -0.079506055 -0.19764377 0.20172882 0.031080494 -0.100052096 -0.11637915 -0.08672989
-0.13573322 -0.26904333 0.17928441 -0.28038406 0.157583 0.2078553 -0.22609158 0.05593923
0.042359643 0.19418454 -0.05463014 0.106857605 0.2147964 0.084504485 -0.24441244 -0.24407214
0.06896383 -0.005566511 0.07106276 0.17326152 -0.09389773 -0.12780191 -0.20677243 0.056812044
0.15222795 -0.029635519 0.09927457 -0.10087927 0.0030977132 0.19946532 0.032798607 -0.017059725
0.0064553465 0.20673643 -0.13252306 -0.008488825 -0.08436345 -0.18088043 0.094067425 -0.13589214
-0.30452082 -0.0988662 0.073928624 0.16844492 0.069386944 0.05847822 0.17045471 0.19547632
0.2702086 -0.059602793 -0.2455099 0.32424092 0.033072572 0.13691787 -0.115167975 -0.056488063
0.023694975 -0.22879013 0.09842402 -0.028123427 -0.059286464 -0.29338077 0.22524472 0.10844046
0.17458495 -0.18127257 0.01987946 -0.060276765 -0.08817516 -0.10168157 0.1095372 0.16896841
0.3031685 -0.027585836 -0.15955552 0.2648241 -0.2084875 0.23738104 -0.2170463 -0.17005877
-0.07049429 -0.22869807 0.20120022 -0.19721028 -0.011968907 -0.11327879 -0.17655794 0.01959797
0.05696315 0.2663321 0.23695494 -0.077242896 0.31406662 -0.21679905 0.26366207 0.08375113
0.27412128 -0.1349576 -0.19209577 -0.112597466 0.3146046 0.21366704 0.31061846 0.054919686
-0.27252725 0.18198802 0.1970407 0.10135207 -0.16171761 -0.079812475 0.11577576 0.09240444
0.29368097 0.09116264 -0.16559377 -0.028944615 0.04764824 0.2274652 0.305753 -0.12431177
0.06668982 0.03981672 -0.1853103 -0.027818436 -0.09656358 0.20555541 -0.28292257 -0.2619948
-0.22887911 -0.16662931 0.27620697 -0.23645824 -0.31067485 -0.15527931 -0.15395899 -0.012761199
-0.3096455 0.30543864 -0.05048158 -0.13943307 0.2741157 -0.2882913 0.3233609 0.29587096
0.08136246 0.156475 -0.19091825 0.0544287 0.22685203 0.28311637 0.16614008 0.022143546
0.07252873 -0.15414119 -0.03715062 0.0372323 0.2865534 -0.23397619 -0.010083416 0.06313814
0.2529002 0.17273444 0.12718081 0.005787008 0.0955433 -0.020518824 0.1713029 -0.108335525
00000000: d957 133d 592b cdbd c917 4fbe 06df 763e
00000010: fb45 9cbd 54d7 e33d fbad 85be f08c 0ebe
00000020: 812f 1a3d 4462 43bd c4f3 8a3e 59a9 d0bc
00000030: 5b4a 81be c8be b7bd 8ac1 23be 555a 573e
00000040: fd4f 9dbe fba4 6c3c e4c4 4f3e b9ea 623e
00000050: 5546 38be e220 12be c1d0 723e 14d6 cb3d
00000060: 4c9a 823c bbd7 05be 1022 503d 48b4 743e
00000070: e714 973e a01e 2fbc 60c9 95bd bf64 80be
00000080: 2c3c e73d 3478 da3d c6d3 d1bd 007f 173e
00000090: 206e 833c cd39 9cbb ee7a 4ebe 367e c0bd
000000a0: fa99 72bc f561 5abe a171 95bd e56e d13d
000000b0: 8eeb 2cbe 83bc 5d3d cdd7 d1bd fa3e 1d3d
000000c0: 769c 10be 84c5 57be fa7c 703e 648b 88be
000000d0: 243b 5dbd baf9 0b3e c4f9 de3d acd1 9dbd
000000e0: 6d16 8d3e 1f2f 3bbd 3a49 e5bd 7457 27be
000000f0: d11f f1bc 435d 0f3e d2bc 2c3e 284f 52be
00000100: bb72 7cbd 7abb 0dbe fbf3 26be 67ef 553e
00000110: 7a0a 22bd 5a4a e5bd 0a3c d73d b9a4 3c3d
00000120: 0217 5bbe 91a9 fe3d 7e29 883e c4ac 37be
00000130: dcaa 19be 9afd 3cbe c8bc 62bd 31f5 213e
00000140: 7148 0b3e 12d4 a2bd 2163 4abe 0092 4e3e
00000150: 859c fe3c 1de8 ccbd 3158 eebd 719f b1bd
00000160: a6fd 0abe 0cc0 89be 5596 373e 808e 8fbe
00000170: 705d 213e 05d8 543e 8d84 67be 8920 653d
00000180: 4e81 2d3d 50d8 463e dbc3 5fbd 29d8 da3d
00000190: 96f3 5b3e b010 ad3d 4147 7abe 0cee 79be
000001a0: e93c 8d3d 4767 b6bb 5a89 913d 786b 313e
000001b0: 744d c0bd 81de 02be 27bc 53be bfb3 683d
000001c0: a5e1 1b3e 30c6 f2bc 7750 cb3d ca99 cebd
000001d0: 0103 4b3b a340 4c3e d557 063d d6c0 8bbc
000001e0: 5f87 d33b b7b2 533e 20b4 07be b614 0bbc
000001f0: bfc6 acbd b838 39be 6ca6 c03d 4f27 0bbe
00000200: 27ea 9bbe 5d7a cabd e467 973d d37c 2c3e
00000210: be1a 8e3d dc86 6f3d ae8b 2e3e f22a 483e
00000220: c858 8a3e 0f22 74bd f266 7bbe e802 a63e
00000230: 1b77 073d 3334 0c3e 30dd ebbd 0760 67bd
00000240: f71b c23c f647 6abe 8892 c93d 1a63 e6bc
00000250: 5dd6 72bd 0136 96be 8da6 663e 0816 de3d
00000260: 66c6 323e 849f 39be 40da a23c c5e4 76bd
00000270: 2e95 b4bd 6d3e d0bd 0a55 e03d 0e06 2d3e
00000280: e738 9b3e b1fb e1bc 8662 23be 0697 873e
00000290: bf7d 55be 0414 733e 6341 5ebe e323 2ebe
000002a0: 4f5f 90bd d42f 6abe 6e07 4e3e 7ef1 49be
000002b0: 3c19 44bc b6fe e7bd 9bcb 34be ec8b a03c
000002c0: 3152 693d ae5c 883e 51a4 723e 8631 9ebd
000002d0: 57cd a03e 9200 5ebe b7fe 863e b685 ab3d
000002e0: a059 8c3e 5332 0abe c1b4 44be 8099 e6bd
000002f0: db13 a13e 88cb 5a3e 6209 9f3e 77f3 603d
00000300: b188 8bbe 115b 3a3e 0ac5 493e ad91 cf3d
00000310: 4d99 25be b974 a3bd d71b ed3d 8a3e bd3d
00000320: 5a5d 963e 7ab3 ba3d 6a91 29be 421d edbc
00000330: cd2a 433d a3ec 683e a88b 9c3e 2b97 febd
00000340: ac94 883d db16 233d fcc1 3dbe 7de3 e3bc
00000350: 20c3 c5bd 1e7d 523e 3adb 90be 2f24 86be
00000360: 495f 6abe e0a0 2abe 006b 8d3e 1c22 72be
00000370: c610 9fbe 8a01 1fbe 6da7 1dbe 5914 51bc
00000380: db89 9ebe 7462 9c3e c6c5 4ebd 8bc7 0ebe
00000390: e558 8c3e eb9a 93be 8f8f a53e 667c 973e
000003a0: 5da1 a63d fb3a 203e 1380 43be a1f0 5e3d
000003b0: e64b 683e a1f4 903e a020 2a3e 6266 b53c
000003c0: f189 943d 30d7 1dbe 402b 18bd e580 183d
000003d0: 21b7 923e 7497 6fbe e934 25bc 924e 813d
000003e0: 237c 813e 4ce1 303e b03b 023e f1a0 bd3b
000003f0: 35ac c33d 1817 a8bc 076a 2f3e 04df ddbd

blocks.2.1.bias f4 [16]
0.04539983 0.12418472 0.20855653 0.049642418 -0.19357556 -0.12348139 -0.2272823 0.23220406
0.055949878 0.018053126 -0.1035169 -0.23454766 -0.23694386 -0.124134846 0.084018506 -0.121657565
00000000: 2cf5 393d 8f54 fe3d d88f 553e d955 4b3d
00000010: ac38 46be d0e3 fcbd b1bc 68be e7c6 6d3e
00000020: b32b 653d 26e4 933c ab00 d4bd 432d 70be
00000030: 69a1 72be 693a febd e511 ac3d 9a27 f9bd

blocks.3.1.weight f4 [16, 16, 1]
-0.23815542 0.2566497 0.24413407 -0.032316484 0.052050516 0.05307835 0.18858977 0.027836382
0.08389064 -0.11334519 -0.07021186 0.32904983 0.05534114 0.06406545 0.15555137 0.16427635
0.29983303 -0.022398245 0.2322233 0.1676303 -0.2072453 0.22722612 -0.064691655 0.22756837
-0.09320565 0.13982916 -0.16538636 -0.15751183 -0.24097274 0.12043362 0.053784057 0.1264527
-0.06977868 0.18936785 0.028341144 0.20175953 -0.1440598 0.1809389 -0.1291537 0.13837011
-0.1340035 0.1079322 -0.084336415 0.045420952 -0.20474626 -0.16686405 0.11682785 -0.06646841
0.031204553 -0.11474844 -0.14086494 0.055871986 0.09945732 -0.28003356 -0.22257896 0.0629095
-0.020182932 0.20496787 0.11625341 -0.2108957 -0.14836898 -0.176003 -0.2532644 -0.12170411
-0.04376898 -0.08396771 0.18108165 0.0107029695 0.012633327 -0.021769647 -0.06341745 0.023318194
-0.17311874 -0.21461253 -0.16117539 0.045103673 -0.15535064 0.13172096 0.0075679 0.080579795
-0.043288726 0.02166127 0.056170974 0.056772646 0.13523075 -0.03741079 -0.18524827 -0.14445312
-0.19954614 0.221914 0.083261915 -0.11582359 0.13929547 -0.1487135 -0.043195117 0.012831521
0.28857845 -0.21614477 -0.016501568 0.30647397 -0.18278944 0.35149947 0.13181336 0.27023003
0.0958536 -0.1951768 0.113462925 -0.002811835 -0.20250289 -0.18371996 -0.1352069 0.02594182
-0.036980808 0.11555569 -0.14844495 -0.1782963 -0.08100249 0.13062596 -0.20837577 0.0018615009
-0.17094165 0.23502807 -0.047269985 -0.0041449396 0.18088688 -0.16244306 0.058703646 -0.22034365
-0.2107685 -0.13087738 -0.17872064 -0.03456552 0.23486534 0.23041847 0.039408263 0.2740232
0.066389725 -0.2975607 -0.0808728 -0.19441484 -0.25287634 -0.30705157 -0.22655259 -0.04878645
-0.0047118473 -0.31956208 0.11547013 0.23604886 -0.28285858 -0.021604767 -0.28869283 0.23335248
0.29601642 -0.068169154 0.09062997 -0.11508158 -0.07454277 -0.14545846 -0.26369554 0.014127771
0.14633216 0.24870123 -0.12382776 -0.16731922 -0.021947969 0.07499883 -0.102401316 0.018963097
-0.01618692 0.26754117 0.27167413 0.3068763 0.28137723 -0.15524676 0.056147546 0.153661
0.23226273 -0.102465786 -0.19200364 0.3219778 -0.19975904 0.2760843 -0.13309601 0.10289949
0.24350207 -0.063646816 0.092427194 -0.09447919 -0.05718929 -0.1279959 -0.3072955 -0.13069202
-0.022023287 -0.26119503 -0.2770704 0.103346385 -0.2793169 0.16188486 0.15316579 0.09682228
0.10793605 0.0053617596 0.261025 0.13231616 -0.19260016 0.1812524 -0.034168597 -0.0070146304
-0.28441584 -0.08707743 0.15950777 -0.3051421 -0.21833116 -0.27399617 -0.027848054 -0.15514877
0.12304695 0.28800082 0.09990041 0.22923343 0.0034326978 0.21955827 0.26409784 -0.047693383
0.13392916 -0.3002505 -0.10808254 0.2687973 -0.17879993 -0.1264875 -0.25230786 -0.009962533
0.09912471 -0.2963477 0.03888376 0.0492183 -0.32115775 -0.1937013 -0.2564416 0.04287026
-0.17859991 -0.2463932 -0.17071222 -0.030298524 -0.08898798 0.18498474 -0.07253904 0.043520194
0.10012823 -0.24491008 0.1376772 -0.02308723 -0.20026365 -0.08039055 0.19550812 -0.15861313
00000000: 04df 73be 9767 833e 48fe 793e 4a5e 04bd
00000010: ec32 553d af68 593d ad1d 413e 2009 e43c
00000020: dbce ab3d 8621 e8bd 3ccb 8fbd 3879 a83e
00000030: 64ad 623d bf34 833d dc48 1f3e 0f38 283e
00000040: b783 993e 867c b7bc f2cb 6d3e 47a7 2b3e
00000050: 1d38 54be f7ad 683e 0f7d 84bd af07 693e
00000060: 9be2 bebd 602f 0f3e 0b5b 29be c84a 21be
00000070: 8fc1 76be e7a5 f63d ac4c 5c3d d17c 013e
00000080: 20e8 8ebd a5e9 413e b02b e83c 0d9a 4e3e
00000090: 6a84 13be 0c48 393e de40 04be e5b0 0d3e
000000a0: 3738 09be 8f0b dd3d 92b8 acbd 520b 3a3d
000000b0: 01a9 51be 69de 2abe 7143 ef3d 9720 88bd
000000c0: b1a0 ff3c 3b01 ebbd e63e 10be 06da 643d
000000d0: 48b0 cb3d 8f60 8fbe bdeb 63be b2d6 803d
000000e0: ad56 a5bc 19e3 513e 4516 ee3d 0bf5 57be
000000f0: 0aee 17be 213a 34be dfab 81be 0140 f9bd
00000100: 1a47 33bd 43f7 abbd 786d 393e 825b 2f3c
00000110: 04fc 4e3c 4256 b2bc 02e1 81bd cc05 bf3c
00000120: 0a46 31be 63c3 5bbe 290b 25be a1be 383d
00000130: 3d14 1fbe dce1 063e 25fc f73b 0507 a53d
00000140: 854f 31bd fa72 b13c 8913 663d 6f8a 683d
00000150: ee79 0a3e 0e3c 19bd b9b1 3dbe 85eb 13be
00000160: d355 4cbe 6c3d 633e 3985 aa3d eb34 edbd
00000170: 79a3 0e3e 5a48 18be 5ded 30bd 4d3b 523c
00000180: 8ec0 933e 0e55 5dbe 4c2e 87bc 28ea 9c3e
00000190: 282d 3bbe bdf7 b33e 15fa 063e 975b 8a3e
000001a0: e44e c43d 6ddc 47be 405f e83d c346 38bb
000001b0: eb5c 4fbe 1621 3cbe ad73 0abe f183 d43c
000001c0: 3079 17bd 76a8 ec3d f401 18be 4e93 36be
000001d0: a2e4 a5bd d0c2 053e 7560 55be 9bfd f33a
000001e0: 540b 2fbe 33ab 703e 2c9e 41bd 46d2 87bb
000001f0: 693a 393e 7957 26be 3c73 703d c4a1 61be
00000200: b3d3 57be b804 06be 8b02 37be 9394 0dbd
00000210: 8a80 703e d2f2 6b3e 8f6a 213d c54c 8c3e
00000220: 56f7 873d e059 98be a3a0 a5bd af14 47be
00000230: 0279 81be dd35 9dbe 67fd 67be 4dd4 47bd
00000240: d765 9abb a49d a3be 9b7b ec3d cbb6 713e
00000250: d7d2 90be 7bfc b0bc 8ccf 93be f4f3 6e3e
00000260: 778f 973e 459c 8bbd 359c b93d e4af ebbd
00000270: e1a9 98bd 10f3 14be 1a03 87be 2b78 673c
00000280: 19d8 153e 89ab 7e3e 6999 fdbd bb55 2bbe
00000290: 3acc b3bc fd98 993d c8b7 d1bd 7f58 9b3c
000002a0: 6f9a 84bc 28fb 883e df18 8b3e e41e 9d3e
000002b0: ad10 903e 02f9 1ebe f8fa 653d 4f59 1d3e
000002c0: 48d6 6d3e 95d9 d1bd 9a9c 44be 46da a43e
000002d0: a28d 4cbe ec5a 8d3e 524a 08be f8bc d23d
000002e0: 9b58 793e 4359 82bd 784a bd3d 4e7e c1bd
000002f0: 513f 6abd 5b11 03be d655 9dbe 21d4 05be
00000300: 2e6a b4bc 5bbb 85be 2cdc 8dbe 45a7 d33d
00000310: a002 8fbe 25c5 253e 7ed7 1c3e c24a c63d
00000320: 930d dd3d b3b1 af3b 12a5 853e e37d 073e
00000330: fa38 45be 3b9a 393e 5ff4 0bbd fcda e5bb
00000340: f49e 91be a755 b2bd 0156 233e 963b 9cbe
00000350: 3492 5fbe 3a49 8cbe 9a21 e4bc 52df 1ebe
00000360: 0a00 fc3d d874 933e 9698 cc3d 2bbc 6a3e
00000370: 1df7 603b e2d3 603e d537 873e 235a 43bd
00000380: ba24 093e 6fba 99be 615a ddbd cd9f 893e
00000390: 5417 37be f085 01be 7f2e 81be e439 23bc
000003a0: e501 cb3d e3ba 97be 9444 1f3d 2199 493d
000003b0: ca6e a4be a259 46be 504c 83be ba98 2f3d
000003c0: e5e2 36be 804e 7cbe 2fcf 2ebe 9c34 f8bc
000003d0: 543f b6bd a46c 3d3e 598f 94bd 3b42 323d
000003e0: 0810 cd3d b5c9 7abe 40fb 0c3e 6e21 bdbc
000003f0: ea11 4dbe cda3 a4bd 4833 483e 7b6b 22be

blocks.3.1.bias f4 [16]
-0.1895478 0.016173674 -0.20753355 -0.01512053 -0.021353541 -0.24548177 -0.05263546 0.08775536
0.12610133 -0.2207689 0.009072564 -0.13695134 -0.30218837 -0.10021078 0.09566196 -0.063187174
00000000: d218 42be a77e 843c ad83 54be 19bc 77bc
00000010: 9fed aebc 935f 7bbe 4898 57bd 15b9 b33d
00000020: b520 013e 3e11 62be 17a5 143c f93c 0cbe
00000030: 6fb8 9abe 4f3b cdbd 6bea c33d 4768 81bd

blocks.4.1.weight f4 [16, 16, 1]
-0.013109952 -0.22503388 -0.09240065 -0.03547362 -0.12282014 -0.005037903 0.003304618 -0.16716582
-0.29862195 -0.28400803 0.19947213 -0.14491831 0.10359165 -0.045051895 0.13318044 0.20276617
-0.16217098 -0.044561 -0.28801173 0.12875284 0.02973985 0.15581806 -0.22457507 -0.12133516
0.22905426 0.24822436 -0.08556485 0.08243429 0.02882026 -0.048206598 0.018401878 0.012967222
0.039852664 0.062331844 -0.13459477 -0.0024089308 0.03309158 0.075311966 0.00463521 0.15572965
0.028812248 0.020569354 0.23075733 -0.16816825 -0.050264504 -0.0841046 -0.089608304 0.18528505
0.10742407 0.24414358 -0.12210101 0.016614908 -0.09202987 -0.12435189 0.26623228 0.02770755
0.104124546 0.063580975 -0.16769679 0.17807208 0.030788893 -0.060361084 -0.029232405 0.18859524
0.026405128 0.08955047 0.034165803 0.019149674 0.03083533 -0.016261486 -0.22427529 0.08587089
0.08520788 0.1686815 0.20226395 -0.23262802 -0.079232424 0.17534819 0.19863564 0.0649007
-0.09442099 -0.09075852 0.13376664 -0.09343837 0.091941886 0.14123721 0.12142384 -0.2069541
-0.19440576 -0.032803353 0.12453206 -0.15818742 -0.14737058 0.2344116 -0.025661718 -0.1316364
0.08941819 0.06862915 -0.26771957 -0.00039113202 -0.080813296 -0.15743184 0.15195367 0.016603371
0.24498682 0.11691448 -0.2594952 0.12511194 -0.3231082 -0.16009521 -0.14327273 0.08212363
0.0113329915 -0.020871937 0.0178349 0.0073989793 -0.10888245 0.025856176 -0.10135281 0.13646169
0.15890585 0.014191932 0.032841064 0.13736595 0.1795598 0.21216547 -0.0046373354 0.20327513
0.2838813 0.2514786 -0.012151829 0.10038543 0.17592058 0.29466438 0.02449739 0.11346926
0.1925416 0.29110163 -0.32539105 -0.2223342 0.16338588 0.0038602143 -0.21427017 -0.020461313
0.010838119 0.0012713958 0.06809265 -0.1601172 -0.16876985 -0.17218693 -0.015651401 -0.2830825
-0.09685797 0.20003583 0.23611715 -0.14389178 0.024827551 0.076870546 0.14005053 0.26040325
0.11858275 0.12239178 -0.21963827 -0.1623467 0.07454019 -0.20173095 0.146724 -0.2504996
0.111142755 -0.2329536 0.078969344 0.031094816 0.26272613 -0.06105353 0.28420818 -0.07485772
-0.074524425 0.1511879 -0.04065336 0.16208647 0.23546787 0.21676366 0.1336675 -0.04550729
-0.032647274 0.15105425 0.046476617 -0.15868323 -0.2876186 -0.16099237 -0.15346356 0.14625254
0.06992477 -0.1626838 -0.013085048 0.36012295 0.31821907 0.020076763 0.17054607 0.30102673
0.16789314 0.23737334 -0.3417538 -0.097450376 -0.46046183 -0.16135421 -0.17492662 -0.399656
-0.023829171 0.22688147 0.073829494 -0.040253542 -0.25613618 0.15338749 -0.24452733 0.14851356
-0.12518099 -0.20101221 0.2255285 0.014280729 0.3142478 0.0381132 0.16191682 0.0770694
0.30437738 0.27320743 -0.1460082 0.077371515 0.22934109 -0.14053604 -0.008693596 -0.10593526
0.08999983 -0.17086552 -0.18379833 0.26182103 -0.2639478 -0.04644904 0.0891183 -0.09540955
0.24799244 -0.19767626 -0.14116356 0.18026705 -0.21825135 -0.09499267 -0.22964479 -0.17034683
-0.23006518 -0.06998664 -0.19906409 0.015056933 0.15991311 -0.09037206 0.08908697 -0.120860785
00000000: 20cb 56bc 486f 66be 8d3c bdbd c94c 11bd
00000010: 2089 fbbd fe14 a5bb 4a92 583b 842d 2bbe
00000020: fae4 98be 8069 91be 6c42 4c3e 7765 14be
00000030: dc27 d43d 5688 38bd 7460 083e efa1 4f3e
00000040: 2610 26be 9885 36bd 4676 93be c9d7 033e
00000050: fca0 f33c c58e 1f3e 02f7 65be 927e f8bd
00000060: 338d 6a3e 872e 7e3e a03c afbd 4fd3 a83d
00000070: 7718 ec3c 4874 45bd 89bf 963c 7974 543c
00000080: 8c3c 233d ad4f 7f3d 36d3 09be 27df 1dbb
00000090: 098b 073d 293d 9a3d f6e2 973b 9877 1f3e
000000a0: aa07 ec3c 1081 a83c a64b 6c3e 4c34 2cbe
000000b0: 27e2 4dbd 083f acbd 8f84 b7bd 5dbb 3d3e
000000c0: 2701 dc3d c600 7a3e 1810 fabd fd1b 883c
000000d0: 287a bcbd 34ac febd 994f 883e f2fa e23c
000000e0: 403f d53d be36 823d b5b8 2bbe 8758 363e
000000f0: fd38 fc3c 2f3d 77bd cc78 efbc 1c1f 413e
00000100: 914f d83c 3d66 b73d 71f1 0b3d c7df 9c3c
00000110: 609a fc3c cf36 85bc 6ca8 65be 14dd af3d
00000120: 7881 ae3d d8ba 2c3e 481e 4f3e 0a36 6ebe
00000130: 9c44 a2bd 7a8e 333e 2467 4b3e a8ea 843d
00000140: cb5f c1bd 9adf b9bd 1ffa 083e 9e5c bfbd
00000150: 074c bc3d 7da0 103e 10ad f83d c7eb 53be
00000160: 4e12 47be cf5c 06bd aa0a ff3d e2fb 21be
00000170: 50e8 16be 9809 703e 8638 d2bc b1cb 06be
00000180: e220 b73d 718d 8c3d 8a12 89be da10 cdb9
00000190: 7181 a5bd d035 21be be99 1b3e cb03 883c
000001a0: d3dd 7a3e dc70 ef3d 8edc 84be 581d 003e
000001b0: 706e a5be 00f0 23be 16b6 12be 6f30 a83d
000001c0: 03ae 393c a0fb aabc 7f1a 923c 2373 f23b
000001d0: c3fd debd 55d0 d33c 1092 cfbd 9dbc 0b3e
000001e0: 37b8 223e 4785 683c 5a84 063d a9a9 0c3e
000001f0: 86de 373e e841 593e caf4 97bb 5b27 503e
00000200: e458 913e cec1 803e 7718 47bc e096 cd3d
00000210: 8624 343e 40de 963e c0ae c83c 9262 e83d
00000220: a029 453e 460b 953e a899 a6be 94ab 63be
00000230: a14e 273e a6fb 7c3b a469 5bbe 7c9e a7bc
00000240: 5e92 313c f7a4 a63a 2974 8b3d c3f5 23be
00000250: 01d2 2cbe c551 30be 5e37 80bc 30f0 90be
00000260: 795d c6bd 31d6 4c3e b2c8 713e 5e58 13be
00000270: 2663 cb3c 4e6e 9d3d 6869 0f3e 9353 853e
00000280: 83db f23d 8ba8 fa3d dbe8 60be 373e 26be
00000290: 87a8 983d 8f92 4ebe d13e 163e 7c41 80be
000002a0: d09e e33d 638b 6ebe aeba a13d 8eba fe3c
000002b0: 0a84 863e 4413 7abd bc83 913e 014f 99bd
000002c0: 43a0 98bd 00d1 1a3e 2384 26bd fff9 253e
000002d0: 7d1e 713e 4bf7 5d3e 22e0 083e da65 3abd
000002e0: 26b9 05bd f7ad 1a3e 445e 3e3d db7d 22be
000002f0: bf42 93be 2fdb 24be 8d25 1dbe 3ac3 153e
00000300: b834 8f3d 9596 26be ab62 56bc 0962 b83e
00000310: 9ced a23e 0678 a43c a1a3 2e3e 2d20 9a3e
00000320: 2eec 2b3e ff11 733e 5bfa aebe 1094 c7bd
00000330: a7c1 ebbe 0a3a 25be f71f 33be b69f ccbe
00000340: 6535 c3bc 9e53 683e eb33 973d e6e0 24bd
00000350: 4824 83be 9c11 1d3e 5f65 7abe f013 183e
00000360: 722f 00be 25d6 4dbe f1f0 663e b8f9 693c
00000370: 16e5 a03e 961c 1c3d 86cd 253e 90d6 9d3d
00000380: 5ad7 9b3e d8e1 8b3e 2c83 15be f574 9e3d
00000390: 64d8 6a3e aee8 0fbe 966f 0ebc 96f4 d8bd
000003a0: d551 b83d 5ff7 2ebe a135 3cbe 680d 863e
000003b0: 2b24 87be 5941 3ebd a883 b63d 1566 c3bd
000003c0: bbf1 7d3e a56b 4abe 2e8d 10be ed97 383e
000003d0: 487d 5fbe 848b c2bd 0128 6bbe 666f 2ebe
000003e0: 3596 6bbe 2855 8fbd 75d7 4bbe 5bb1 763c
000003f0: 43c0 233e fd14 b9bd 3b73 b63d dc85 f7bd

blocks.4.1.bias f4 [16]
-0.0024679769 0.06889274 0.28789565 0.043019086 0.24160427 0.22316203 0.01964822 0.011472947
-0.0029534518 -0.2350655 0.13685529 -0.2912139 0.17923398 -0.06874741 -0.34204203 -0.04300267
00000000: c8bd 21bb a317 8d3d 0f67 933e c834 303d
00000010: 1c67 773e 9684 643e 4ef5 a03c 07f9 3b3c
00000020: b38e 41bb 03b5 70be cb23 0c3e fd19 95be
00000030: 1d89 373e 71cb 8cbd 2220 afbe 9123 30bd

blocks.5.1.weight f4 [16, 16, 1]
-0.20809248 -0.16196585 0.1954964 -0.18941206 0.08334906 -0.017357275 -0.10100653 0.3038645
-0.096421175 0.2673842 -0.2295165 -0.023392288 -0.029202305 0.061623424 -0.11230881 0.023229936
0.11633129 -0.14616773 -0.22068836 -0.07762089 0.041269153 -0.05756108 -0.17699245 -0.091329776
0.069959275 0.034647256 -0.09663487 -0.18265761 -0.14631732 0.22648712 0.060644127 -0.10512154
-0.09105644 -0.053839065 0.1732989 -0.04098844 -0.14152165 0.14605463 -0.047035966 0.059233677
0.024099639 0.014226804 -0.20662484 0.21068238 -0.06531358 0.10520629 -0.15287443 -0.18447478
0.19653386 0.1776409 0.24576329 0.037763357 -0.3107892 -0.1584894 0.031614296 0.019254861
-0.09732462 0.22671126 -0.1308479 -0.053407945 0.13469245 -0.025841791 0.07775101 -0.11776247
0.20103791 0.15827806 0.18867953 -0.09551526 -0.13085124 0.086339355 0.11762706 -0.07330408
-0.10517734 0.18633336 -0.019072425 -0.16540605 -0.19762945 0.089581706 0.14507014 0.16025074
-0.14057368 -0.042396992 0.015733197 0.13266648 -0.16584721 -0.19234192 -0.16914089 0.1528553
0.2310887 0.17015314 0.16180387 -0.13132136 0.19473657 -0.23950553 0.132926 0.18860707
0.23756234 -0.1964438 -0.23412086 0.18183419 -0.11697258 0.24175066 0.2286147 -0.018092358
-0.058990683 0.07628303 0.030009475 0.14642434 0.018229911 0.08634823 -0.074534655 0.07491976
0.091159455 0.047560863 -0.18652938 0.03550449 0.11265074 0.09639773 -0.047127046 -0.114738084
0.17332627 -0.08629935 0.1328478 0.0065570436 -0.06599351 -0.16605695 0.10545367 -0.008040807
0.15027833 0.30684957 -0.11057985 0.11303339 -0.043695 0.16449879 -0.36354548 -0.107729055
0.3066831 0.41675258 -0.19528838 0.34497768 0.32035902 -0.049848396 -0.22594428 0.11219854
0.11437687 0.31075737 0.005752442 -0.09782637 0.029543594 0.2644751 -0.16610493 0.13350378
0.06728312 0.3002287 -0.23271191 0.23068826 0.21565118 -0.2924891 -0.22522637 0.09614636
0.19749343 0.08044667 0.24243502 -0.22376285 0.09583259 0.0025891818 0.18335044 0.0594654
0.16034459 0.040557913 0.114589214 -0.15192746 -0.03415641 -0.03254277 0.13926008 0.08128757
-0.037468523 0.042067517 -0.009035155 0.23597674 0.07043939 0.34535652 -0.044877127 -0.08218163
-0.22279117 -0.10375205 -0.38725525 0.13214141 0.21600956 0.014274896 0.16374221 0.24329582
0.20300613 0.102173775 -0.22341633 0.34657922 0.22725508 0.23540777 0.03699799 0.20494024
0.098063074 0.3896286 0.017690346 0.20214148 -0.016772058 -0.2178974 0.034343064 0.37945873
0.10242622 -0.09690835 0.10538774 0.04841815 -0.23773657 -0.087376356 -0.02735878 0.22338864
0.22581911 -0.07818695 0.18592629 -0.18620734 0.05935473 0.22008754 -0.06272343 0.0030327505
0.025200278 0.13965487 -0.0016777236 -0.117909 0.050185543 -0.01033951 0.22110088 -0.10740692
-0.20476483 0.17696092 -0.22550026 0.062931836 -0.21189293 -0.23340108 0.15999612 -0.028742522
-0.25795534 0.032349363 0.0033686417 0.0861652 0.17510508 -0.16892579 -0.1671261 -0.0140988985
0.21576522 -0.16122429 -0.1300884 0.19236617 0.20125338 0.06857451 -0.038961034 0.091549315
00000000: 3216 55be 60da 25be 3530 483e 3cf5 41be
00000010: e9b2 aa3d d830 8ebc 83dc cebd 2194 9b3e
00000020: 7778 c5bd 95e6 883e 6006 6bbe 2fa1 bfbc
00000030: ac39 efbc d868 7c3d 2902 e6bd b54c be3c
00000040: 193f ee3d feac 15be 21fc 61be b4f7 9ebd
00000050: d809 293d 2bc5 6bbd 823d 35be 1b0b bbbd
00000060: cf46 8f3d 48ea 0d3d 81e8 c5bd 990a 3bbe
00000070: 35d4 15be 3dec 673e fa65 783d f649 d7bd
00000080: cc7b babd 5a86 5cbd 4475 313e 7fe3 27bd
00000090: 0deb 10be 588f 153e c9a8 40bd 039f 723d
000000a0: 9b6c c53c 8a17 693c 7695 53be 1fbd 573e
000000b0: 20c3 85bd 6576 d73d 1d8b 1cbe f5e6 3cbe
000000c0: 2c40 493e 7fe7 353e 5fa9 7b3e c0ad 1a3d
000000d0: c31f 9fbe 0c4b 22be fe7d 013d 5fbc 9d3c
000000e0: 2152 c7bd ff26 683e fefc 05be 4ac2 5abd
000000f0: d1ec 093e 2ab2 d3bc ec3b 9f3d 732d f1bd
00000100: e2dc 4d3e a513 223e 3535 413e 819d c3bd
00000110: defd 05be b0d2 b03d 75e6 f03d 7320 96bd
00000120: 3867 d7bd 2cce 3e3e c63d 9cbc 3460 29be
00000130: 605f 4abe 9d76 b73d 448d 143e c518 243e
00000140: 8cf2 0fbe 78a8 2dbd e8e2 803c b9d9 073e
00000150: dad3 29be 48f5 44be 4533 2dbe 1a86 1c3e
00000160: 84a2 6c3e a03c 2e3e eaaf 253e 1b79 06be
00000170: 0669 473e f040 75be c11d 083e 3622 413e
00000180: 8b43 733e 9028 49be 61bd 6fbe be32 3a3e
00000190: 528f efbd 7c8d 773e f919 6a3e 6d36 94bc
000001a0: 37a0 71bd 473a 9c3d 6ed6 f53c 43f0 153e
000001b0: e556 953c 57d7 b03d a0a5 98bd 886f 993d
000001c0: cfb1 ba3d 2ecf 423d 8f01 3fbe 286d 113d
000001d0: 6eb5 e63d 2c6c c53d 4a08 41bd cdfb eabd
000001e0: 717c 313e b7bd b0bd 4109 083e 78dc d63b
000001f0: 9b27 87bd d50a 2abe 18f8 d73d 97bd 03bc
00000200: 90e2 193e 631b 9d3e b077 e2bd 0d7e e73d
00000210: 87f9 32bd 5f72 283e a222 babe 0da1 dcbd
00000220: 9105 9d3e 9860 d53e adf9 47be eaa0 b03e
00000230: 1906 a43e d52d 4cbd f05d 67be 59c8 e53d
00000240: 6c3e ea3d 971b 9f3e fb7e bc3b 3159 c8bd
00000250: 6805 f23c 4869 873e 6917 2abe 37b5 083e
00000260: bbcb 893d 93b7 993e 084c 6ebe 8b39 6c3e
00000270: aad3 5c3e 22c1 95be bea1 66be 62e8 c43d
00000280: b83b 4a3e 39c1 a43d e340 783e 1722 65be
00000290: e043 c43d 43af 293b 38c0 3b3e fe91 733d
000002a0: 5f31 243e 0e20 263d c0ad ea3d df92 1bbe
000002b0: 97e7 0bbd 914b 05bd 329a 0e3e 197a a63d
000002c0: 9878 19bd fd4e 2c3d 3008 14bc e3a3 713e
000002d0: 8742 903d 92d2 b03e 14d1 37bd d84e a8bd
000002e0: 5e23 64be f47b d4bd 5246 c6be 1450 073e
000002f0: 9c31 5d3e 41e1 693c 0aac 273e 8a22 793e
00000300: d7e0 4f3e 7c40 d13d 40c7 64be d572 b13e
00000310: 8eb5 683e bc0e 713e 348b 173d dbdb 513e
00000320: 4bd5 c83d 667d c73e 58eb 903c 2dfe 4e3e
00000330: 8e65 89bc 7f20 5fbe 50ab 0c3d 6a48 c23e
00000340: d7c4 d13d e377 c6bd 87d5 d73d 1c52 463d
00000350: 3771 73be 60f2 b2bd 851f e0bc febf 643e
00000360: 203d 673e 7b20 a0bd 7663 3e3e 23ad 3ebe
00000370: f21d 733d a15e 613e 2475 80bd 1cc1 463b
00000380: d070 ce3c b001 0f3e 10e7 dbba 467a f1bd
00000390: 5b8f 4d3d 0c67 29bc 4568 623e 29f8 dbbd
000003a0: dfad 51be 3e35 353e 8ae9 66be 68e2 803d
000003b0: 76fa 58be b100 6fbe 06d6 233e 7075 ebbc
000003c0: b912 84be c480 043d 6ec4 5c3b 6177 b03d
000003d0: bf4e 333e e2fa 2cbe 1b23 2bbe 11ff 66bc
000003e0: 8ff1 5c3e fb17 25be e535 05be a3fb 443e
000003f0: 5e15 4e3e cb70 8c3d 9b95 1fbd 357e bb3d

blocks.5.1.bias f4 [16]
-0.13247958 0.07147122 0.27166328 0.16221829 -0.10515449 -0.067942746 0.12720045 -0.0150628835
0.21387921 0.14234199 0.16459502 -0.39179903 0.14325221 0.02851104 0.0060139317 -0.117407456
00000000: baa8 07be 815f 923d 7317 8b3e 8d1c 263e
00000010: 3d5b d7bd 9125 8bbd d640 023e 50ca 76bc
00000020: 2703 5b3e 19c2 113e 998b 283e e299 c8be
00000030: b5b0 123e fc8f e93c 8410 c53b 5273 f0bd

project.0.weight f4 [8, 16, 1]
0.07925426 -0.020371689 0.25300288 0.038163163 0.2172134 -0.0008962257 -0.090390384 0.12177052
-0.32158634 -0.3038226 0.035142574 -0.2812386 -0.23526658 0.09364831 -0.15730324 0.02866301
-0.098764725 0.2887127 -0.2626899 -0.15627152 -0.29043496 0.011460459 0.31057888 -0.0524379
0.14369014 -0.16527323 0.07291973 0.42324936 0.26728216 -0.06200484 0.36970973 -0.0915214
-0.0010606463 -0.04075093 0.16893336 -0.024623556 0.062897995 0.01819715 -0.15850805 -0.059083957
0.096356586 0.006840484 -0.066247374 -0.28700763 0.1895513 -0.02931171 -0.18821332 -0.065952614
-0.039283488 -0.36543983 0.11749982 0.011352988 -0.0837289 -0.040896475 0.08947984 0.1894973
-0.09814539 -0.027722208 0.23694795 0.14960843 -0.072127484 -0.043084454 0.23492983 0.13520321
-0.19410405 -0.20118122 0.064468436 0.150046 -0.0957566 0.10082916 0.007013943 0.12563896
0.19643424 -0.12804571 0.013568384 0.0047032237 0.0923777 -0.34282234 0.2780344 -0.05205082
0.13010284 0.2268127 -0.19153535 -0.28387836 -0.20190059 -0.31657764 0.22999714 -0.10390712
-0.27772453 -0.08312011 0.086121365 -0.2184568 -0.30065918 0.06893486 0.10232647 -0.18921348
-0.16734475 -0.021089187 0.092899315 0.028542 0.19012266 0.09403123 0.22439644 0.24345174
-0.24327606 0.015138062 -0.16661647 0.0034915472 0.11139807 -0.05611362 0.02556284 0.11365974
0.027977586 0.08260093 0.15791067 -0.021662492 -0.15134545 -0.17687762 -0.23469308 -0.080980785
-0.46602282 0.0028405779 0.04686849 -0.14025787 -0.3402643 0.091741934 0.07869292 -0.061226476
00000000: 0f50 a23d 87e2 a6bc 9889 813e fa50 1c3d
00000010: 316d 5e3e b0f0 6aba 981e b9bd d362 f93d
00000020: f7a6 a4be a38e 9bbe a9f1 0f3d 81fe 8fbe
00000030: b9e9 70be afca bf3d 1a14 21be b0ce ea3c
00000040: 2945 cabd 27d2 933e 4a7f 86be a405 20be
00000050: e4b3 94be a6c4 3b3c 3204 9f3e 20c9 56bd
00000060: 8223 133e 633d 29be f056 953d 24b4 d83e
00000070: 35d9 883e c9f8 7dbd 984a bd3e 926f bbbd
00000080: 6205 8bba 72ea 26bd defc 2c3e 57b7 c9bc
00000090: aad0 803d 3112 953c ef4f 22be 0502 72bd
000000a0: 9a56 c53d 2426 e03b b4ac 87bd aaf2 92be
000000b0: bc19 423e 1c1f f0bc feba 40be 2a12 87bd
000000c0: b9e7 20bd ee1a bbbe bfa3 f03d e201 3a3c
000000d0: 0f7a abbd 1083 27bd 3541 b73d 950b 423e
000000e0: 7300 c9bd af19 e3bc 7ca2 723e f432 193e
000000f0: 93b7 93bd 5379 30bd 7291 703e b672 0a3e
00000100: 36c3 46be 7302 4ebe 0708 843d a9a5 193e
00000110: 091c c4bd 857f ce3d 38d5 e53b 80a7 003e
00000120: 0f26 493e 6a1e 03be ed4d 5e3c 801d 9a3b
00000130: 8530 bd3d 6986 afbe 865a 8e3e 3e33 55bd
00000140: ae39 053e 9741 683e d821 44be 8158 91be
00000150: 07bf 4ebe 7716 a2be 5f84 6b3e 42cd d4bd
00000160: e931 8ebe e03a aabd 6660 b03d 24b3 5fbe
00000170: 00f0 99be b82d 8d3d 8a90 d13d 2ec1 41be
00000180: 6c5c 2bbe 3bc3 acbc ff41 be3d ead0 e93c
00000190: 84af 423e 7293 c03d 2ec8 653e 6a4b 793e
000001a0: 5c1d 79be a205 783c 829d 2abe 71d2 643b
000001b0: ac24 e43d 65d7 65bd 2969 d13c 70c6 e83d
000001c0: 4031 e53c ad2a a93d 56b3 213e 8a75 b1bc
000001d0: 4dfa 1abe 681f 35be 6253 70be 41d9 a5bd
000001e0: 8b9a eebe fd28 3a3b 2cf9 3f3d c29f 0fbe
000001f0: 1f37 aebe 32e3 bb3d c129 a13d 9dc8 7abd

project.0.bias f4 [8]
-0.009656196 -0.023984838 -0.06486216 -0.22382858 -0.21525128 -0.17133807 0.1213469 0.2401994
00000000: 0635 1ebc da7b c4bc 74d6 84bd 5233 65be
00000010: d56a 5cbe 3f73 2fbe b984 f83d d5f6 753e

project.3.weight f4 [3, 8, 1]
0.34428084 -0.1281839 0.3653604 -0.0912401 0.016323138 0.08146084 -0.0045785704 0.046701923
-0.046076052 0.033487033 0.113761686 -0.13970074 -0.13477473 -0.22801784 0.018631866 0.33421066
0.34993625 0.048022345 -0.24880864 -0.3807152 -0.38574985 -0.34100336 -0.0012768533 0.0984551
00000000: 9445 b03e a442 03be 8510 bb3e 17dc babd
00000010: 1ab8 853c f1d4 a63d d507 96bb 844a 3f3d
00000020: 3eba 3cbd b329 093d e3fb e83d b60d 0fbe
00000030: 6302 0abe 827d 69be dba1 983c a91d ab3e
00000040: d82a b33e 14b3 443d b1c7 7ebe 1aed c2be
00000050: 0181 c5be fe97 aebe 165c a7ba d4a2 c93d

project.3.bias f4 [3]
-0.26344857 0.24127501 0.3146993
00000000: bbe2 86be cc10 773e 4420 a13e
